logs/adult/sex-parity-adv/learning_rate_0.1-num_iters_2000-n_h_100-n_h_adv_10-dropout_rate_0.2-alpha_1-adv.pth (torch_old, 9039 bytes, 3 tensors)

weight f4 [10, 1]
0	0x3f153fb8	0.5830035
1	0xbe86a5b4	-0.26298296
2	0x3f119010	0.56860447
3	0xbf27b6b2	-0.65513146
4	0x3dd1fa70	0.10252845
5	0xbe3e3558	-0.18575037
6	0x3e800c28	0.25009274
7	0xbf340a6a	-0.7032839
8	0xbf3c9b66	-0.7367462
9	0xbd919de0	-0.071101904

bias f4 [10]
0	0x3f4c445a	0.79791796
1	0x3eafb910	0.3432088
2	0xbf7f5d6c	-0.99751925
3	0xbebb07dc	-0.36529434
4	0x3ee3e8a4	0.44513428
5	0xbf3eb97e	-0.7450179
6	0x3f56e188	0.83937883
7	0xbea848f8	-0.3286817
8	0x3dc72440	0.09723711
9	0xbed5e16c	-0.41773546

weight f4 [1, 10]
0	0x3d0d9d58	0.034573883
1	0xbe7c3c35	-0.24632342
2	0x3e02fffa	0.1279296
3	0xbd3eb768	-0.04656163
4	0xbe4aee34	-0.1981743
5	0x3d5a0218	0.053224653
6	0xbe747eda	-0.23876515
7	0x3d3e2ff0	0.046432436
8	0xbe820e04	-0.25401318
9	0x3d22db48	0.039759904
