logs/adult/sex-parity-adv/learning_rate_0.001-num_iters_2000-n_h_100-n_h_adv_10-dropout_rate_0.2-alpha_1-adv.pth (torch_old, 9039 bytes, 3 tensors)

weight f4 [10, 1]
0.24198055 0.1238054 0.5083648 0.7751337 0.40657902 -0.7465675 0.7728374 0.24550009
-0.3979125 0.94826555
00000000: c0c9 773e b08d fd3d 3224 023f 2a6f 463f
00000010: 202b d03e 0c1f 3fbf acd8 453f 6064 7b3e
00000020: 30bb cbbe 88c1 723f

bias f4 [10]
-0.69839644 0.5852078 -0.16852117 0.42384398 0.10354793 -0.9885713 0.0351367 0.39163697
0.602298 0.069821
00000000: 1cca 32bf 2ed0 153f d090 2cbe 1402 d93e
00000010: f010 d43d 0213 7dbf 80eb 0f3d a484 c83e
00000020: 3430 1a3f 50fe 8e3d

weight f4 [1, 10]
0.25921753 -0.27998707 0.25761542 -0.030919552 0.24160191 -0.13868111 0.011761129 -0.070277765
0.26717904 0.041950077
00000000: 29b8 843e 775a 8fbe 2be6 833e 004b fdbc
00000010: 7e66 773e 6c02 0ebe c0b1 403c caed 8fbd
00000020: b1cb 883e d8d3 2b3d
