logs/adult/age-parity-model/learning_rate_0.001-num_iters_2000-n_h_10-n_h_adv_10-dropout_rate_0.2-alpha_1-model.pth (torch_old, 13680 bytes, 3 tensors)

weight f4 [10, 117]
00000000: 51bd 0dbe 0e66 0dbf fcee b5bc efc6 43bc
00000010: 6420 633e c6e2 aa3e 06ba 8e3d e72e 92bd
00000020: 82e3 6dbd 05e0 8abe 8d2a 09be 6fa8 83be
00000030: 6c82 b0bd 63de 13be c38e 6d3d db28 313e
00000040: 8c47 083d 4104 143e a3c3 3f3f e61b 1e3e
00000050: 2999 11be 226f 8e3e 36dd 933e bc1c 653f
00000060: 17b7 0f3e 913b 553e b129 233e 589c 533e
00000070: 70c6 b8bd 7202 3b3e 3e2e f13d 5286 3b3e
00000080: 7ac0 2a3d fd82 68bd 00c3 9dbe 810f a63d
00000090: c3ab abbd c6c2 0b3f 39d7 2e3e 4174 dd3c
000000a0: dd61 a73d 5d74 81be 6a09 60be 6bfb d6bc
000000b0: 37fa 633e cac4 813e c82d 76bc b354 163d
000000c0: 7b5b dd3d 24db 123f e602 c93b 8b65 79bd
000000d0: 1f0e ce3e 1503 6b3e 9eef f73d 1605 a03e
000000e0: 24dc 123f 26ae 72bd 82e8 b3bd 6f07 45bd
000000f0: 5ed6 bdbd 7523 403d d0a0 86bd 74a2 083e
00000100: 2590 ce3d e94a 883e 479e df3d 11be e6be
00000110: 09f4 ae3e df7b a03d 532e 6e3e b5c0 293e
00000120: 6160 2c3e 4c09 893e 36b3 e3bc b046 9d3e
00000130: fe04 e1be 0e76 b0bd 91e8 2c3e 90f0 713f
00000140: 9605 933e e8c0 143f 2298 23bf aeae db3e
00000150: 469a b6bc 4c33 4a3c dc50 89be 4c92 e73e
00000160: cd05 ab3d b972 c93e 1f9e f63e be03 813e
00000170: e03e c93e 99cb 28bf c6b0 873e 77f0 393b
00000180: 38ea 4b3e b4b7 b3be 9531 673e 0c89 673e
00000190: 058e 9c3e ab4e e53e 86a8 4c3f f456 923e
000001a0: 2c7e 1c3e e318 953e 2a91 c33e 2827 473e
000001b0: bb2f 583e b717 533e 287c 563e 938f 183f
000001c0: fc81 2c3d 232f c23d 449d 403f 6330 c13e
000001d0: 4a58 4a3d 3da1 41be 276f 23bf 6ff0 13be
000001e0: c38e a6bd 1b17 d33e f88e f93e 944f dc3d
000001f0: 6c5e 12be 1909 cebd e186 edbd 0f8a 5fbe
00000200: 2eee d6be a464 5dbe 0ce7 99be b1f7 63bd
00000210: 81c7 643e c6d6 52be 13a4 9fbd b166 5c3f
00000220: 8ff2 663e fb90 503e 880f 2b3f 042b b53e
00000230: 1c86 973f c9a8 953e 52b0 bd3e b3ae 5c3e
00000240: cfce 9f3e 6095 5ebd fbd2 8b3e 343e 913e
00000250: 115d 133e 8f68 bf3b 41fa 64bd b960 28bf
00000260: ba9b 0a3e bbd5 9c3e 3a6d 483f 3e0e 973e
00000270: b502 0b3d aa47 0f3e 2c4f edbe ea61 d7be
00000280: 261c d3bd 2add 943e 8789 cc3e 252e 603c
00000290: 4e6e 853e 4eb8 393d 18ce 5b3f fcc2 173d
000002a0: 7c4a 80bd 7b65 133f db0f aa3e b9fc 463e
000002b0: c229 a13e 254c 453f 4bff 01bf 91bc 213e
000002c0: 8eb9 a0bc fc74 29be 4155 f63d 6f54 a93c
000002d0: 5fab d5bb 0ced 383e 3901 c83e a8eb d13d
000002e0: e4c3 d4be e881 933e 39d9 0e3e 6ab0 693e
000002f0: c0f4 813e ee73 0e3e f87a d43e d4b6 d2bd
00000300: 8f6b 4f3e 62b2 8cbe 8053 c6be 0075 f43d
00000310: 5cbc 9d3f 0f24 283e b4c5 443f dd24 923d
00000320: fc39 063f 6dd2 8c3d 10f4 423e 0a6f 2f3e
00000330: d52d 0d3f d90f 433e fff1 eb3e 23d4 343f
00000340: fff4 033e 4082 7d3e 2353 af3e 9d9f 593d
00000350: 70f2 d13e bb3b 393e a25b 8a3e a7bb a23d
00000360: 0fa7 fe3e 806c f53e 3c27 0d3f 2a07 7b3f
00000370: 11f2 273f b226 e93e 9042 023f af6a e63e
00000380: 9538 0e3f dac8 dd3e 94b8 5b3f c1a6 a83e
00000390: fcd5 103f c2c1 013f d48d bb3d 54f2 483f
000003a0: f96f df3e b083 95bb d4c4 143c c978 453f
000003b0: 67bf 243e 1af8 2bbd 20e8 2abf 512c 29be
000003c0: a1f3 74be c28d 013e ff56 763e 4c04 e53d
000003d0: c6f0 363e 881a 8f3e 37b9 d7be 0387 573e
000003e0: 7e3d c1be 333a 223d e329 70be c553 83be
000003f0: 1e20 e4bc fbdc 4abd e715 6d3e 1e55 88bb
-0.1384175 -0.5523385 -0.022208683 -0.011949285 0.22180325 0.3337614 0.06969075 -0.07137852
-0.058078296 -0.27124038 -0.13395138 -0.25714442 -0.08618626 -0.14440303 0.057997476 0.17300741
0.033271357 0.14454748 0.7490789 0.1544033 -0.14218582 0.27819163 0.28879708 0.8949697
0.14034687 0.20823504 0.15933873 0.20665109 -0.09022224 0.18262652 0.11776398 0.18312958
0.041687466 -0.056765545 -0.30812836 0.08108426 -0.0838237 0.54594076 0.17074288 0.027032973
0.08172963 -0.2528409 -0.21878591 -0.026242932 0.22263418 0.2534545 -0.015025564 0.03670187
0.10808464 0.5736563 0.0061343787 -0.060887855 0.4024515 0.22950394 0.1210625 0.3125388
0.5736716 -0.059248112 -0.08784582 -0.048102792 -0.09269403 0.046908814 -0.06573641 0.13343221
0.10086087 0.26619652 0.10918861 -0.45066884 0.3417056 0.078361265 0.23259859 0.16577418
0.1683364 0.26764905 -0.027795415 0.30717993 -0.4394912 -0.08616267 0.16885592 0.94507694
0.287152 0.5810685 -0.6390401 0.42906708 -0.02229036 0.012341332 -0.26819503 0.45228803
0.08350716 0.3934534 0.48167512 0.25198168 0.39305782 -0.65935665 0.26502055 0.0028372088
0.19913566 -0.35101092 0.22577508 0.22610873 0.30577102 0.4478658 0.79944646 0.28581965
0.15282506 0.2912055 0.3819669 0.1944853 0.21111958 0.20614515 0.209458 0.59594077
0.04211615 0.09481647 0.7523997 0.3773223 0.049400605 -0.18909164 -0.6384148 -0.14447187
-0.081326984 0.41228566 0.4874189 0.10757366 -0.14293832 -0.10060329 -0.11597992 -0.21830009
-0.41978592 -0.21620423 -0.30059087 -0.05565614 0.2234173 -0.20589742 -0.077949665 0.86094195
0.22553466 0.20367806 0.66820574 0.3538438 1.1837802 0.29230335 0.37048584 0.21551017
0.3121247 -0.054341674 0.27309403 0.2836777 0.14390971 0.005841322 -0.055902723 -0.6577259
0.13535967 0.30631813 0.78291667 0.29503053 0.03393813 0.13992181 -0.46349466 -0.4206689
-0.10308103 0.29074985 0.39948675 0.013682877 0.26060718 0.045341782 0.8586135 0.037051186
-0.06264207 0.5757672 0.33215222 0.19432344 0.3147717 0.7706931 -0.5078017 0.15794589
-0.01961973 -0.16548532 0.1202798 0.020670144 -0.006520673 0.18059176 0.39063433 0.10250026
-0.41555703 0.28810048 0.13950051 0.22821203 0.25382042 0.13911411 0.41500068 -0.10288778
0.20255874 -0.27479845 -0.3873558 0.119363785 1.2323108 0.16420005 0.7686417 0.07135937
0.5243223 0.06876073 0.19038415 0.17132202 0.5514806 0.19049014 0.46083066 0.70636195
0.12886427 0.24756718 0.34243116 0.053130735 0.41005278 0.18089192 0.27023035 0.07945948
0.4973683 0.4793434 0.5513799 0.98057806 0.6560374 0.45537335 0.50882816 0.45003268
0.5555509 0.433173 0.8582852 0.32939723 0.56576514 0.50686276 0.09157911 0.78494763
0.43640116 -0.0045628175 0.009080131 0.7713743 0.16088639 -0.041984655 -0.66760445 -0.16520812
-0.23921062 0.12651733 0.24056624 0.1118246 0.17865285 0.2794993 -0.42133495 0.21047597
-0.37742227 0.039606284 -0.23453479 -0.2564985 -0.027847346 -0.04952715 0.23152886 -0.0041605374

bias f4 [10]
00000000: 2a0f ea3d c0d5 7e3e c9f5 f1bd 957c 54bd
00000010: 6c46 e7bd 03a6 873e 306e 8d3e d0d8 f03d
00000020: a8ff f3bc e251 5e3e
0.114286736 0.24886227 -0.11814458 -0.051876623 -0.11292729 0.26493844 0.2762313 0.11760104
-0.029784992 0.21710923

weight f4 [1, 10]
00000000: 16e4 12bf 97d1 eabe 8465 8c3f cb0a 2c3f
00000010: 7cec 533f 7de5 f7be b9de d8be d088 0cbf
00000020: d9ee 5f3f 289b f1be
-0.5737928 -0.4586303 1.096848 0.6720397 0.8278272 -0.48417273 -0.42357424 -0.5489626
0.8747383 -0.47188687
