logs/adult/sex-odds-model/learning_rate_0.1-num_iters_2000-n_h_100-n_h_adv_10-dropout_rate_0.2-alpha_1-model.pth (torch_old, 56520 bytes, 3 tensors)

weight f4 [100, 117]
000000 07 67 b5 be ee 34 83 c0 8d 6e 1f bf a7 53 0d 3f
       -0.35430166 -4.100211 -0.6227806 0.5520577
000010 28 cc 24 40 d5 e0 50 bf fb e6 d9 bf 68 8e 2c 3f
       2.5749607 -0.81593066 -1.7023615 0.67404795
000020 97 f4 35 3f fb f3 54 bf 09 0f 06 3f 96 c1 a2 c0
       0.7107634 -0.83184785 0.5236669 -5.086131
000030 9f 1e ab 3f ff 31 1e 3e 4e bd 3f 40 c8 7c 16 be
       1.336872 0.1544876 2.9959292 -0.14696038
000040 dd c1 06 40 5d 12 b4 3f 71 50 0d 40 09 9b 84 bf
       2.1055825 1.4068104 2.2080348 -1.0359813
000050 53 57 6b bf 2b 73 a0 3f 98 8a ce bf e8 6a 97 40
       -0.9193012 1.2535146 -1.6136045 4.7318
000060 cf 18 8a 3f 0f 9c 48 40 9c 39 fe 3f aa e5 28 3f
       1.0788821 3.134525 1.9861331 0.6597544
000070 7b 23 46 c1 70 7f 24 c0 ba 08 a0 c0 72 28 c5 3f
       -12.383662 -2.5702782 -5.0010653 1.5402968
000080 cf 47 54 c0 95 71 e6 be 92 73 88 c0 a9 b9 55 be
       -3.3168828 -0.4500853 -4.2641077 -0.20871605
000090 a7 46 e6 be 8e f0 06 40 03 e3 5a 3f f4 c6 14 3d
       -0.44975778 2.1084323 0.8550264 0.03632255
0000a0 c6 fd 07 bf 30 f9 83 c0 5f 2a 5f bf 73 9b e8 c0
       -0.531216 -4.1241684 -0.8717403 -7.2689757
0000b0 36 9e 0b 40 43 94 51 3f f4 0a 46 3f 96 94 7b bd
       2.1815314 0.81866854 0.77360463 -0.061421
0000c0 57 c2 90 c0 35 e5 2e 40 90 86 94 3d ec 52 6e 3f
       -4.523723 2.7327397 0.07252228 0.9309528
0000d0 27 4a 07 40 4f 5c 4c be 8f 6c 63 3f db a2 62 3f
       2.113901 -0.19957088 0.8883752 0.8852975
0000e0 cf ef 9f 40 14 21 59 c0 f9 cf 8d c0 c2 f7 41 3f
       4.9980235 -3.392644 -4.4316373 0.75768673
0000f0 5e be e5 3e 04 c1 36 40 05 78 d3 bd 64 e8 28 c0
       0.448718 2.8555307 -0.10325626 -2.639184
000100 fe 55 79 40 19 5f 3b 40 61 7f 83 c0 7a 20 05 40
       3.8958735 2.9276793 -4.109299 2.0801072
000110 1e 33 8d 40 d7 94 b9 be 00 c4 c1 be f5 df 35 40
       4.41249 -0.36246368 -0.3784485 2.8417943
000120 41 b5 f8 be 01 21 1f 3f 36 18 15 bf a0 44 aa 3f
       -0.48575786 0.62159735 -0.5824007 1.3302193
000130 5d a0 23 c0 bf 17 89 c0 02 ed 5c c0 ab 85 32 40
       -2.5566628 -4.2841487 -3.4519658 2.7894084
000140 59 aa 9a 3d 3b e7 d0 c0 57 ab 07 c1 3d 6f 87 bf
       0.075520225 -6.5282264 -8.479331 -1.0580822
000150 1f ec de 3f c0 e9 3f c0 69 6b 1b 40 92 5f de c0
       1.7415808 -2.998642 2.4284308 -6.9491663
000160 aa 36 a3 40 d6 61 7c 40 7e 47 ee 3f a5 19 f9 3f
       5.100423 3.9434714 1.8615568 1.9460951
000170 3b 6f 35 3f e7 d7 44 40 d9 81 07 40 01 04 1a bd
       0.7087285 3.0756776 2.1173003 -0.037601475
000180 c6 5e 37 bf 13 50 57 3f 02 66 8f 3f 70 89 54 c0
       -0.7162899 0.8410656 1.1203005 -3.3208885
000190 5e b6 11 41 d4 d6 88 3f 6a 4b 83 c0 ea 29 b8 40
       9.107023 1.069056 -4.102956 5.7551165
0001a0 ae f7 a8 40 ad 98 20 40 13 ac 99 40 17 a6 83 40
       5.2802343 2.5093186 4.802255 4.1140246
0001b0 e5 1b 65 40 56 17 9e bf 50 bb 6d 3f ec 06 89 c0
       3.5798275 -1.2350872 0.9286394 -4.282095
0001c0 33 1c 39 c0 86 3b a1 40 18 76 1a bf 03 3a 3c 40
       -2.8923461 5.038516 -0.60336447 2.9410408
0001d0 de 01 c1 3e f5 57 e6 3d 3f 09 5b be d1 57 8a be
       0.37696737 0.11247245 -0.21390246 -0.27020124
0001e0 30 f4 37 3e 47 f9 1c bf c9 4b 35 bf c0 13 1e bf
       0.17964244 -0.6131787 -0.70818764 -0.61748886
0001f0 04 43 3b bf b4 7b 4e bf 9a 7d 4d bf c4 21 4f bf
       -0.7314913 -0.80657506 -0.8026978 -0.809109
000200 10 1e 45 bf a8 d1 61 bf fe f1 69 bf 5e ef 38 bf
       -0.76998997 -0.88210535 -0.91384876 -0.72240245
000210 7e 8e 0f bf 2d 0f 52 bf 73 fb 64 bf 2d f9 55 bd
       -0.560768 -0.82054406 -0.8944618 -0.052239586
000220 77 ba 3d bf 37 00 8a be 25 6b 5e bf 18 14 4e bf
       -0.7411265 -0.2695329 -0.8688224 -0.8049941
000230 ce aa f4 be 89 15 40 bf a1 ee 07 bf d5 a6 1e bf
       -0.47786564 -0.7503286 -0.53098494 -0.61973315
000240 76 4e 03 bf e5 52 2e bf 19 c8 1f bf 08 a9 06 bf
       -0.51291597 -0.68095237 -0.624147 -0.5260167
000250 d0 68 3a bf 01 67 22 bf 3e 04 02 bf e1 ff 6c be
       -0.7281618 -0.6343842 -0.50787723 -0.23144485
000260 d2 3a 3a bf 95 1b a6 be 8d 3f 25 bf ed 9c 2b be
       -0.72746 -0.32442918 -0.64550096 -0.16759081
000270 ec 22 1b bf 38 99 39 bf b3 65 f4 3e 83 ff 26 bf
       -0.6060016 -0.7249942 0.4773384 -0.6523363
000280 75 47 32 bf 68 87 38 bf ac 7f 37 bf ef 57 16 bf
       -0.69640285 -0.72081614 -0.71679187 -0.58727926
000290 81 30 25 bf 28 5c 14 bf a6 08 2d 3e 5f 78 15 bf
       -0.64527136 -0.5795312 0.1689783 -0.58386797
0002a0 36 24 bf be 65 ea 1f bf 7d e1 1f bf db 37 22 bf
       -0.37332314 -0.6246703 -0.6245344 -0.6336648
0002b0 28 79 1e bf 49 d4 11 bf 69 bd aa be e1 2c 25 bf
       -0.6190362 -0.56964546 -0.33347633 -0.64521605
0002c0 07 d7 67 bf be f2 5b bf 46 4a 2d bf c1 88 42 bf
       -0.9056248 -0.8591727 -0.6769146 -0.7598992
0002d0 22 ca 21 bf ae b6 3d bf 0a 12 2a bf 12 77 28 bf
       -0.63199055 -0.7410687 -0.66433775 -0.65806687
0002e0 64 6e 2a bf 36 66 13 bf f7 f2 48 bf f3 ac 2a bf
       -0.6657469 -0.57577837 -0.78495735 -0.6667015
0002f0 1d f2 22 bf 24 c0 51 bf 83 b1 24 bf ba 07 5e bf
       -0.63650686 -0.8193381 -0.6433336 -0.8673054
000300 e9 98 64 bf ac 44 de 3d 76 59 46 bf 96 27 58 bf
       -0.8929582 0.10852942 -0.77480257 -0.84435403
000310 b6 f4 ff be 46 fe 38 bf 1f ea 1e bf bf 18 08 bf
       -0.49991387 -0.7226299 -0.6207599 -0.5316276
000320 8f 77 27 bf 2b de 1c bf 6a 38 b4 be 25 89 38 bf
       -0.65416807 -0.612765 -0.3519929 -0.72084266
000330 2d f8 4e bf 3b 68 1e bf bb fa 14 bf be a3 e4 be
       -0.80847436 -0.61877793 -0.58195084 -0.44656175
000340 37 bf 00 bf e4 ba 4b bf 2d 0e f8 be a5 22 06 bf
       -0.5029177 -0.7958205 -0.48448315 -0.52396613
000350 c9 f2 96 be 0d 1d 28 bf 87 31 2e bf 51 c2 10 bf
       -0.29482105 -0.6566933 -0.6804432 -0.56546503
000360 09 9c 33 bf 75 2f 08 bf 5c a7 07 bf 5c 68 1c bf
       -0.70159966 -0.53197414 -0.52989745 -0.6109674
000370 2a c7 0b bf b7 3f 08 bf 54 73 5e bf 16 d4 0e bf
       -0.54600775 -0.5322222 -0.86894727 -0.5579237
000380 3d 40 04 bf 88 39 39 bf 31 e8 f0 be 44 15 5e bf
       -0.5166052 -0.7235341 -0.47052148 -0.867512
000390 77 1b 46 bf 66 6f f6 be de e2 f6 be 93 d7 58 bf
       -0.7738566 -0.48131865 -0.4821996 -0.8470394
0003a0 9e 08 06 bf 85 dc cb 3e 02 72 38 bf e5 d0 56 3f
       -0.523569 0.3981668 -0.7204896 0.839125
0003b0 46 30 04 3f 30 54 e5 3f 78 cd 65 be 48 da 03 3f
       0.5163616 1.7916317 -0.22441661 0.51504946
0003c0 bf ee 9b c0 da db fc 3e 2a dd 98 c0 e3 4c bf 3f
       -4.872894 0.49386483 -4.7769976 1.4945339
0003d0 31 ad e5 bf 4c 11 2c bf 3e 91 9a c0 2a 8b 35 40
       -1.7943479 -0.6721389 -4.8302298 2.836619
0003e0 a8 29 ef 3f 85 92 1a c0 a9 39 24 c0 b9 d0 7d c0
       1.8684587 -2.4151928 -2.5660193 -3.9658644
0003f0 2d 56 4f 3e f0 d0 23 bf 8c 44 d5 c0 a5 fa 99 bf
       0.20247717 -0.6399069 -6.6646175 -1.2029616

bias f4 [100]
000000 f8 03 da be dd 9e 41 bf 71 06 97 bf 1f 76 00 bf
       -0.42581153 -0.7563303 -1.1798841 -0.5018024
000010 10 1b 2d bf 00 5e 76 bf 50 2b e3 be e6 d3 98 bf
       -0.6761942 -0.9623718 -0.44368982 -1.1939666
000020 44 8a 24 bf 88 d4 6a bf 0c 0b 32 bf 02 00 96 bf
       -0.64273477 -0.91730547 -0.69548106 -1.1718752
000030 d0 4d d4 be f1 36 f8 bf 57 d7 e6 be 28 31 5a bf
       -0.41465616 -1.9391767 -0.45086166 -0.85231256
000040 48 f5 35 bf 38 cc 6a bf af e5 0c bf 6f 55 20 bf
       -0.71077394 -0.91717863 -0.5503797 -0.6263036
000050 bd cf 83 bf a0 1e 87 ba 20 ea 03 bf dc 5c 51 bf
       -1.0297772 -0.001030881 -0.5152912 -0.8178232
000060 88 f3 a3 be f6 09 82 bf a7 93 3e bf 5f 3c 01 bf
       -0.32021737 -1.015929 -0.7444405 -0.50482744
000070 7f 0d 15 c0 36 83 e9 bd c4 4a 5d bf 10 26 ac bf
       -2.3289487 -0.114019796 -0.8644221 -1.3449116
000080 20 87 1a bf 99 58 88 be ae e6 f5 be d5 49 25 bf
       -0.60362434 -0.26630095 -0.48027557 -0.64565784
000090 a6 b9 61 bf d0 91 80 bf e3 f3 11 bf 4d 6a 20 bf
       -0.881739 -1.0044498 -0.57012767 -0.626622
0000a0 32 76 f4 bd ea f7 18 bf be 79 f2 be d6 d0 43 bf
       -0.119366065 -0.59753287 -0.47358507 -0.76490533
0000b0 ea 7d e8 bd 1c 58 52 bf 8a 1f b1 bf a7 03 d8 bf
       -0.11352141 -0.82165694 -1.383775 -1.6876115
0000c0 40 b8 f0 bd 4d 52 ae be 00 7b 1d bf 14 c8 a4 bf
       -0.11753893 -0.34047166 -0.6151581 -1.2873559
0000d0 df 5e bc bf 09 05 d8 bf 5c 14 0b bf 9d 76 59 bf
       -1.4716452 -1.6876537 -0.5432794 -0.84946615
0000e0 c1 99 83 bf c5 b1 27 c0 19 ee 89 bf dc 5f 7f bf
       -1.0281297 -2.6202252 -1.0775787 -0.99755645
0000f0 c9 9b 09 c0 91 7a 05 bf c7 03 e6 be 8f bb 91 be
       -2.1501334 -0.52140146 -0.44924757 -0.28463408
000100 da dd b6 bf 2f fc fb bf 2c 0f 3f bf 40 03 03 bf
       -1.4286454 -1.9686335 -0.74632525 -0.51176834
000110 34 d0 9b bf 0f d9 0a bf e5 f4 8b bf 9a 9b 61 bf
       -1.2172914 -0.54237455 -1.0934111 -0.88128054
000120 67 78 cd be 98 13 8d bf 21 10 96 bf 69 3a 00 bf
       -0.40130922 -1.1021605 -1.1723672 -0.50089127
000130 78 65 41 bf 48 0f f6 bf 4e 68 02 bf 70 58 4d bf
       -0.75545454 -1.9223413 -0.50940406 -0.8021307
000140 72 43 4b bf be 5e 1b bf bb 19 2a bf ce dd 69 bf
       -0.7939979 -0.6069144 -0.6644551 -0.9135407
000150 71 48 1f bf 29 e2 29 bf ad 8d 60 bf 2d f4 07 bf
       -0.6221991 -0.6636072 -0.8771618 -0.5310696
000160 cd 49 0b bf c2 88 24 bf e4 d3 0f bf 7e 67 0f bf
       -0.54409486 -0.64271176 -0.56182694 -0.5601729
000170 19 ba 1b bf b4 75 63 bf ca 75 01 bf df b1 b1 bf
       -0.6083084 -0.88851476 -0.50570357 -1.3882407
000180 bc 19 c7 bf 13 ef 7d bf 12 f8 96 bf 5d f7 19 bf
       -1.5554729 -0.99192923 -1.1794455 -0.6014307

weight f4 [1, 100]
000000 a2 14 9f be 83 2f 87 3e 6e 86 a2 3f 4e 56 01 bf
       -0.3107043 0.26403436 1.2697275 -0.50522316
000010 e4 00 ca be 60 02 85 bf 9c 45 c8 be b7 30 eb 3f
       -0.39453804 -1.039135 -0.39115608 1.8374242
000020 62 f5 56 be d1 af 99 c0 ad cc a9 be 9e ae 9b 3f
       -0.20992044 -4.802712 -0.33163968 1.2162664
000030 de eb c4 be 83 ae c3 c0 b6 7e cd 3e d4 b8 39 3e
       -0.38461202 -6.1150527 0.40135735 0.18136913
000040 ec 8e f0 be 85 7a 68 be 91 08 44 3e 64 4e ca be
       -0.4698404 -0.22702987 0.19143893 -0.39512932
000050 19 7d 8b 3f fa d2 32 be 8d f6 01 bf bc f6 1e be
       1.0897552 -0.17463294 -0.5076683 -0.15523809
000060 1f 3f 0d bf 7f ce 6c 40 75 3c 00 bf 89 ff 13 bf
       -0.5517444 3.7001035 -0.5009225 -0.5781179
000070 77 2f e8 40 ba 2e 24 be 3d 0e de bf c9 ae ab 3f
       7.255794 -0.1603345 -1.7348095 1.3412715
000080 1c b1 cd be 77 be 93 be 97 e4 c4 3e f5 ee b9 be
       -0.40174186 -0.2885625 0.3845565 -0.36315122
000090 66 29 56 3f e3 0c ab 3f 81 5b c5 be d5 a7 4b bf
       0.8365692 1.3363308 -0.38546374 -0.79552966
0000a0 a2 57 7f be ce d2 b5 be 0b f1 80 3e b0 f9 a5 3e
       -0.24935773 -0.35512394 0.251839 0.3241706
0000b0 e8 45 88 be f5 b9 5e 3f 58 58 08 3f 96 7c a9 40
       -0.26615834 0.870025 0.532598 5.2964582
0000c0 16 9f 48 be 26 81 ab be cf 32 a5 be a6 f8 63 c0
       -0.19591936 -0.3349697 -0.32265326 -3.5620513
0000d0 a9 cc 03 40 14 c1 08 41 55 c6 f3 be ac 2a 38 be
       2.0593665 8.547138 -0.47612253 -0.17985028
0000e0 37 10 fc bf 6a 13 4a c1 bb 4c 8f 3f 24 fd 98 3f
       -1.9692448 -12.62974 1.1195291 1.1952252
0000f0 af 96 d1 40 f9 24 fc be 1e db 91 3e 4d fa 8f be
       6.549644 -0.49246958 0.28487486 -0.28120652
000100 9b e1 4a c0 7f 41 27 40 a2 ee 3f be 75 5b 0c bf
       -3.1700199 2.6133726 -0.18743375 -0.5482705
000110 b5 f3 d4 3f 54 20 01 bf 46 7f e4 3f 82 8b a9 bf
       1.6636873 -0.50439954 1.7851341 -1.32457
000120 2f 7f ca be 6c 93 05 c1 c1 14 3f c0 aa a2 cd 3e
       -0.39550158 -8.348492 -2.9856417 0.40163165
000130 f6 12 92 3e b5 e4 0d 41 d2 82 a3 3e a6 6d ea 3e
       0.2853009 8.868337 0.31935745 0.4578678
000140 23 c0 92 3f 4f 62 02 bf a8 02 77 be 36 a7 d9 3f
       1.1464885 -0.50931257 -0.24122107 1.7004154
000150 af 59 48 3e 32 04 58 bf 06 85 71 c0 69 38 bb 3e
       0.19565462 -0.843814 -3.773744 0.36566475
000160 b7 bd ae be 91 d5 05 bf a7 3a e7 be a2 71 42 3f
       -0.34129116 -0.52279 -0.45161936 0.7595464
000170 06 ca 04 bf 0b db 32 3e 60 07 82 3e 25 33 7a 3f
       -0.51870763 0.17466371 0.25396252 0.9773429
000180 35 dc 98 c0 d4 00 5b 3f 43 95 e4 3f 97 3c fb be
       -4.7768807 0.8554814 1.7858051 -0.49069664
