logs/adult/race-parity-model/learning_rate_0.1-num_iters_2000-n_h_10-n_h_adv_10-dropout_rate_0.5-alpha_1-model.pth (torch_old, 13680 bytes, 3 tensors)

weight f4 [10, 117]
00000000: cbdd 67bf b7ed 85c0 fe01 5fbf 4236 4dbe
00000010: b503 5f41 d2ec 3e40 c751 6c3f 06ab c6bd
00000020: 401b 92be 3ab3 17bf 2c09 57bf 4aa1 b0bf
00000030: b003 5abf de40 5dbf 7016 90bc 966d 383f
00000040: 19e4 1abe c183 5e3d f26e 4841 10e6 e83c
00000050: 5564 243d e44d 813f aaa8 373f 66b3 6a41
00000060: 8ba2 c43f c9ab b43f 5db4 84be b537 afbe
00000070: b8a0 3cc0 897f 203e ab6e 713f 3150 9d3f
00000080: c017 11bf 514b 46be d75c 00c0 d4ee 043f
00000090: 6e83 b0be 52a2 4d41 b75f a4bf 7603 1e3f
000000a0: ca8c 2840 7d1b f5c0 6084 d9bf 4c26 5d40
000000b0: 537a 3840 97e4 5140 039a ee3f f66b 353f
000000c0: 9e36 83be aab3 cf40 734e 243d 06ba 46bf
000000d0: aceb 1e40 22c2 653f 833a 7e3f 7c0c fa3f
000000e0: ae4f 3d41 8e79 20bf 3db7 d3bd bd33 05be
000000f0: 7f6f 28bf 7a31 c53e e068 483f 6bca 79bf
00000100: 9e5a 653f 0027 8b3f a961 77bf 88d0 ffbf
00000110: fc30 0d40 b8ed fabf 67f0 a93e a584 af3f
00000120: d072 923e 9231 f33f 12da 8fbe b9ea 813f
00000130: b50b c9bf 33e7 a83e c934 9640 99c8 9640
00000140: 4242 2dbf 3f15 0c40 77ee 92c0 c5c2 1d40
00000150: e3ce 9abe dad0 fa3d 58a5 93bf b7d4 1f40
00000160: 3ce3 3740 3e23 9d3e 91c5 1141 111f 0a41
00000170: 7258 4a40 583b ae3f 074d 4cc0 748e 43bf
00000180: 1292 83c0 2eb0 e5c0 7b02 f4bf 8e11 b4bf
00000190: 7053 c440 a920 0d40 3676 3340 997c 6241
000001a0: a1d3 8440 a6b9 97be f56f 643f fa47 0740
000001b0: 6048 3f40 6d3d ab3f 7aad e83f 3761 8dbe
000001c0: 1660 4740 7a27 a940 0deb be3c 45ad 5b40
000001d0: 8312 75c0 33a7 8dbf 9b1c 5ec0 5b5c 22be
000001e0: c66a cabf 6da8 6241 42fb 6440 e83c 793f
000001f0: 1781 f0bc c677 d9be 357f d0bf 5837 a5bf
00000200: f4f0 0ac0 e170 c0bf 8cb5 913e d9be cb3e
00000210: 7ec7 9ebd 99ae 023f 16a6 0540 2e19 2241
00000220: 9a90 1d3f 16f1 2dc0 9cd9 86c0 0a7b e23e
00000230: cbe5 3f41 c426 82bb 7f33 493f 2fdc 9f3f
00000240: 4ff7 803f cc94 1940 cbaf 8f3f 187c 403f
00000250: 42d5 563e 44dc 86bf 6975 d73d defd e1be
00000260: da95 d43e fe5c bfbe 111c 9141 b275 053e
00000270: a49d f8be c6d6 2b40 d153 a8c0 a24a 34c0
00000280: 779a 4340 b550 4940 e81a 0440 938f 483f
00000290: ac03 923d 64b0 d7bb 143a 5c40 4b94 0c3f
000002a0: 7d82 79bf 7960 4e40 7507 a23f eaee ae3f
000002b0: 0f5e a93f 7cc8 4941 4194 6bbf 1886 29c0
000002c0: e259 8ebd 3ae6 17bf dbce 6d3f 8ab7 493f
000002d0: f3a3 92bf ec1d 853f ce71 843f 7c08 b9be
000002e0: 14b7 1abf 99b7 7c3f fcd9 96bf a3b8 7f3f
000002f0: aee7 853f f5c1 373e 52ae 6f3f 40d9 9fbd
00000300: db73 97bf 67e8 bf3f 076f 273f 6af0 3fbe
00000310: 9f39 3b40 35ca ed3e 35ef c640 d895 8a40
00000320: b8bc 7640 2f05 a8c0 5453 c63f 6057 043f
00000330: 9179 c240 b22a 8dc1 fd1d 6ac0 5508 d640
00000340: 04a1 cf40 31e3 3840 63b0 26c0 3bbe 7fbf
00000350: aa97 4a40 82b1 893f fbc6 6a3e d110 9dbf
00000360: 62ef 15bf 0ff5 9fc0 c900 f73e 4c4d 35c0
00000370: db5f 6041 f37c 2640 0dd9 3c40 255b c6bf
00000380: f7d7 1d40 bb42 89bf a855 4740 3c02 9740
00000390: a507 163e 8385 4c40 471a ebc0 2b83 b33e
000003a0: f911 60c0 6383 8cc0 560f 83bf 3471 77c0
000003b0: 395d 89bd db56 8abf 7507 1b41 5d6a 2f40
000003c0: ab66 ff3f 3694 5d3f 2be3 57be 0d8f 86be
000003d0: 17c6 aebf 6546 72c0 ad4e 08c0 9807 87c0
000003e0: c15b e6bf 65ba be3f 0fd3 a8be 28d6 d63f
000003f0: 1d38 f840 2391 88be dd7d a03e 6d28 78c0
-0.90572804 -4.185268 -0.87112415 -0.20040229 13.938405 2.9832044 0.9231228 -0.09700589
-0.28536415 -0.59257853 -0.8399837 -1.3799222 -0.85161877 -0.86427104 -0.017588824 0.72042215
-0.15126075 0.05432487 12.527086 0.028430015 0.040134747 1.0101895 0.71741736 14.668798
1.5362104 1.4114925 -0.25918856 -0.3422219 -2.9473095 0.15673651 0.9430949 1.2290097
-0.56676865 -0.19364668 -2.0056665 0.5192692 -0.34475273 12.852129 -1.284171 0.6172403
2.633593 -7.6596055 -1.6993523 3.4554625 2.882466 3.279577 1.8640751 0.7086786
-0.25627607 6.4906816 0.040113878 -0.776276 2.4831343 0.8974935 0.9930803 1.953506
11.831953 -0.6268548 -0.10337684 -0.13008018 -0.6579513 0.3851431 0.78285027 -0.9757449
0.89591396 1.0871277 -0.9663339 -1.9985514 2.2061148 -1.9603796 0.33191225 1.3712355
0.2860322 1.8999503 -0.28096062 1.0149757 -1.5706698 0.3298889 4.6939435 4.711987
-0.67679226 2.1887968 -4.5916095 2.4650128 -0.30235967 0.122468665 -1.1534834 2.497358
2.8732443 0.3069095 9.110734 8.632585 3.1616483 1.361186 -3.1922014 -0.7638924
-4.111581 -7.1777563 -1.9063257 -1.4067857 6.1351852 2.2051184 2.80409 14.155419
4.1508336 -0.29633826 0.8923333 2.113768 2.9887924 1.3378121 1.8177941 -0.27613232
3.1152396 5.286069 0.02330544 3.4324505 -3.8292549 -1.106665 -3.470496 -0.15855543
-1.5813835 14.16612 3.5778356 0.9735856 -0.02935843 -0.42474192 -1.628882 -1.2907515
-2.1709566 -1.5034448 0.28458822 0.39794043 -0.07752894 0.51047665 2.088262 10.131147
0.6154877 -2.7178397 -4.2140636 0.44234496 11.993602 -0.0039719064 0.785942 1.248907
1.0075473 2.3997068 1.1225523 0.7518935 0.20979789 -1.053597 0.10520441 -0.44138998
0.41520578 -0.37375635 18.138704 0.13033178 -0.4855777 2.6849837 -5.2602315 -2.8170552
3.0563028 3.145551 2.0641422 0.78344077 0.071296066 -0.0065823067 3.4410448 0.5491378
-0.97464734 3.2246382 1.2658526 1.3666661 1.323183 12.611446 -0.9202309 -2.6488094
-0.069507375 -0.5933567 0.9289376 0.78795683 -1.1456283 1.0399756 1.034723 -0.36139286
-0.60435605 0.9871765 -1.1785274 0.9989111 1.0461328 0.17945082 0.93625367 -0.07805109
-1.1832231 1.4992799 0.6540379 -0.18744054 2.925392 0.46443334 6.2167 4.3307915
3.8552685 -5.250633 1.549418 0.51695824 6.0773396 -17.645847 -3.6580803 6.688517
6.488405 2.8888667 -2.6045158 -0.99899644 3.1655068 1.0757296 0.22927468 -1.2270757
-0.58568394 -4.9986644 0.48242787 -2.8328428 14.023402 2.6013763 2.9507477 -1.5496565
2.4663064 -1.072349 3.114603 4.7190228 0.14651354 3.195649 -7.3469577 0.3506101
-3.501097 -4.3910384 -1.0239055 -3.8662844 -0.06707234 -1.0807756 9.689321 2.740867
1.9953207 0.86554277 -0.21082751 -0.26281014 -1.3654202 -3.7855465 -2.129802 -4.219677
-1.7996751 1.4900633 -0.32973525 1.6784105 7.75685 -0.2667323 0.31346026 -3.8774674

bias f4 [10]
00000000: b112 573e c9ac 7c3e 0476 d4bc dcea 29bf
00000010: beaf 0e3e 1d0c 21bf 91a7 493e 7d15 66be
00000020: 0fbd 3ebf 9588 ad3e
0.21003224 0.24675287 -0.02593518 -0.6637399 0.13934228 -0.6290911 0.19692828 -0.22469135
-0.7450723 0.33893266

weight f4 [1, 10]
00000000: e61d 0ebe 4ea3 ffbd f420 52be 87a7 a0be
00000010: b429 3fbe 0f08 1c3e a4a2 0bbe 529c 3d3e
00000020: ff0c 403e 2d1c 1cbe
-0.13878593 -0.1248232 -0.20520383 -0.31377813 -0.18668252 0.15237449 -0.13636261 0.18516663
0.18754958 -0.15245123
