logs/logs/adult/sex-odds-adv/learning_rate_0.0001-num_iters_4000-n_h_10-n_h_adv_10-dropout_rate_0.1-alpha_1-adv.pth (torch_old, 9079 bytes, 3 tensors)

weight f4 [10, 2]
000000 0e 8c 01 bf 2e 16 58 be a6 af d7 3e 27 3e 1b bf
       -0.5060433 -0.21102211 0.42126197 -0.6064171
000010 3f 7e a5 be 3e a4 ce 3e 37 8e 8d be 28 34 00 3e
       -0.3232288 0.40359682 -0.27647564 0.12519896
000020 41 92 ed be a0 44 09 3d 14 c9 53 be e7 62 26 3f
       -0.46400645 0.03351271 -0.20682174 0.64994663
000030 e2 51 12 bf 91 7b 14 3f c0 01 94 3e 24 b4 fd be
       -0.57156193 0.5800105 0.28907585 -0.495515
000040 82 3b eb be 6e c4 e2 3e 39 a1 32 3f 63 04 00 3f
       -0.45943838 0.4429049 0.69777256 0.50006694

bias f4 [10]
000000 d0 f4 0f 3e 00 52 bb 3c 69 6f ff be 1a 9a 14 bf
       0.14058232 0.02286625 -0.49889687 -0.5804764
000010 e3 8b 26 bf c4 01 32 3e 8e b5 d3 3e f9 61 0e bf
       -0.650572 0.17383486 0.41349453 -0.55618244
000020 90 c2 4f 3d 60 c7 eb bc
       0.05072266 -0.028781593

weight f4 [1, 10]
000000 3d 0a 9c 3e b2 f0 2d be b0 4f f3 3c 8c 95 8a be
       0.3047656 -0.16986349 0.029701084 -0.2706722
000010 14 b5 cb 3d 7a 7c 45 3e 80 d6 bd 3d 46 b7 2b 3e
       0.09946647 0.19285765 0.09269428 0.16769132
000020 d0 20 25 bd a0 63 65 3c
       -0.040314496 0.014000803
