logs/adult/basic-model/learning_rate_0.1-num_iters_2000-n_h_10--dropout_rate_0.5--model.pth (torch_old, 13680 bytes, 3 tensors)

weight f4 [10, 117]
000000 23 26 06 c0 b8 5c 98 c0 76 e9 26 bf e0 91 4e c0
       -2.0960777 -4.761318 -0.65199983 -3.2276535
000010 37 38 af 41 ed 93 8b 40 62 52 96 3f 9a 38 42 3f
       21.902449 4.3618073 1.1743891 0.7586762
000020 82 35 bc bf c2 a1 db bf d4 3c 95 bf b0 08 1e c0
       -1.4703829 -1.715874 -1.1659188 -2.4692802
000030 93 34 b3 c0 2c 96 1e bf 9c c5 a1 bf fa 63 e4 3e
       -5.6001678 -0.61947894 -1.263843 0.44607526
000040 b0 f5 6f 3f ae 3b 86 c0 70 9c 63 41 23 65 17 40
       0.93734264 -4.194785 14.225693 2.365548
000050 88 b6 ae 3e 8f af 64 c0 3c 31 b9 c0 45 91 9a 41
       0.34123635 -3.5732152 -5.78726 19.320932
000060 98 3f c4 bf 2d 69 53 bf eb 00 4b 3f 1a 1e 92 c0
       -1.5331907 -0.8258236 0.79298276 -4.5661745
000070 b7 5a 1a 3f 18 5c 27 3f bb 81 ed 3f 60 07 01 40
       0.6029467 0.653749 1.8555216 2.0160751
000080 36 e8 5f 3e 6f a5 5f bd 5e 63 17 c0 1d 95 9e 3f
       0.21865925 -0.05460113 -2.36544 1.2389256
000090 d4 ef 1b c0 34 ea ac 41 c2 09 75 40 76 64 b2 bf
       -2.436513 21.614357 3.8287206 -1.3936908
0000a0 24 be 1c 40 f9 07 c0 c0 5c cf c1 c0 42 9b 81 40
       2.4491053 -6.000973 -6.0565624 4.0502024
0000b0 a3 b9 6c 40 e0 33 05 40 eb 83 0f 3f b0 cc fd 3e
       3.6988304 2.0812912 0.56060666 0.49570227
0000c0 ff e2 ee bd 28 1a 4f 41 98 44 8a bf fb 09 f1 bf
       -0.1166439 12.943886 -1.0802183 -1.8831171
0000d0 ba e3 c0 40 9e 09 98 3f 35 a0 c5 3f a4 f3 42 be
       6.0277987 1.1877935 1.5439516 -0.19038254
0000e0 77 f2 6a 41 93 1e 7a c0 46 18 33 40 e1 f2 b3 bf
       14.6841955 -3.908116 2.7983565 -1.4058496
0000f0 09 4e bb bf 8a 44 7c bf 2b d0 b6 3f bd 68 89 bf
       -1.463319 -0.9854208 1.4282278 -1.0735089
000100 3b 0c a7 3f 6d 30 6f 3f 22 ba c1 bd 44 43 02 c0
       1.3050607 0.93433267 -0.0945933 -2.0353556
000110 9b 9d 1c 3f 82 ec b7 bf 24 80 08 40 6a 9a 3c 40
       0.61177987 -1.4369051 2.132821 2.9469247
000120 3b 5a a6 be e1 df 66 3f 26 3b 21 bf f9 99 91 3f
       -0.32490715 0.9018536 -0.6298088 1.1375114
000130 5d 1d 1c 40 b7 d1 19 40 95 da 38 c0 05 25 f7 3f
       2.4392922 2.403425 -2.8883412 1.9308172
000140 59 c5 62 40 8b f5 33 41 26 60 dd 40 ee 01 f7 40
       3.5432951 11.247447 6.917987 7.7189856
000150 f8 e0 40 c0 d1 7d 89 40 88 bb 1f c0 4e e2 17 41
       -3.013731 4.2966084 -2.495821 9.49275
000160 e5 a3 59 c1 97 3f f7 3f 89 7a d2 40 0a 49 71 41
       -13.602513 1.9316281 6.577458 15.080332
000170 e7 3d aa 40 ce 96 f5 bf c9 83 95 3f b4 67 e2 40
       5.3200564 -1.9186647 1.1680843 7.075159
000180 77 d7 25 c0 ad 6d 1e c1 ba 97 b5 3f e9 cb 9b bf
       -2.591276 -9.901776 1.4186928 -1.2171603
000190 64 ff 69 c0 ac d9 de 3f e2 8e 17 41 56 1c 9b 41
       -3.6562128 1.7410178 9.4723835 19.388836
0001a0 f2 33 d2 40 14 67 14 40 25 a0 52 40 e8 72 22 c1
       6.568841 2.3187914 3.2910244 -10.153053
0001b0 72 b2 29 c0 32 f7 f7 40 c3 ee 20 41 32 2b 7d 40
       -2.6515164 7.748925 10.058291 3.9557614
0001c0 5c c0 e3 40 38 6b 1b bc 54 c2 45 3f ca 86 a7 bf
       7.1172314 -0.009486012 0.77249646 -1.3088009
0001d0 2e 6c 59 3f 46 b1 67 bf 2b 8e 57 c0 7c e5 d0 be
       0.84930694 -0.9050487 -3.3680522 -0.40800083
0001e0 7e b7 c5 bf a8 8f 21 41 fd db 25 40 0b bb 98 3f
       -1.5446622 10.097572 2.591552 1.1932081
0001f0 2d 52 b7 3c ed 45 59 bf 6f 4e 90 bf 6d 87 80 bf
       0.022378052 -0.84872323 -1.1273936 -1.0041329
000200 a0 4d 12 bf 46 d2 88 bf 78 e2 4c 3d 65 74 42 be
       -0.57149696 -1.068917 0.050020665 -0.18989713
000210 a8 4b 0a 3e 8e 56 8a be 7f 27 12 3f 9f 55 1f 41
       0.13505423 -0.2701916 0.57091516 9.958404
000220 26 54 eb 3e aa 1b 18 c0 a0 9b 5c bf cd b9 72 3f
       0.45962638 -2.3766885 -0.86174965 0.9481476
000230 67 3c 33 41 30 b8 73 3f b6 04 db 3e 99 ec 36 3f
       11.202247 0.9520292 0.42777032 0.7145477
000240 4a bc 2f 3e 3d eb b1 3f fd f9 e3 3e d9 c9 9b 3f
       0.1716167 1.3899914 0.44526663 1.2170974
000250 1e 3d 6d bf 6d 57 39 bd ca ab 00 be ec da 05 c0
       -0.9267138 -0.04524939 -0.12565532 -2.091487
000260 e1 5c 03 3f d3 82 22 bf 97 12 56 41 29 bb 50 be
       0.51313597 -0.6348087 13.379539 -0.20383896
000270 1b be d3 bd cf e5 10 40 f7 8f 8e c0 b5 d9 ba bf
       -0.10338994 2.2640264 -4.455074 -1.4597689
000280 6f 6b d1 3f e9 44 2c 40 6d 22 fa 3f 00 96 d1 3f
       1.6360911 2.691706 1.9541756 1.6373901
000290 c8 cb 50 3e f4 70 05 3f f7 3b 1f 41 1c 4a 4a 3f
       0.20390236 0.5212548 9.95214 0.7901933
0002a0 42 91 88 bf 6b cf f8 3f 38 81 0d 3f 11 b6 96 3f
       -1.0669329 1.9438299 0.552753 1.1774312
0002b0 36 f0 0f 40 d0 c0 1e 41 c3 59 7e bf 3e 8e 2f c0
       2.2490363 9.922073 -0.99355716 -2.7430568
0002c0 00 f8 81 be f3 35 16 bf cb 6f c3 bf fa 9f 94 3e
       -0.2538452 -0.5867607 -1.5268492 0.29028302
0002d0 4b 7b ca bc 05 f1 85 3f 7c 77 b3 3f 38 4e 49 3e
       -0.024716994 1.0464178 1.4020839 0.19658744
0002e0 c1 81 10 c0 0d 07 91 3f 21 9e 8f 3e 62 44 25 3f
       -2.2579195 1.1330277 0.2805033 0.6455747
0002f0 ad 8d 2d 3e ca be 9f bd 69 7f 5d 3f 7f 1e 80 be
       0.16948576 -0.07800062 0.8652254 -0.25023267
000300 af 00 13 bf 14 51 45 bf 62 b6 b7 3d 0d ab 31 3d
       -0.5742292 -0.7707684 0.08970334 0.043376017
000310 04 5a 8c 40 91 a6 51 bf 24 96 8c 40 49 17 01 40
       4.385988 -0.81894785 4.3933277 2.0170462
000320 19 e9 fc 3d 23 b1 b8 c0 bb 01 dc 3f 7f fb 7c bd
       0.12349147 -5.771623 1.7188028 -0.061763283
000330 97 ae 99 40 94 f6 f0 3f 89 89 6b c0 52 c0 00 41
       4.802562 1.882525 -3.6802695 8.046953
000340 b8 fc 1f 41 cd a1 45 40 42 56 f3 bf fb 65 14 3e
       9.999199 3.0880005 -1.9010699 0.14492027
000350 03 c7 3d 40 5c cc 82 3f 88 40 b0 be e1 bd b3 bf
       2.9652717 1.0218616 -0.34424233 -1.4042321
000360 8f f2 ff c0 db 34 50 c0 ba 3a b3 3f 76 aa 2c 3f
       -7.998359 -3.253226 1.4002297 0.674476
000370 f3 08 32 41 f1 12 c1 3f 30 26 9d 3d 5e dc 50 3f
       11.127185 1.5083905 0.07673299 0.81586254
000380 c8 25 1a 3f ee 92 d4 c0 b7 b6 59 40 b0 82 1c 40
       0.602139 -6.6429358 3.401777 2.4454765
000390 c1 fe 13 40 b7 e5 c1 40 d3 1f d6 c0 4d 81 02 3e
       2.312424 6.0592914 -6.691385 0.12744637
0003a0 60 49 64 c0 b8 51 13 c0 08 28 85 3f bc a4 8f 40
       -3.5669785 -2.3018627 1.0402842 4.488859
0003b0 81 8f 04 3f 5a 0a ba 3e f7 d0 2f c1 34 0c 5c c1
       0.5178147 0.36336023 -10.988517 -13.752979
0003c0 17 65 29 3f b0 c1 29 3f b1 b5 d6 3f b2 0e 22 40
       0.66169876 0.6631117 1.6774198 2.532147
0003d0 68 cc 2f 40 aa b8 29 40 ae dc 20 40 e7 9b 91 3f
       2.746851 2.651896 2.5134692 1.1375703
0003e0 10 25 70 3f 09 15 2b bf 2e 19 b3 3f 4d 39 18 be
       0.9380655 -0.6682897 1.3992059 -0.14865609
0003f0 d8 e3 20 bf 41 1a 5f bc 8b fc b4 3e 9f 09 18 c0
       -0.6284766 -0.013617099 0.35348925 -2.3755872

bias f4 [10]
000000 a0 59 25 3e 4b ea 0c 3e 5c 81 2d bf 5a a1 61 3e
       0.1614747 0.1376125 -0.6777551 0.22034207
000010 8c 9c f1 bd 22 79 25 bf 61 25 7e 3e 17 1d 0b bf
       -0.11797437 -0.6463796 0.24818946 -0.5434126
000020 23 7d 19 bf 18 9c 92 be
       -0.5995657 -0.28634715

weight f4 [1, 10]
000000 4b ce 14 be 5d 11 51 be 80 1b 14 3e 8e bf 52 be
       -0.1453182 -0.2041678 0.14463615 -0.20580885
000010 64 fd 7d be 54 ee b9 bd e3 6f 2e be 2b ab f4 be
       -0.24803692 -0.090786606 -0.17034869 -0.4778684
000020 bb 56 7d 3e 95 2a 32 3e
       0.24740116 0.17399056
