logs/adult/basic-model/learning_rate_0.1-num_iters_2000-n_h_10--dropout_rate_0.2--model.pth (torch_old, 13680 bytes, 3 tensors)

weight f4 [10, 117]
0	0x3ffa58aa	1.9558308
1	0x4064b823	3.5737388
2	0x3f2e6fd8	0.6813941
3	0x3dd4adba	0.10384698
4	0xc0162506	-2.3460097
5	0xbfbddb0c	-1.4832473
6	0xbf1b22b7	-0.60599846
7	0xbf29f636	-0.66391313
8	0xbddfe82a	-0.10932954
9	0x3b84272c	0.00403299
10	0xbe85b5d5	-0.2611529
11	0xbe5bd950	-0.21469617
12	0xc0195ea2	-2.396401
13	0xc091c323	-4.5550704
14	0xbfce8002	-1.6132815
15	0xc0ca2260	-6.316696
16	0xc015246e	-2.3303485
17	0xc073e850	-3.8110542
18	0xbf00352b	-0.5008113
19	0xbf4259ba	-0.7591816
20	0xbf18ac25	-0.5963767
21	0xbd5c233e	-0.053744547
22	0x3f5aa130	0.854022
23	0xbf00c1e0	-0.5029583
24	0xbf9d119d	-1.2271
25	0x40dfbeb1	6.9920278
26	0x40f12dfa	7.5368624
27	0x4108d490	8.551895
28	0xbf3608ae	-0.71106994
29	0xbf286ca0	-0.6579075
30	0xbf4a9d68	-0.7914643
31	0x3f78d8ea	0.97205985
32	0x40675467	3.6145265
33	0x402c718c	2.6944304
34	0xbe228de4	-0.1587444
35	0xc0bbca49	-5.868443
36	0x3fbfb574	1.497725
37	0xc0abc9be	-5.3683767
38	0x40220b83	2.5319526
39	0x40531e27	3.2987154
40	0xbfc0baf7	-1.5057057
41	0x4082a8f1	4.0831227
42	0xbf275ad9	-0.65373
43	0xc058e53c	-3.3889914
44	0xbf3bdd5b	-0.73384637
45	0x3f9601c4	1.1719289
46	0xbea2f23b	-0.31825432
47	0xc0c64879	-6.1963468
48	0xbf9cecbe	-1.2259748
49	0x4011397b	2.2691333
50	0xbdc4564c	-0.09586772
51	0x3ebeef09	0.37291744
52	0xc17587a7	-15.345618
53	0x3f8057e7	1.0026826
54	0x3f46b149	0.77614266
55	0xbf8cfba3	-1.1014293
56	0xbf2eb7fa	-0.68249476
57	0x3f08b271	0.5339728
58	0xbfad1d42	-1.3524554
59	0xbef5df18	-0.4802177
60	0x3f7ad7b9	0.97985417
61	0xc0195fa1	-2.3964617
62	0x3e29ea00	0.1659317
63	0xbfde1de5	-1.7352873
64	0xbf78d3ed	-0.97198373
65	0xc0d7d94e	-6.7452765
66	0xbff46a4a	-1.9094937
67	0x3fc568e1	1.5422632
68	0x3e4a0352	0.19727829
69	0xbfb3c3ff	-1.4044188
70	0xbf6cbc4b	-0.9247481
71	0xbe951efa	-0.29125196
72	0xbf86382a	-1.048589
73	0xbf4614ef	-0.7737569
74	0xbf8951b5	-1.072806
75	0xc003ee03	-2.061402
76	0x403d0f08	2.9540424
77	0xc09ab7b5	-4.834925
78	0xbf75849b	-0.95905465
79	0x3eb22d72	0.34800297
80	0x3f5bce75	0.85861903
81	0xbfa9dbc6	-1.3270195
82	0xbffe03b8	-1.9844885
83	0x3f503352	0.8132831
84	0xc008f1e4	-2.1397638
85	0xbfcd31d5	-1.6030833
86	0xc0041f16	-2.0643973
87	0x402158f1	2.5210536
88	0x3eca0828	0.39459348
89	0xc0a50995	-5.1574197
90	0xbfba7481	-1.4566804
91	0x3f9e3f10	1.2362995
92	0xbfc6919d	-1.5513188
93	0xbfddd8b4	-1.7331758
94	0x3f185184	0.5949938
95	0xbf394b00	-0.72380066
96	0x402c92d5	2.696462
97	0x3f5b4443	0.85651034
98	0xbf9d7ac5	-1.2303091
99	0xbf8872c6	-1.0660026
100	0xbf0f7460	-0.5603695
101	0xc0652e17	-3.580938
102	0xbfc805a8	-1.5626726
103	0xbf15d126	-0.5852226
104	0xbf9b2945	-1.212197
105	0xbf799497	-0.97492355
106	0xbe98e79e	-0.2986421
107	0xc0546fea	-3.3193307
108	0xbf705e18	-0.93893576
109	0x401af8f0	2.421444
110	0xbfb93278	-1.4468527
111	0xbfb9562f	-1.4479426
112	0xc04edb13	-3.2321212
113	0xc005e9de	-2.0923991
114	0xbf39e7b0	-0.7261915
115	0xc0355564	-2.8333368
116	0xbf20b716	-0.62779367
117	0xbf19d701	-0.60093695
118	0xc037e2f0	-2.8732262
119	0x3dce018f	0.10058891
120	0xbf3c6e30	-0.7360563
121	0x410a1643	8.630435
122	0x400d394a	2.2066216
123	0x3f45c572	0.772544
124	0x3e1ad141	0.15118887
125	0xbea3eb5f	-0.3201551
126	0xbf53d6ca	-0.8274962
127	0xbf7c12a6	-0.98465955
128	0xc02b4067	-2.6758058
129	0xbf40c3cd	-0.7529877
130	0xc037c018	-2.8710995
131	0xbf7b4a47	-0.98160213
132	0x3f9b1b3b	1.2117685
133	0x3f742844	0.9537394
134	0x3fd563f4	1.6671128
135	0x40e9db15	7.3079934
136	0x3c5f5cbb	0.0136329485
137	0xbf587f64	-0.8456938
138	0xc0cf2470	-6.473198
139	0x40085a05	2.1304944
140	0x4125baa6	10.358068
141	0x3f7b4646	0.98154104
142	0xbfbea277	-1.489333
143	0x3ea2f01f	0.31823823
144	0x3fb6e1c7	1.4287652
145	0x40bd76c3	5.9207473
146	0x4057f40d	3.3742707
147	0xc11d5127	-9.832313
148	0xbe75cf1d	-0.24004789
149	0x3d44444e	0.047916703
150	0x3e7acb40	0.24491596
151	0xc09630d6	-4.6934614
152	0x3d5e7454	0.054310158
153	0x3e88ab07	0.26692984
154	0x411018eb	9.0060835
155	0x3e265505	0.1624337
156	0xbe9645c8	-0.29350114
157	0x3fe7fc5e	1.8123891
158	0xbee4b414	-0.4466864
159	0xbfdc721e	-1.7222326
160	0x4001f071	2.0303004
161	0x3fbdcc62	1.4827998
162	0x3f17ccd1	0.592969
163	0xbefa8039	-0.4892595
164	0x3f8b3c8a	1.087785
165	0x3f58baa7	0.8465981
166	0x400c9bf6	2.197019
167	0xbf3376be	-0.7010306
168	0xbf8d4045	-1.1035239
169	0x3f587d8d	0.84566575
170	0x3fe3efb9	1.7807533
171	0x3f786648	0.9703107
172	0x3f6998b1	0.91248614
173	0x412eea4b	10.9322
174	0xbf2e54d5	-0.68098193
175	0xc091b817	-4.553722
176	0xbeb17596	-0.34660023
177	0x3e92021a	0.28517228
178	0x3f089272	0.5334846
179	0xbf3d7364	-0.740042
180	0x3f25bc58	0.64740515
181	0x3fcc0cd5	1.5941416
182	0x3f8def13	1.1088585
183	0x3e3af800	0.18258667
184	0xbfffdb77	-1.998885
185	0x3db57c7c	0.08861634
186	0x3fe4d65f	1.7877921
187	0x3f015a43	0.50528353
188	0x3df72f59	0.12069578
189	0xbe8c69e9	-0.27424553
190	0x3d498308	0.049197227
191	0xbd8767f5	-0.06611625
192	0xc042ee25	-3.0457852
193	0x3ed1ca5b	0.40974697
194	0x3ea56bb8	0.32308745
195	0xbf209b51	-0.62736994
196	0x3f66558c	0.89974284
197	0x3fdf62dd	1.7452046
198	0x4124a3fa	10.290033
199	0x40a9c799	5.305615
200	0x409cf6a6	4.9051085
201	0xc040b908	-3.0112934
202	0x40445ebc	3.0682821
203	0x3fa17af7	1.2615651
204	0x40c5b3c1	6.1781926
205	0xc185a3f1	-16.70505
206	0x406e97f2	3.728024
207	0x4070d914	3.7632494
208	0x40d92852	6.786172
209	0x3faaa872	1.3332655
210	0x3fe9842b	1.824346
211	0xbf088275	-0.5332406
212	0x3fa333be	1.2750165
213	0x3e1083c8	0.1411277
214	0x3fd4f3f1	1.6636945
215	0x3fc8c823	1.5686077
216	0xc04f2417	-3.2365777
217	0xc0f99952	-7.799966
218	0xbfa700ca	-1.3047116
219	0xbf91a786	-1.1379249
220	0x41528576	13.157583
221	0x40520ebd	3.2821496
222	0xc03626ca	-2.8461175
223	0x3ff19db8	1.8876257
224	0xc0858739	-4.1727567
225	0x3ff5756a	1.9176457
226	0x4098475e	4.758712
227	0x3fda4ff5	1.7055651
228	0xc02241f3	-2.5352752
229	0x40a4fe2e	5.156028
230	0x4102e0bc	8.179867
231	0xbd05ae8f	-0.032637175
232	0xc0ce7b69	-6.4525647
233	0x4053125b	3.2979953
234	0xbdc8f92e	-0.09813152
235	0xbebcc60d	-0.3686985
236	0x3e3ed330	0.18635249
237	0xbdd2d117	-0.10293787
238	0xbf27e38a	-0.6558157
239	0xbf1c4dde	-0.61056316
240	0xbf10ad4f	-0.5651445
241	0xbf3a9d03	-0.7289583
242	0xbf345751	-0.70445734
243	0xbf58856b	-0.8457858
244	0xbf624dd4	-0.88400006
245	0xbf4b9187	-0.7951893
246	0xbf5dfa03	-0.8670961
247	0xbf392627	-0.7232384
248	0xbf3ae06e	-0.729987
249	0xbf3d5e49	-0.7397199
250	0xbf3f0241	-0.74612814
251	0xbf393056	-0.7233938
252	0xbd8abd56	-0.06774394
253	0xbf1e4b19	-0.6183334
254	0xbf0d1684	-0.5511248
255	0xbf3e092f	-0.74232763

bias f4 [10]
0	0xbf858334	-1.0430665
1	0xbd2545a7	-0.04034963
2	0xbf3bb4f9	-0.7332302
3	0x3e3fa4d1	0.18715216
4	0xbf0074c6	-0.5017818
5	0x3e3c4a42	0.18387702
6	0xbf27beed	-0.65525705
7	0xbf398964	-0.72475266
8	0x3e298209	0.1655351
9	0xbe8dd5e7	-0.27702257

weight f4 [1, 10]
0	0x3f3ee7a6	0.7457222
1	0xbeda2f3b	-0.4261416
2	0xbf0a64ca	-0.5406004
3	0xbe86fa9d	-0.26363078
4	0x3eb72f9d	0.35778514
5	0xbe70b558	-0.23506677
6	0xbf054e8c	-0.5207298
7	0xbd1c55c9	-0.03816775
8	0xbe8653a9	-0.26235703
9	0x3e9ee553	0.31034335
