logs/adult/sex-opportunity-alpha-adv/learning_rate_0.001-num_iters_3000-n_h_10-n_h_adv_10-dropout_rate_0.5-alpha_0.1-adv.pth (torch_old, 9079 bytes, 3 tensors)

weight f4 [10, 2]
0	0x3e0b9d17	0.13634144
1	0x3f140537	0.5782046
2	0xbefd50ca	-0.494757
3	0x3dc6680d	0.09687815
4	0x3ee10721	0.4395075
5	0xbeda501e	-0.4263925
6	0xbd059950	-0.032616913
7	0x3ee1f622	0.44133097
8	0x3ee95115	0.45569673
9	0x3ee5231c	0.4475335
10	0x3f04487c	0.516731
11	0xbe3e4f24	-0.18584877
12	0xbd5d2e50	-0.053999245
13	0x3dd0fa28	0.102039635
14	0x3e96806e	0.2939486
15	0x3b20ae00	0.0024517775
16	0xbe9c8b4a	-0.3057502
17	0x3d60ef70	0.054915845
18	0x3ee1361f	0.43986604
19	0xbf2b393e	-0.6688422

bias f4 [10]
0	0x3f3c6f78	0.7360759
1	0x3d8938e7	0.067003064
2	0x3f2e266d	0.68027383
3	0xbf060c82	-0.52362835
4	0x3e9ab3e1	0.30215362
5	0x3e5466e2	0.20742372
6	0xbf2c0322	-0.6719228
7	0xbf085569	-0.53255326
8	0xbf1ac026	-0.60449445
9	0x3e69feee	0.22851154

weight f4 [1, 10]
0	0xbdc266a6	-0.09492235
1	0x3e6741cc	0.22583693
2	0xbe907982	-0.28217703
3	0x3e122702	0.14272693
4	0xbe0b3b7f	-0.13596915
5	0xbedef8af	-0.43549106
6	0x3e5af9b6	0.2138432
7	0x3e352c30	0.17692637
8	0xbcbf21b0	-0.023331493
9	0x3e14f0a9	0.1454493
