logs/adult/race-odds-model/learning_rate_0.01-num_iters_2000-n_h_100-n_h_adv_10-dropout_rate_0.5-alpha_1-model.pth (torch_old, 56520 bytes, 3 tensors)

weight f4 [100, 117]
000000 3b c0 1b 3e da ae 9f bf 89 eb 99 3c 43 ea 53 3e
       0.15210049 -1.2475235 0.01878907 0.20694833
000010 89 8f 93 bd 28 6d 4c 3e 26 eb b0 bf ee 8e 03 3f
       -0.072051115 0.19963515 -1.3821762 0.5138997
000020 c0 82 18 bf 99 d4 4c bf 0f 86 bc 3e 16 24 a0 be
       -0.5957451 -0.800119 0.3682103 -0.3127753
000030 69 37 93 be 12 0d 58 3f 8b 48 1c 3f 6b 59 00 bf
       -0.28753212 0.84394944 0.6104819 -0.5013644
000040 02 3e cd 3e f9 b8 29 be b4 b9 0c be f3 a4 31 bd
       0.4008637 -0.16574468 -0.13742715 -0.0433702
000050 68 5e a2 be 83 81 63 bf 7c 63 0e bf 09 ca be be
       -0.3171265 -0.88869494 -0.5562055 -0.37263516
000060 0c 91 88 bf cf ec 37 3f 69 d0 92 bf 59 c1 27 3f
       -1.0669265 0.71845716 -1.1469852 0.655294
000070 ef d7 5e bf 98 90 ea bf c5 ea 84 3e 54 cb 5b bf
       -0.8704824 -1.8325377 0.25960365 -0.8585713
000080 35 46 f5 3e 39 e5 70 3e fd 71 18 3e 3a 8c fb bc
       0.47905126 0.23524942 0.14887233 -0.030706514
000090 f5 be c9 3e 78 b5 ea be 35 96 43 bf f1 84 a1 bf
       0.394035 -0.45841575 -0.7640107 -1.2618695
0000a0 b2 4c 07 3d 75 dc 06 bf 68 2b 92 be 02 61 88 be
       0.033032127 -0.5268014 -0.2854874 -0.2663651
0000b0 12 f8 95 be ef 07 bb be 55 43 36 3e 35 2a 0a bf
       -0.29290825 -0.3652949 0.17799123 -0.5397065
0000c0 21 49 89 be 5c 1d f0 3e b0 f3 de be bc d5 a3 3e
       -0.26813605 0.468974 -0.43545294 0.31999004
0000d0 b9 5b a3 bf 4d 11 33 bf 47 a4 94 be d0 8e 11 3f
       -1.2762367 -0.69948274 -0.29031584 0.5685854
0000e0 69 d0 ab be 54 f2 aa be 73 03 68 bd 6d ef 95 3c
       -0.33557442 -0.33388007 -0.056643914 0.018302644
0000f0 09 ce de 3c b7 97 ce 3e b0 c2 da 3d 07 48 01 bd
       0.027197855 0.40350124 0.10681665 -0.03156283
000100 6d d1 1e 3e 75 b4 96 bf ab a9 09 3f fe 61 6c bf
       0.15509577 -1.1773821 0.5377452 -0.92337024
000110 f7 a4 60 3f 1d 61 11 3f fb 60 8b 3c 61 17 10 c0
       0.87751716 0.5678881 0.017014017 -2.251427
000120 9d ad b0 be e4 83 fd be 8e bc 27 be 45 07 c1 bf
       -0.34507456 -0.49514687 -0.16380522 -1.5080343
000130 55 42 0a c0 7e 86 cd 3e 5d c2 e6 bf fa 77 d2 3e
       -2.1602986 0.40141672 -1.8028065 0.4110716
000140 70 65 6a bf 78 ef af be c0 65 64 bf 10 1a 19 3f
       -0.9156103 -0.34362388 -0.8921776 0.59805393
000150 e3 45 12 be f3 99 4b bf c4 ee 88 3f 36 5d 3e 3f
       -0.14284472 -0.7953178 1.0697865 0.7436098
000160 2c b2 83 be 3f 40 87 3e fa 4a 2d 3d d4 42 24 3e
       -0.25721872 0.26416203 0.04230783 0.16041118
000170 b6 3c df bf 99 2c 19 3f ba 58 2e bf 88 0c 9e bf
       -1.7440403 0.59833676 -0.68104136 -1.2347574
000180 34 e9 44 bd e2 55 cd 3f 86 4d 3e bf 28 9f 45 bf
       -0.048073962 1.6041834 -0.7433704 -0.7719598
000190 07 f2 9b 3f e8 e7 39 3f da cf ca bf e2 97 6c be
       1.2183236 0.72619486 -1.5844681 -0.23104814
0001a0 4c bd 2d bf 2c c4 12 bf f7 54 de 3f 21 53 e4 3f
       -0.6786697 -0.57330585 1.7369679 1.7837869
0001b0 f5 c4 d1 3f dd 5a 98 3f 4c 23 5a bf e1 69 1b 3f
       1.6388232 1.1902729 -0.8521011 0.60708433
0001c0 f2 c8 9a bf b0 b6 0b bf 4f 40 58 be fc 7b cf bf
       -1.2092574 -0.54575634 -0.21118282 -1.6209712
0001d0 1b c5 59 bf e2 88 0d be 72 3a cf 3d b5 97 10 be
       -0.85066384 -0.13821748 0.101185694 -0.14120372
0001e0 71 1e 98 3d f0 06 29 3f 7a 0f a4 3e 37 db 62 bf
       0.07427681 0.6602621 0.32043058 -0.88615745
0001f0 c7 ee c8 3e 22 87 09 bb 39 ec 06 3d 82 88 d6 3d
       0.39244673 -0.0020985086 0.032940123 0.104752555
000200 8d bf a6 bf 81 2a 76 3e d9 b7 be be eb 40 d2 bd
       -1.3027207 0.24039651 -0.3724964 -0.10266288
000210 4f d1 a9 3e 13 4f 9f be e8 62 5e bc a1 8e ac 3e
       0.33167502 -0.31115016 -0.013573386 0.33702567
000220 f2 c3 7d bd b6 ae 94 bf 43 de b1 3e ae 1b a0 bf
       -0.061954446 -1.1615818 0.34739885 -1.2508447
000230 05 9a 24 3f cb cd 42 be 93 d4 eb 3e 24 03 b1 3e
       0.64297515 -0.19023816 0.4606062 0.3457271
000240 d4 d6 4e 3f 06 76 c2 3c 16 74 9a bf 69 3c 70 be
       0.8079655 0.023737919 -1.2066677 -0.23460545
000250 9a c9 eb bf 13 17 72 bf b4 cf a4 bd 40 a1 1c 3f
       -1.8420899 -0.9456646 -0.08047429 0.6118355
000260 44 cd 6c 3e c9 58 c7 be b5 29 26 40 f9 02 5b bf
       0.23125178 -0.38934925 2.5962956 -0.8555141
000270 1e 06 49 bd 6e 2e c5 be ed 5d e0 be 3e 40 36 be
       -0.0490781 -0.38511986 -0.4382166 -0.17797944
000280 70 a3 23 be 4d 0b ad 3e 26 b0 b9 3e 0f 99 08 3f
       -0.15980315 0.33797684 0.36267203 0.5335855
000290 c5 0e 9a 3e 89 6c 1c bf 94 d1 7b 3f 6a da 49 3e
       0.30089393 -0.6110311 0.98366666 0.19712225
0002a0 c8 76 85 3e 62 22 cc 3e 0a 2d 72 bc 9b 95 65 bc
       0.26067185 0.39869982 -0.014781246 -0.0140127195
0002b0 b8 ac d3 3e be a0 f8 3e a3 d6 82 bf 50 bc 1a bf
       0.4134271 0.48560137 -1.0221752 -0.6044359
0002c0 9a a0 e9 be d3 46 17 3e c7 4b 98 3d e7 c4 2e be
       -0.45630342 0.14773111 0.074363284 -0.170673
0002d0 f5 11 f6 bd 6d 16 35 3f 6e 12 a0 3e ea 15 62 be
       -0.12015144 0.70737344 0.3126406 -0.22078672
0002e0 c7 85 3d 3e 3d 99 e5 3e 71 aa 56 be b9 2f c9 3d
       0.18508063 0.44843474 -0.20963456 0.098235555
0002f0 ce 3a d4 3e 3f 36 fe bd 3f 93 69 be 01 e8 b1 bc
       0.41451114 -0.1241269 -0.22810076 -0.021717073
000300 91 38 e5 3e 34 e2 0d bf f3 19 fd be e0 56 a2 bf
       0.4476972 -0.55423284 -0.4943386 -1.2682762
000310 72 76 57 3f 6e 3a 93 3d ad 62 04 bf cc a3 b3 bf
       0.8416511 0.07188879 -0.5171307 -1.4034362
000320 71 5f 86 3f b2 98 2d be c9 c7 89 3f df f5 3f 3f
       1.0497876 -0.1695278 1.0764095 0.74984545
000330 37 24 e1 bf 5c 25 db bf c5 0b 6e 3e dd 17 52 3f
       -1.7589177 -1.7120776 0.23246677 0.8206766
000340 42 0a 06 3f d4 6f 94 3e ac 86 92 3f 22 87 ff 3d
       0.523594 0.28991568 1.1447349 0.124769464
000350 57 5c 45 bf 20 ca e0 bd d5 dd 05 3d ed bb 05 bf
       -0.77094024 -0.10976052 0.03268226 -0.52239877
000360 5f 7d 41 3f 7d 90 42 bf 6d 15 94 be c6 54 96 3f
       0.75581926 -0.7600172 -0.28922597 1.1744621
000370 95 5c 09 3f 19 c1 9f 3f 2e 30 26 3f 65 65 88 3f
       0.53656894 1.2480804 0.64917266 1.0655943
000380 56 dd 3d bf e8 ab 9b 3e db aa d5 be 96 27 59 bd
       -0.74165857 0.30404592 -0.41731915 -0.053016268
000390 0e cd 84 bf 5e 86 af 3f f6 27 10 bf 81 c9 1a bd
       -1.0375078 1.3712881 -0.56310976 -0.037789825
0003a0 c8 97 e3 bf 06 6f 02 bd 08 c7 40 be ec 60 c6 be
       -1.7780695 -0.03184416 -0.18825924 -0.3874582
0003b0 b5 31 2a 3e 5d 5f 8f 3e e1 d7 4d 3d ce 41 40 be
       0.16620524 0.28002444 0.050254706 -0.18775102
0003c0 18 70 2e 3f 4f fe 81 3e 5d 74 04 3e 98 c3 eb bf
       0.6813979 0.25389335 0.12935014 -1.8419065
0003d0 d4 83 ee 3e 9c 4d a3 3e 70 99 82 be 7f d2 26 bf
       0.46584952 0.3189515 -0.2550769 -0.6516494
0003e0 8c 38 38 3e 42 38 28 be bc e8 8e 3d a3 1a 03 bf
       0.17990321 -0.1642771 0.06977984 -0.5121252
0003f0 61 b5 b7 3f 69 77 61 3c f2 6c c8 3e 96 4b 04 bf
       1.4352227 0.01376138 0.3914562 -0.51677835

bias f4 [100]
000000 f1 e1 90 be c8 a7 8b bd b6 d2 50 be 48 41 43 be
       -0.2829738 -0.06819111 -0.2039288 -0.19067872
000010 25 86 4f bd fc 47 ca bd 09 f6 47 be 93 ab 94 bd
       -0.05066504 -0.09877011 -0.19527449 -0.07259288
000020 fa ad db bc 03 27 ea bd 7d bb 24 be 6b da 47 3d
       -0.026816357 -0.11433222 -0.16087146 0.048792284
000030 c5 1e d3 bd 39 1f bf bd fa c7 68 bd e7 87 80 b9
       -0.10308603 -0.09332127 -0.056831338 -0.00024515318
000040 95 6c 9b bd b3 7e 9b be fc 83 27 be be bc 96 bd
       -0.0758907 -0.303701 -0.16358942 -0.073602185
000050 72 5e 53 be 0a 04 2f be a2 8a a2 be 39 8e 77 be
       -0.20641497 -0.17091385 -0.31746393 -0.24175347
000060 2e 8a 3f bd 0d 3a 55 be 14 c3 a1 bc f8 d5 58 be
       -0.046762638 -0.20822926 -0.01974634 -0.21175373
000070 e6 75 e7 bd 21 73 e8 bd 06 67 d7 bd 73 b0 e9 bd
       -0.11301784 -0.11350084 -0.10517697 -0.11410608
000080 62 c2 9d be 11 53 15 be 01 f0 a3 be b3 ff 98 be
       -0.30812365 -0.14582469 -0.32019046 -0.29882583
000090 25 96 4b be 01 7d 67 be 14 96 3e be b3 04 98 be
       -0.19881494 -0.22606279 -0.18611938 -0.29691085
0000a0 37 86 09 be c5 10 0f be 8c 8b 34 be f2 31 b0 bb
       -0.13430105 -0.13971241 -0.17631358 -0.0053770477
0000b0 9a 55 27 be 95 9b 85 be cb 20 cd be 8e 68 80 be
       -0.16341248 -0.26095262 -0.40064082 -0.2507977
0000c0 2d b0 df bd a9 60 65 bc d6 98 ab be ca c8 7c be
       -0.10922275 -0.014000096 -0.33515042 -0.2468597
0000d0 9a 89 ae be 71 8d 93 be cb 4d 44 be 06 b7 bb 3c
       -0.34089357 -0.2881885 -0.191703 0.02291442
0000e0 ee ee 18 be 1d 7e ee bd a8 40 cd bd 64 0f 9b be
       -0.14934894 -0.11645148 -0.10022098 -0.3028518
0000f0 a3 91 92 be 6b 92 46 be 53 9b 8e be 8d 87 bc bc
       -0.28626737 -0.19391792 -0.27852878 -0.023013854
000100 fa a9 7c be a9 05 ab bd cd bc 04 be 2e e5 fd bd
       -0.24674216 -0.08350689 -0.12962647 -0.12397228
000110 87 67 7c be a3 ab 2a be f5 f4 36 be 1a 10 b5 bd
       -0.24648868 -0.16667037 -0.17866881 -0.08840962
000120 a4 fc 3f be a7 d0 87 bc aa 3c 7e be 49 b7 f6 bd
       -0.18748719 -0.016578985 -0.24827829 -0.120466776
000130 90 f2 7c bd 8e b1 d3 bd e3 04 c1 bd 80 68 96 bd
       -0.061754763 -0.103366 -0.0942476 -0.073441505
000140 0a 2d 98 be 26 6a 0b be 68 0c 19 3d 3a df 1e be
       -0.29721862 -0.13614711 0.037365347 -0.15514842
000150 f3 8b 49 be 01 9e 5c be 3d 51 4b be 81 56 ed bd
       -0.19682293 -0.21544649 -0.19855209 -0.11588765
000160 40 38 26 bb b3 55 24 be 53 72 c5 bd 37 39 18 3d
       -0.0025363117 -0.16048317 -0.09640946 0.03716394
000170 bb 34 06 bc 00 49 79 be 6a 9b 73 be 5d 5c 22 bd
       -0.008191283 -0.24344254 -0.23789755 -0.039638866
000180 6c f1 2a be 29 41 68 bd c7 50 81 be 3c e4 c4 bd
       -0.16693658 -0.056702767 -0.2525694 -0.09613845

weight f4 [1, 100]
000000 b4 b3 3e 3f e9 a0 1a bf 47 39 eb be c7 e1 3f 3f
       0.74492955 -0.6040178 -0.45942137 0.74953884
000010 83 3b a3 be ee f3 58 3f 8a 11 33 3f ab b7 98 be
       -0.3188134 0.8474721 0.6994864 -0.29827628
000020 95 47 80 be 35 02 f6 be ab 6f 17 3f e5 74 52 be
       -0.25054613 -0.4804856 0.59154767 -0.20552404
000030 27 12 8c bc 83 e4 5a bf ec 18 cc be ed 9a 08 bd
       -0.0170985 -0.8550493 -0.39862764 -0.033350874
000040 2b b0 8a be ae 53 00 c0 cb a1 60 3f d3 35 4f bc
       -0.2708753 -2.0051074 0.87746876 -0.01264711
000050 8d 44 2b 3f 81 7a 83 3f ff 1d 88 bf f3 37 07 3f
       0.66901475 1.027176 -1.0634154 0.52819747
000060 4a a9 d2 be 82 e5 17 3f 05 64 30 be 71 15 9b bf
       -0.41144782 0.59334576 -0.17225654 -1.2115918
000070 74 be 80 bf 86 26 e3 be 6d 64 21 bf 81 bd a4 3e
       -1.0058122 -0.4436533 -0.6304386 0.3217583
000080 8b 57 d5 3e e0 95 f8 3e 3e 54 33 c0 1f 6b b2 3f
       0.41668352 0.48551846 -2.8020167 1.3938941
000090 b7 39 d6 bf fc 94 94 bf 14 6e ea be f8 d0 7a 3f
       -1.6736363 -1.1607966 -0.45787108 0.9797511
0000a0 b5 ee 79 bf e9 f1 bd bf 9c bf ca be 8d 3b 97 be
       -0.97629863 -1.483945 -0.3959931 -0.2953762
0000b0 d2 b7 11 bf 11 ec 75 bf ec 8a 4d c0 95 fc c5 bf
       -0.5692111 -0.96063334 -3.211604 -1.5467707
0000c0 f4 19 47 bf 44 30 80 be 5f 09 ce 3f 80 12 a6 bf
       -0.77773976 -0.25036824 1.609661 -1.2974396
0000d0 43 35 62 c0 34 96 00 3f 03 80 bd be 30 60 b6 be
       -3.5345008 0.5022919 -0.37011728 -0.3562026
0000e0 a1 e6 e2 be c5 b5 da bb 21 eb ec be 52 00 f7 bf
       -0.4431658 -0.0066745006 -0.4627314 -1.9296973
0000f0 90 29 28 c0 32 6f 82 bf 44 45 88 3f 11 34 95 be
       -2.6275368 -1.0190184 1.0646138 -0.29141286
000100 de 26 4a bf a0 4b cc 3e 4b 3a 68 bf ec 68 20 bf
       -0.78965557 0.39901447 -0.9071395 -0.626601
000110 0a 6f 89 bf c5 d0 fd 3e d8 3a 1f bf 80 98 c6 3e
       -1.0737011 0.4957334 -0.62199163 0.38788223
000120 84 05 19 3f 72 59 b4 be d2 45 fb bf 5b d8 05 bf
       0.5977404 -0.3522449 -1.9630682 -0.5228326
000130 23 8e 8b be 75 90 03 bf d4 49 cf be ce 4c 48 bf
       -0.2725688 -0.513923 -0.40486014 -0.78242195
000140 92 7d c1 3f 7d 6a e9 3e 81 cc 5e be 9b 34 73 bf
       1.5116446 0.45589057 -0.217577 -0.95002145
000150 23 25 bd bf d9 80 89 bf 48 6d 5e 3f fa f0 8a 3e
       -1.4776958 -1.0742446 0.868855 0.27136976
000160 3e b5 72 be b0 9d 72 bc a4 cb af 3e 34 6a a7 be
       -0.23701951 -0.014808103 0.34335053 -0.32698214
000170 84 ee 70 be 28 4e e4 bf 9f 8a bf bf fa 2f 38 bd
       -0.23528486 -1.7836351 -1.4964179 -0.04496763
000180 66 5a b5 bf f7 6b 88 3e 62 98 22 3f f5 73 45 bf
       -1.4168212 0.2664487 0.6351377 -0.7713006
