logs/adult/race-odds-model/learning_rate_0.1-num_iters_2000-n_h_100-n_h_adv_10-dropout_rate_0.5-alpha_1-model.pth (torch_old, 56520 bytes, 3 tensors)

weight f4 [100, 117]
0	0xbff06168	-1.8779726
1	0xc0021a11	-2.032841
2	0xbfb9944d	-1.4498383
3	0xbea493c0	-0.32143974
4	0x3fe8fcb7	1.8202122
5	0xc0a17415	-5.04542
6	0xbd36e212	-0.04464919
7	0x4081b29b	4.0530524
8	0x3fae68a4	1.3625684
9	0x3fefe973	1.8743118
10	0xc02b9ee5	-2.6815732
11	0xc1023ebe	-8.140318
12	0x3c009bd1	0.0078496495
13	0xc0c4c30d	-6.14881
14	0xc08a9e2f	-4.3318095
15	0x3fe2d2ec	1.7720618
16	0x400fa4d2	2.2444348
17	0x3da3afbc	0.07992503
18	0x402f9665	2.7435544
19	0xbf99b4d8	-1.2008314
20	0xc006705f	-2.1006086
21	0xc0065408	-2.0988789
22	0xbfb4510a	-1.4087231
23	0x4071d2b5	3.7784855
24	0xc0dab3b4	-6.8344364
25	0x40995f74	4.792902
26	0x404996f9	3.1498396
27	0x410797b4	8.474537
28	0xc0d8d60e	-6.7761297
29	0x400cc0da	2.1992707
30	0x3ea6e3cb	0.32595667
31	0x3dc6c938	0.09706348
32	0xc14547b4	-12.330006
33	0x3e9a9d06	0.30197924
34	0x400fcb56	2.2467856
35	0xbf7319da	-0.9496132
36	0xbfbda43f	-1.4815749
37	0x414898c8	12.5373
38	0xc0af16fa	-5.4715548
39	0xbfca8f1f	-1.5824927
40	0x4030679f	2.7563245
41	0xbe330204	-0.17481238
42	0xc0106657	-2.2562463
43	0xc0982c2f	-4.7553935
44	0x3f308a80	0.68961334
45	0x410ce38c	8.805553
46	0x4138cab3	11.549487
47	0x3fedc901	1.8576967
48	0xc03ad4c9	-2.9192374
49	0x3ff3fc2c	1.9061332
50	0x3eae122c	0.3399824
51	0xbf9740b2	-1.1816618
52	0x40419326	3.0246062
53	0xbfe86627	-1.8156174
54	0xc06a8a9f	-3.6647108
55	0x401cd16c	2.450282
56	0x401b5194	2.4268541
57	0xbf083d1f	-0.53218263
58	0xbf8df32d	-1.1089836
59	0xc0beefda	-5.9667788
60	0x3fd08f5e	1.6293752
61	0x3fc82128	1.5635118
62	0xbee460eb	-0.44605193
63	0xc0e8acc1	-7.271088
64	0x409f5519	4.979138
65	0x40c18d27	6.0484805
66	0xc0da5ccc	-6.8238277
67	0xbc67e52b	-0.014153759
68	0x4005abb5	2.0886052
69	0xbf84316c	-1.0327582
70	0x3ebea159	0.37232473
71	0xbf9be34a	-1.2178738
72	0xbf8ed9f4	-1.1160264
73	0xc091d910	-4.557747
74	0xbd90b182	-0.07065107
75	0x3dee7721	0.11643816
76	0x3f55d93c	0.835346
77	0x405c4edd	3.4423134
78	0xc0ea544d	-7.3227906
79	0x3fdbf655	1.718455
80	0xbfe5028a	-1.78914
81	0x408f5507	4.4791293
82	0xbf41b852	-0.75671875
83	0x410d8c22	8.846712
84	0x3fcb7482	1.589493
85	0xbd9a5994	-0.07536617
86	0x4001db53	2.0290115
87	0x40860ee0	4.189316
88	0xc0d361f9	-6.6057096
89	0xc0851be8	-4.1596565
90	0x3d30012e	0.042969875
91	0x40235919	2.552313
92	0x400bd19a	2.184668
93	0x3e806cd0	0.25083017
94	0xbf23e22e	-0.64017
95	0x3ec2371f	0.3793268
96	0x402d9076	2.7119422
97	0x40c19e6b	6.050588
98	0xbe6e6ca6	-0.23283634
99	0x40bdef07	5.935428
100	0x40d8dfef	6.7773356
101	0xc0b15d2c	-5.5426235
102	0x411b4002	9.703127
103	0x404f10ec	3.2354078
104	0x3fa14afb	1.2601007
105	0xc025b706	-2.5892959
106	0xc053aef1	-3.3075526
107	0x409b8917	4.8604846
108	0x406fefa2	3.749001
109	0xbe75b9b1	-0.23996617
110	0x40bed7bd	5.9638352
111	0x3db57108	0.088594496
112	0x3f903b5e	1.1268117
113	0xc07f5d63	-3.9900749
114	0xbf977067	-1.1831177
115	0xc071685f	-3.7719953
116	0xc0086a27	-2.131479
117	0x3ed67342	0.4188481
118	0xbe383815	-0.17990144
119	0x3c5f5836	0.013631871
120	0x3ea0905c	0.31360137
121	0xbf06b2af	-0.526164
122	0xbf26198f	-0.6488275
123	0xbf0cf443	-0.55060214
124	0xbf1b4e18	-0.60666037
125	0xbf26df0c	-0.6518409
126	0xbf4e8de3	-0.8068525
127	0xbf55bc88	-0.834908
128	0xbf6a966c	-0.91635776
129	0xbf2d3451	-0.67657954
130	0xbf39f936	-0.7264589
131	0xbf317d00	-0.6933136
132	0xbf14bf72	-0.5810462
133	0xbf3e71ce	-0.743924
134	0xbf3a0805	-0.72668487
135	0xbf16fd14	-0.58979917
136	0xbf1329db	-0.5748574
137	0xbf81d3e9	-1.0142795
138	0xbf1dd0df	-0.61646837
139	0xbf433b6d	-0.7626255
140	0xbf06606e	-0.5249089
141	0xbf0fe0ec	-0.5620258
142	0xbf1e8c9a	-0.6193329
143	0xbf0f993b	-0.56093186
144	0xbf0193e2	-0.50616276
145	0xbf13fa32	-0.5780364
146	0xbf149267	-0.5803589
147	0xbf1b6a4e	-0.60709083
148	0xbf1213c7	-0.5706143
149	0xbf11c733	-0.5694458
150	0xbf0f9964	-0.5609343
151	0xbef14d2a	-0.47129184
152	0xbf0ddb08	-0.5541234
153	0xbea028d4	-0.3128115
154	0xbf001573	-0.5003273
155	0xbf13df8b	-0.57762975
156	0xbf19c8dd	-0.6007212
157	0xbf11c58e	-0.5694207
158	0xbeb6c1fc	-0.35694873
159	0xbf40ae10	-0.752656
160	0xbf1611bf	-0.5862083
161	0xbf13c95a	-0.57729113
162	0xbf0d57ed	-0.5521229
163	0xbf089b0a	-0.5336157
164	0xbf0f1170	-0.5588598
165	0xbf19df11	-0.60106
166	0xbf012260	-0.5044308
167	0xbf1ad7e7	-0.6048569
168	0xbf6dbad8	-0.92863226
169	0xbf262266	-0.6489624
170	0xbf03fed3	-0.51560706
171	0xbf1de14f	-0.6167192
172	0xbf2e9ae1	-0.68205076
173	0xbf088993	-0.5333492
174	0xbf7e1858	-0.99255896
175	0xbf1e61c6	-0.6186794
176	0xbf30838a	-0.6895071
177	0xbf17dcb9	-0.5932117
178	0xbf21753d	-0.63069516
179	0xbf3432ac	-0.7038982
180	0xbf05c252	-0.52249634
181	0xbf0db9ca	-0.55361617
182	0xbf0d3cd2	-0.5517093
183	0xbf21bf0b	-0.63182133
184	0xbf179057	-0.5920462
185	0xbf394153	-0.723653
186	0xbf22927a	-0.63504755
187	0xbf126e95	-0.57199985
188	0xbf4062af	-0.7515058
189	0xbf3a1e05	-0.72702056
190	0xbf32480a	-0.6964117
191	0xbf103634	-0.5633271
192	0xbf35b4f4	-0.7097924
193	0xbe7eee54	-0.24895602
194	0xbefd4840	-0.49469185
195	0xbf285f22	-0.6577016
196	0xbf0e0d4c	-0.5548904
197	0xbf0a8d3a	-0.54121745
198	0xbf1acddb	-0.6047036
199	0xbf18af26	-0.59642255
200	0xbf138aef	-0.5763387
201	0xbefaca10	-0.48982286
202	0xbeff67c2	-0.49883848
203	0xbf3f471f	-0.747179
204	0xbf184d62	-0.59493077
205	0xbf09248f	-0.5357141
206	0xbf159192	-0.5842525
207	0xbf059c06	-0.521912
208	0xbf02d4b8	-0.51105833
209	0xbf376666	-0.7164062
210	0xbee67b7b	-0.45016083
211	0xbf75adaf	-0.95968145
212	0xbf052803	-0.5201418
213	0xbeee8b35	-0.46590582
214	0xbf261c5c	-0.6488702
215	0xbf226560	-0.63435936
216	0xbf54c6df	-0.83115953
217	0xbf05e72e	-0.5230588
218	0xbf315a03	-0.6927797
219	0xbf23bbc9	-0.6395841
220	0xbf1568ef	-0.5836324
221	0xbf092d4b	-0.53584737
222	0xbf366cba	-0.71259654
223	0xbf05be32	-0.5224334
224	0xbf264741	-0.64952475
225	0xbf23139f	-0.63701814
226	0xbcb62274	-0.022233225
227	0xbf1a6093	-0.6030361
228	0xbf818ea3	-1.0121654
229	0xbedb7b66	-0.42867583
230	0xbf166216	-0.5874342
231	0xbf21b0bf	-0.6316032
232	0xbf090be3	-0.5353376
233	0xbf0a219b	-0.5395753
234	0x3ef984ed	0.48734227
235	0xbd42186d	-0.047386575
236	0x3f09e68a	0.538674
237	0x3f12513c	0.57155204
238	0xbf0918bd	-0.5355337
239	0xbf26ca03	-0.65151995
240	0xbf0b24dd	-0.54353124
241	0xbf19bc85	-0.6005328
242	0xbf33c33d	-0.70219785
243	0xbf13d738	-0.5775027
244	0xbf1fb58b	-0.6238639
245	0xbf296245	-0.6616557
246	0xbf30d7f2	-0.69079506
247	0xbf2cf87b	-0.6756665
248	0xbf29a74e	-0.6627091
249	0xbf2cd26b	-0.6750857
250	0xbf0c66e8	-0.5484452
251	0xbf1128b0	-0.5670271
252	0xbf036a68	-0.5133424
253	0xbf154ddf	-0.58321947
254	0xbf54d83b	-0.8314244
255	0xbf0cbd1a	-0.54976046

bias f4 [100]
0	0xbf6d2d75	-0.92647487
1	0xbf32eab4	-0.6988938
2	0xbf08dbf6	-0.53460634
3	0xbf9c2c65	-1.2201048
4	0xbf082a43	-0.53189486
5	0xbfa9453f	-1.3224257
6	0xbe565c12	-0.2093356
7	0xc015dc54	-2.3415728
8	0xbf35665b	-0.7085931
9	0xbf1a2c1d	-0.6022356
10	0xbea35f5f	-0.319087
11	0xbf91473a	-1.1349862
12	0xbf151adc	-0.5824411
13	0xbec8e271	-0.3923526
14	0xbf1e72fc	-0.618942
15	0xbf5db955	-0.8661092
16	0xbf30b0d2	-0.69019806
17	0xbf244665	-0.64169914
18	0xbf12c01a	-0.57324374
19	0xbfc73854	-1.5564065
20	0xbed043d0	-0.40676737
21	0xbe9da8d6	-0.30792874
22	0xbf1b4db1	-0.6066542
23	0xbf20f855	-0.62878925
24	0xbf92b3c5	-1.1461111
25	0x3d07fc1b	0.03319941
26	0xbf21bb31	-0.63176256
27	0xbf1a28d3	-0.6021854
28	0xbfa4737e	-1.2847745
29	0xbf42682b	-0.759402
30	0xbf3028b0	-0.68812084
31	0xc012b9a0	-2.2925797
32	0xbf38975d	-0.7210596
33	0xbf19905b	-0.59985894
34	0xbfa76dab	-1.3080343
35	0xbf9b19de	-1.2117269
36	0xbf5da0c1	-0.86573416
37	0xbf9663ce	-1.1749208
38	0xbf9485cf	-1.1603335
39	0xbeb360fd	-0.35034934
40	0xbf4bf99e	-0.7967776
41	0xbf0ce91a	-0.55043185
42	0xbf33b450	-0.7019701
43	0xbf0fca8a	-0.56168425
44	0xbf30ad7b	-0.6901471
45	0xbf56e8ce	-0.8394898
46	0xbf0ac71d	-0.5421007
47	0xbf9b1d72	-1.2118361
48	0xbf200b84	-0.6251757
49	0xbf4c8566	-0.7989105
50	0xbf540cac	-0.82831836
51	0xbf0cacde	-0.54951274
52	0xbf9fa6fe	-1.2472837
53	0xbf95f321	-1.1714822
54	0xbe05c6f4	-0.13064176
55	0xbf32e716	-0.6988386
56	0x3c71c0aa	0.014755407
57	0xbdd1dca2	-0.102471605
58	0xbf7f89ca	-0.99819624
59	0xbfb041cb	-1.3770078
60	0xbd505c8f	-0.05086952
61	0xbf8cba44	-1.0994344
62	0xbf5d9839	-0.865604
63	0xbf0a8d56	-0.5412191
64	0xbf474c8b	-0.7785117
65	0xbf942be7	-1.1575898
66	0xbf26c900	-0.6515045
67	0xbf2ef344	-0.68339944
68	0xbe75b442	-0.23994544
69	0xbf4630a8	-0.77417994
70	0xbf9d9f90	-1.231432
71	0xbfbd8151	-1.4805089
72	0xbf11b451	-0.56915766
73	0xbf39db54	-0.72600293
74	0xbf346929	-0.7047296
75	0xbf944e1b	-1.1586336
76	0xbf087299	-0.5329986
77	0xbf300494	-0.68756986
78	0xbf3594bc	-0.70930076
79	0xbf3f4818	-0.7471938
80	0xbf950a9f	-1.1643866
81	0xbf2eea13	-0.6832592
82	0xc0059740	-2.0873566
83	0xbcb1bab3	-0.02169547
84	0xbfb23da4	-1.3925061
85	0xbf0840ed	-0.5322407
86	0xbf2dc574	-0.67879415
87	0xbf280438	-0.6563144
88	0xbf141516	-0.57844675
89	0xbf4779a1	-0.77919966
90	0xbf301196	-0.68776834
91	0xbf22f149	-0.6364942
92	0xbdb19a2b	-0.08671983
93	0xbf6a1b3a	-0.91447794
94	0xc02dfb9b	-2.7184818
95	0xbf48401e	-0.78222835
96	0xbe9ecedb	-0.31017193
97	0xbf6e4fe5	-0.9309066
98	0xbf1d0fb0	-0.6135206
99	0xbf7974a0	-0.9744358

weight f4 [1, 100]
0	0xc0475401	-3.1145022
1	0xbf12d215	-0.5735181
2	0xbf09865c	-0.5372064
3	0xc02b2d36	-2.6746345
4	0x3e84a1b9	0.25904635
5	0x3fd71ff9	1.6806632
6	0xbdfe1bc7	-0.12407642
7	0xc05e8acd	-3.4772217
8	0xbf11d0ff	-0.5695953
9	0xbeb5ba74	-0.35493815
10	0x3e1b3a9b	0.15159075
11	0xc0335f08	-2.8026752
12	0xbef2f8c9	-0.47455433
13	0xbf2229d1	-0.63345057
14	0xbefcf18a	-0.4940303
15	0xbf7bf72f	-0.9842405
16	0xbe88a784	-0.26690304
17	0xbf10e244	-0.56595254
18	0xbea96f5a	-0.33092767
19	0x3fb847f0	1.4396954
20	0xbe79bd13	-0.24388532
21	0xbe307237	-0.1723107
22	0xbefa2780	-0.4885826
23	0xbeef0764	-0.46685326
24	0xc05ab048	-3.4170094
25	0xbde7f796	-0.1132652
26	0xbef4977e	-0.4777183
27	0xbf096e5d	-0.53684026
28	0xc032f2af	-2.7960622
29	0x3d7a5a53	0.061121296
30	0xbd50ef37	-0.051009383
31	0x40754ab5	3.8326848
32	0xbeb0a81b	-0.34503254
33	0xbf0214a9	-0.50812775
34	0x401474fc	2.3196402
35	0x3fe92616	1.8214748
36	0xbfd17175	-1.6362749
37	0x3ffc8f71	1.9731275
38	0xc018f45a	-2.389914
39	0xbdec367f	-0.11533832
40	0x3f4ca10b	0.7993323
41	0xbee69943	-0.45038804
42	0xbeee2b27	-0.46517298
43	0xbedcdd5c	-0.43137634
44	0xbe6a3919	-0.22873344
45	0xbe2790b9	-0.16363801
46	0xbf180541	-0.59383017
47	0xc04e2b64	-3.2213984
48	0xbf01be8a	-0.50681365
49	0xbeaef3b6	-0.34170312
50	0xbf904b7a	-1.1273034
51	0xbf021618	-0.5081496
52	0xc009eb53	-2.154988
53	0xc0641346	-3.5636764
54	0xbe120c6f	-0.14262556
55	0xbe235c94	-0.15953285
56	0xbdeb4ca7	-0.1148923
57	0xbde0ff75	-0.109862246
58	0x3e591a0a	0.2120134
59	0x40073b9c	2.1130133
60	0xbdcdfd83	-0.10058119
61	0xc05af5b4	-3.4212465
62	0x3e2f5da4	0.17125565
63	0xbe7cda66	-0.24692687
64	0xbea9abf5	-0.33139005
65	0xc084d2a3	-4.1507125
66	0xbecd23bd	-0.4006633
67	0xbf04b623	-0.5184042
68	0xbde58c87	-0.11208444
69	0xbea461c2	-0.32105833
70	0x40263fa1	2.5976336
71	0x3ff689d0	1.9260807
72	0xbee9cd85	-0.4566461
73	0xbea7bdbe	-0.3276195
74	0xbb0f93d5	-0.0021908183
75	0xc039dab6	-2.903974
76	0xbf1491e2	-0.580351
77	0xbed96a34	-0.4246384
78	0xbd544309	-0.051821742
79	0xbec4653f	-0.38358495
80	0xc01262b0	-2.2872734
81	0xbe47ed1c	-0.19524044
82	0xc079451a	-3.8948426
83	0xbdc29efe	-0.095029816
84	0x3f12d8af	0.5736188
85	0xbeac06be	-0.33598894
86	0x3f45c9ab	0.77260846
87	0xbedffe9a	-0.43748933
88	0xbf075c72	-0.52875435
89	0xbdd1d7d4	-0.10246244
90	0xbe0c3b23	-0.13694434
91	0xbed788f1	-0.42096666
92	0xbdb05a5c	-0.08610985
93	0x3ef87617	0.48527595
94	0x4080118c	4.002142
95	0xbebd5bc0	-0.36984062
96	0x3e096746	0.13418302
97	0x3e865726	0.26238364
98	0xbf02b8c9	-0.5106321
99	0x3f9a64bc	1.2061992
