logs/adult/race-parity-adv/learning_rate_0.0001-num_iters_500-n_h_10-n_h_adv_4-dropout_rate_0.5-alpha_10-adv.pth (torch_old, 9067 bytes, 4 tensors)

weight f4 [4, 1]
000000 20 4d 01 be 62 35 65 bf 72 ad 30 3f 00 94 76 be
       -0.12627077 -0.8953458 0.69014657 -0.24079895

bias f4 [4]
000000 40 39 31 bd 6e bf 1e 3f 84 ad e2 3e c4 c8 8a 3e
       -0.04326749 0.6201085 0.44273007 0.27106297

weight f4 [5, 4]
000000 a8 b3 68 be c0 a3 6f bd 40 16 ff be a8 10 fe bd
       -0.22724783 -0.058505774 -0.49821663 -0.12405521
000010 4c 6b a5 be 94 0c aa be a0 04 96 bc 7c d4 8f 3e
       -0.32308424 -0.3321272 -0.018312752 0.280918
000020 98 21 27 3e e6 86 b9 3e 90 da 60 bd 80 23 6f 3d
       0.16321409 0.36235732 -0.054895937 0.058383465
000030 0e 54 d8 be f2 bb 8e be 00 81 53 bb 6c 76 1a 3e
       -0.4225163 -0.27877766 -0.0032272935 0.15084237
000040 ac ea 1b 3e 80 4a 4c 3c d6 a6 ff 3e 4c 21 0c be
       0.15226239 0.012468934 0.49931973 -0.13684577

bias f4 [5]
000000 dc cc 13 be 40 e9 55 bc 56 dc a5 3e e4 fd 5e be
       -0.14433616 -0.013056099 0.32394665 -0.21776539
000010 70 f0 67 3e
       0.22650313
