logs/adult/race-parity-adv/learning_rate_0.01-num_iters_2000-n_h_10-n_h_adv_10-dropout_rate_0.2-alpha_1-adv.pth (torch_old, 9215 bytes, 4 tensors)

weight f4 [10, 1]
000000 cc f1 de 3e 2c 16 b4 3e 1a be 5b bf 7a 10 4a bf
       0.4354385 0.35173166 -0.85836947 -0.7893139
000010 38 2a 10 be 44 75 00 bf 8e 4b 03 bf a8 74 c3 3e
       -0.14078605 -0.50178933 -0.5128716 0.3817494
000020 e8 02 48 3f ba 59 2e 3f
       0.78129435 0.6810566

bias f4 [10]
000000 46 a5 6c 3f 88 60 80 be f2 b2 03 3f e0 41 ef bd
       0.9243969 -0.25073647 0.51444924 -0.116824865
000010 18 1b 19 3e 2c 26 b3 be 0c 71 1f bf d4 9c a9 be
       0.14951742 -0.3499006 -0.6228187 -0.33127463
000020 70 45 c6 3d c0 7c 62 bd
       0.09681213 -0.055294752

weight f4 [5, 10]
000000 cf b8 8e be 2c 58 53 be 94 e6 b2 3d 8e 53 5b be
       -0.27875373 -0.20639104 0.087353855 -0.21418592
000010 fc 86 a3 3d a0 f2 22 bd 2a b7 6d 3e fc 4a 9b be
       0.079847306 -0.039782166 0.23214403 -0.30330646
000020 75 09 19 be c4 0e 8e be 2a 84 52 3e 67 6e 85 3e
       -0.14945014 -0.2774564 0.20558229 0.26060793
000030 c0 b9 74 bc ac fc 24 3e 3a e1 0e be d0 63 84 bd
       -0.014936864 0.16112012 -0.13953105 -0.0646435
000040 ea d5 6e be 60 67 35 3e 7c 2a 88 be c0 a1 eb 3d
       -0.23323789 0.17715216 -0.26594913 0.11505461
000050 c6 19 7e 3e ba ba 5e 3e 04 a4 b6 bd 8f 25 81 be
       0.2481452 0.21750918 -0.08918002 -0.25223967
000060 93 8c 98 3e d0 d5 1e 3e 3e 0f cf bd 13 52 65 be
       0.2979475 0.1551125 -0.10110329 -0.2239459
000070 5e fe 4e 3e db 56 88 be 76 83 17 3e bc 28 43 be
       0.20214221 -0.26628765 0.14796242 -0.19058508
000080 58 f0 73 be 16 7a 4b be f8 af 7e be fe 90 30 3e
       -0.23822153 -0.19870791 -0.24871814 0.1724281
000090 fc 07 6b be 37 72 8e 3e 70 c9 f2 bd ff 92 9b 3e
       -0.22952265 0.27821514 -0.118548274 0.30385587
0000a0 7e 5b 0e be f8 56 ae 3d 90 77 b2 bc 1a 41 4b be
       -0.13902089 0.08512682 -0.021785527 -0.19849053
0000b0 32 2f 27 3e 40 f7 64 bc 66 a3 43 3e a8 10 30 3e
       0.16326597 -0.013974965 0.191053 0.17193854
0000c0 47 1f 2b be 8a f6 9a be
       -0.1671115 -0.3026622

bias f4 [5]
000000 cf a6 82 3e 70 3d d1 3c 97 5c 82 3e 5c e7 88 3d
       0.2551789 0.025541991 0.25461265 0.06684753
000010 53 64 98 3e
       0.2976404
