logs/adult/race-parity-alpha-adv/learning_rate_0.001-num_iters_2500-n_h_10-n_h_adv_10-dropout_rate_0.5-alpha_0.5-adv.pth (torch_old, 9215 bytes, 4 tensors)

weight f4 [10, 1]
0.5574734 -0.8923267 0.14522612 -0.48979437 -0.46853888 0.7283306 -0.28299165 0.38128042
-0.5783509 0.7549286
00000000: 94b6 0e3f 866f 64bf 28b6 143e 54c6 fabe
00000010: 54e4 efbe e073 3a3f 48e4 90be 3037 c33e
00000020: ce0e 14bf 0043 413f

bias f4 [10]
-0.77916956 0.7259127 -0.6072961 0.9910933 0.81971776 -0.6683792 0.09186208 -0.6240889
0.8728775 -0.52703965
00000000: a877 47bf 6ad5 393f c277 1bbf 4ab8 7d3f
00000010: 06d9 513f e61a 2bbf 3022 bc3d 4ac4 1fbf
00000020: e674 5f3f 12ec 06bf

weight f4 [5, 10]
-0.1628942 0.29868773 -0.22396153 -0.24255663 0.02876231 0.1852645 -0.112191305 0.14758632
0.11801204 -0.0828906 0.031302243 0.25523576 -0.21510437 -0.15960221 0.26492092 -0.3046576
-0.23127629 0.28423354 0.2972109 0.002376616 0.10550818 -0.13768135 -0.044751197 -0.03507951
0.3022075 -0.23232819 0.12481251 -0.047066182 -0.166719 0.09041351 0.042123973 -0.0020416975
-0.28690028 -0.0780914 -0.02611056 -0.31607988 -0.014854848 -0.22357684 -0.09057656 -0.16125591
0.06524879 0.2855731 0.22366992 -0.05552742 0.0069916844 0.038139403 -0.22550276 -0.059150517
0.020015478 -0.03604871
00000000: bdcd 26be 99ed 983e 2c56 65be c460 78be
00000010: f09e eb3c fab5 3d3e 8ec4 e5bd de20 173e
00000020: 4cb0 f13d 8cc2 a9bd c836 003d 43ae 823e
00000030: 5244 5cbe c36e 23be b7a3 873e 15fc 9bbe
00000040: b1d3 6cbe 0f87 913e 072c 983e 00c1 1b3b
00000050: ac14 d83d 57fc 0cbe 084d 37bd 88af 0fbd
00000060: f1ba 9a3e 71e7 6dbe b49d ff3d 78c8 40bd
00000070: 63b8 2abe b82a b93d 308a 2c3d 00ce 05bb
00000080: 98e4 92be 62ee 9fbd d0e5 d5bc 39d5 a1be
00000090: c061 73bc 54f1 64be 3480 b9bd 4520 25be
000000a0: 28a1 853d a336 923e ba09 653e b870 63bd
000000b0: 801a e53b 1038 1c3d 32ea 66be d047 72bd
000000c0: 80f7 a33c d0a7 13bd

bias f4 [5]
0.021412283 -0.027413517 0.20303228 0.26040432 0.26824602
00000000: d068 af3c 5092 e0bc b2e7 4f3e b753 853e
00000010: 8b57 893e
