logs/adult/age-odds-adv/learning_rate_0.001-num_iters_2000-n_h_100-n_h_adv_10-dropout_rate_0.5-alpha_1-adv.pth (torch_old, 9519 bytes, 4 tensors)

weight f4 [10, 2]
000000 e8 8e 84 bd 28 ed e7 bd 2b 70 18 bf 2f 19 1e bf
       -0.0647257 -0.11324531 -0.59546155 -0.6175718
000010 9e a6 22 bf 00 58 a4 39 4c 90 3d 3e de cb df 3e
       -0.6353549 0.00031346083 0.18512076 0.43710226
000020 76 03 b6 3e d0 7b d4 3d 80 59 2b be 90 6b 33 bf
       0.35549515 0.10375178 -0.1673336 -0.70086
000030 6c 1a 13 3e 00 35 6a bb 6d de 1d 3f 92 de ee be
       0.14365548 -0.0035737157 0.6166752 -0.46654183
000040 f1 6c 0a 3f 09 66 33 3f 8a 59 0c bf 19 0c 21 3f
       0.5407248 0.7007757 -0.54824126 0.62909085

bias f4 [10]
000000 d6 a1 c7 3e 02 ab c3 3e 8f 0a 04 bf 17 da 00 3f
       0.3899066 0.38216406 -0.5157861 0.5033278
000010 f7 24 29 bf d4 a6 8a 3e d0 3d ee 3d 86 76 f6 3e
       -0.6607203 0.27080405 0.116328835 0.481373
000020 66 2f bf 3e 2e 6d e8 3e
       0.3734085 0.45395797

weight f4 [11, 10]
000000 01 79 3f be c8 e2 b3 3d 38 52 32 3e 48 5f 30 3d
       -0.18698503 0.087834895 0.17414176 0.043059617
000010 a0 ea 2e 3c ca 7b 49 3e b0 07 9d 3c 41 c4 2d be
       0.010676056 0.19676128 0.019168705 -0.16969396
000020 e0 9e 42 bd 88 09 48 3d 26 29 7d 3e af fe 87 3e
       -0.047514796 0.048837215 0.24722728 0.26561496
000030 52 88 6d 3e 3b 96 89 3e af 56 98 be 6a a8 35 be
       0.23196533 0.2687243 -0.29753634 -0.17740026
000040 48 03 32 3d 64 21 ff 3d 98 fd ee 3d a2 22 0d be
       0.04346016 0.12457541 0.11669463 -0.13782743
000050 aa 8f 02 3e d0 18 2f bd 8a f6 c1 bd 40 aa be 3d
       0.12750116 -0.042748272 -0.09470852 0.09309816
000060 0d 87 6d be 92 06 75 3e f0 38 90 3d 96 ce c3 bd
       -0.23196049 0.23928288 0.0704211 -0.095608875
000070 c0 61 e3 3b 42 5b 20 3e 47 6c 9c 3e 88 b3 7b bd
       0.006939143 0.15659812 0.3055136 -0.06145051
000080 ea b7 02 be 18 c2 82 3d a6 a0 12 3e e6 5a 77 be
       -0.1276547 0.06384677 0.14319095 -0.24155769
000090 c0 41 49 bc b6 b4 45 3e d8 00 2d be 68 b2 64 3d
       -0.012283742 0.19307217 -0.16894853 0.055834204
0000a0 80 5e 5c 3c f8 cf ca 3d a4 9a 97 3d 64 a4 73 be
       0.013450265 0.09902948 0.07402542 -0.23793179
0000b0 64 4b 24 be dd 42 9c 3e 94 9c ea 3d 2a 14 56 3e
       -0.16044384 0.30519763 0.11455646 0.2090613
0000c0 27 0f 9f be 00 27 15 bd da 02 59 3e 90 55 18 be
       -0.31066248 -0.036414146 0.21192494 -0.1487639
0000d0 ae 5a 57 3e f0 05 7e be 4c 6a 30 3e e4 92 35 3e
       0.21030685 -0.24806952 0.17228049 0.17731816
0000e0 b7 3e 8b be d4 24 e2 bd 70 41 d8 bc 18 ff 4a bd
       -0.27196285 -0.11042181 -0.02639839 -0.049559683
0000f0 00 bd 77 3c cf e1 50 be 4a 7b 64 3e 87 93 5c be
       0.015120745 -0.20398639 0.22312656 -0.21540652
000100 f8 8a 75 bd de 43 43 3e 4a f8 98 be d3 0a 83 3e
       -0.059946984 0.19068858 -0.2987693 0.25594196
000110 00 65 6b bb e0 88 f9 bc 52 52 46 3e ae ea 88 be
       -0.0035918355 -0.030460775 0.1936734 -0.26741546
000120 46 7d ef bd ca 9b 73 3e 71 31 88 3e 4e 1d 5d 3e
       -0.11693816 0.23789898 0.2660022 0.2159321
000130 65 79 8f 3e 79 76 90 3e 80 fe be bb 36 ef 8a be
       0.28022304 0.28215387 -0.0058286786 -0.27135628
000140 e3 ce 62 be ee 27 5f be 60 11 61 3d 20 5f fb bd
       -0.22149234 -0.21792576 0.05494821 -0.12274003
000150 00 62 a4 3a e0 1b a0 be 7a f3 98 bd 08 31 7d 3d
       0.0012541413 -0.31271267 -0.074683145 0.061814338
000160 ae aa 1d be 6c ea b7 bd 27 ca 42 be be c8 79 be
       -0.1539714 -0.08980259 -0.19022427 -0.24392983
000170 18 40 78 3d 8e 2a 8b be ae d3 72 3e 40 56 39 bd
       0.060608 -0.27180904 0.23713562 -0.04524827
000180 9c c8 46 be a5 f8 8e 3e 41 0b 6e be b8 6b 0c bd
       -0.19412464 0.27924076 -0.2324648 -0.034282416
000190 11 1f 8d 3e 58 6d 19 bd fc 34 3a 3e c8 4c 2d 3e
       0.27562764 -0.037457794 0.18184274 0.16923821
0001a0 91 83 12 be 78 6d 4a 3d 00 31 25 3b 44 65 be 3d
       -0.14308001 0.049420804 0.0025206208 0.09296659
0001b0 6d 52 29 be da 0e 40 3e
       -0.16535349 0.18755665

bias f4 [11]
000000 50 c8 a4 bc 90 5f c9 3d 41 ab 8c 3e 2c 4b 9b 3d
       -0.020115048 0.0983268 0.27474406 0.07582697
000010 ee 75 1c 3e 78 11 14 bd 5d 31 89 3e c2 43 0e 3e
       0.15279362 -0.036149472 0.26795474 0.13893035
000020 89 ec 0d be 16 50 41 3e cb 42 8c be
       -0.13859762 0.18878207 -0.2739471
