logs/adult/age-odds-adv/learning_rate_0.01-num_iters_2000-n_h_10-n_h_adv_10-dropout_rate_0.2-alpha_1-adv.pth (torch_old, 9519 bytes, 4 tensors)

weight f4 [10, 2]
000000 e0 6e d5 bc f4 ad 0a be ca be 77 be 40 1c 4f bc
       -0.026053846 -0.1354292 -0.24193874 -0.012641013
000010 28 54 48 3e 5a 94 e4 3e 9b 9f 06 3f a0 5c 9b bc
       0.19563353 0.44644433 0.5258729 -0.018965065
000020 35 03 00 bf e2 26 b2 3e 44 31 0a 3e b9 42 bb be
       -0.50004894 0.3479529 0.13495356 -0.36574343
000030 45 60 19 bf 2a 15 c9 3e da c5 af 3e 22 50 ed 3e
       -0.5991252 0.3927396 0.34330636 0.463502
000040 0e b4 24 bf 70 fc 62 bd 18 5b f0 bd e4 d4 2e bf
       -0.6433724 -0.055416524 -0.11736125 -0.68293595

bias f4 [10]
000000 4f 99 af be 03 b2 d7 be 6e b8 c5 3e cb 03 08 3f
       -0.34296653 -0.42128 0.3861727 0.5313079
000010 fe 3e 7d be 00 a8 65 3a 70 06 bc be 45 57 12 3f
       -0.24731061 0.00087606907 -0.3672366 0.5716441
000020 c7 2a 1e bf 54 22 cc be
       -0.61784023 -0.3986994

weight f4 [11, 10]
000000 ae 76 de bd 9a 65 53 3e c2 1d 40 3e 88 f0 2e be
       -0.1086248 0.20644227 0.18761352 -0.17083943
000010 28 94 48 3d da 31 4f be 23 ba 87 3e 80 62 09 bd
       0.048969418 -0.2023386 0.265092 -0.033541203
000020 00 2f ad 3a 48 e9 50 be 87 95 8c 3e 14 40 f3 3d
       0.001321286 -0.2040149 0.2745783 0.11877456
000030 04 b6 a1 be 08 56 a3 3d 81 83 2b be 50 17 ba 3c
       -0.3158418 0.079753935 -0.16749384 0.022716194
000040 ae a9 b5 bd a9 42 8f 3e 0c 58 8f be 5a bf 13 3e
       -0.088702545 0.27980545 -0.27996862 0.14428464
000050 51 cd 98 3e d0 75 47 bd 6d e5 99 3e e8 a6 24 3d
       0.29844144 -0.04869634 0.3005785 0.040198237
000060 16 b9 70 3e 90 52 09 bd 9e 79 22 be 44 c0 92 3d
       0.23508105 -0.033526003 -0.15866706 0.07165578
000070 85 d2 84 be cf b1 91 3e 14 c8 2a 3e ec 12 99 3d
       -0.25941864 0.2845597 0.16677886 0.07474312
000080 03 58 78 be 60 c8 16 bd 26 c3 44 3e 96 c1 33 3e
       -0.24252324 -0.036812186 0.19215068 0.17554316
000090 c2 8d c2 bd a6 41 56 be a4 7f 43 be c0 ee 2f bd
       -0.094996944 -0.2092348 -0.1909166 -0.0429523
0000a0 aa bb e5 bd a6 4a 79 3e 46 f5 46 be e3 66 6a be
       -0.11217435 0.24344882 -0.19429502 -0.2289081
0000b0 fa 8a 2a be 39 17 94 be 60 c4 8c 3c cb 69 83 be
       -0.16654578 -0.28923967 0.017183483 -0.2566665
0000c0 32 47 87 be ef 92 91 3e fc 74 ab 3d b3 4d 96 3e
       -0.26421505 0.28432414 0.083719224 0.29356155
0000d0 34 48 13 be 8c ad ea 3d 73 53 9a 3e ec d0 d6 3d
       -0.14383012 0.11458883 0.30141792 0.104890674
0000e0 c6 cb 3f 3e 2e c5 5a 3e 96 e9 6b 3e 56 ef 9a be
       0.18730077 0.2136428 0.23038325 -0.30260724
0000f0 72 0f 51 be a3 a3 94 3e 88 50 c3 bd 64 f4 3f be
       -0.20416048 0.29031095 -0.095368445 -0.18745571
000100 ed e0 6e be c0 c7 74 bc f8 fa 29 3d 40 08 dd 3d
       -0.2332799 -0.014940202 0.041499108 0.10792589
000110 cd 17 45 be 7e 4a fb bd 13 7e 98 be 54 34 11 be
       -0.1924736 -0.12270068 -0.29783687 -0.14180118
000120 68 9b 4f bd 95 8c 84 be ae 60 49 3e 22 94 17 be
       -0.050685316 -0.25888506 0.19665787 -0.14802602
000130 6a 2b 8a be 86 a9 42 be be e6 67 3e ba e6 e8 bd
       -0.26986247 -0.1900998 0.22646615 -0.113721326
000140 e8 9a 2b 3e 08 0b 11 bd 40 a7 ec 3b 47 70 88 3e
       0.16758311 -0.03541091 0.007222086 0.2664816
000150 9b 8d a0 3e e8 04 28 3d 02 9a 4e 3e d0 6d 8c bc
       0.31358036 0.041020304 0.20175937 -0.017142206
000160 b0 cf c4 bc f2 2e fc bd 43 90 81 be 9c 3b 8f be
       -0.024024814 -0.123136416 -0.25305375 -0.27975166
000170 18 e1 81 3d 70 07 8d 3c a2 47 53 3e ee 18 27 be
       0.06341761 0.01721546 0.20632794 -0.16318104
000180 44 2c a7 3d e0 9f 0b be 80 d8 22 bc e8 eb 38 3e
       0.0816274 -0.13635206 -0.009939313 0.18058741
000190 60 7c 1f bc 65 c4 61 be 00 61 7f 3d 88 c8 22 3e
       -0.009734243 -0.22047575 0.062348366 0.15896809
0001a0 51 19 9d 3e c2 d1 50 be 4c 99 84 bd 68 1e 03 3d
       0.30683377 -0.20392516 -0.064745516 0.03201142
0001b0 f8 7b 6b 3d 50 fa 91 3d
       0.057491273 0.071278214

bias f4 [11]
000000 ac e3 b6 bd 8e 2e cc bd 73 3e 9c be 58 e9 ef bd
       -0.08930144 -0.09969817 -0.30516395 -0.11714429
000010 7d a3 98 be ac 71 74 be f0 10 8f be a6 3b 74 3e
       -0.29812232 -0.23871487 -0.2794261 0.23850879
000020 e7 a7 82 3e 5c 1c fb bd 2d f3 95 be
       0.25518724 -0.122612685 -0.2928709
