logs/adult/age-parity-alpha-model/learning_rate_0.001-num_iters_3000-n_h_10-n_h_adv_10-dropout_rate_0.5-alpha_900-model.pth (torch_old, 13680 bytes, 3 tensors)

weight f4 [10, 117]
0	0xbe06d69c	-0.13167804
1	0xbec50282	-0.38478476
2	0xbd4cdf7c	-0.05001782
3	0xbe47ef8e	-0.19524977
4	0xbf2f896d	-0.6856907
5	0x3e998307	0.29982778
6	0x3e1672dc	0.14692253
7	0x3ce0549b	0.027384093
8	0x3c879762	0.016551677
9	0x3e80240b	0.250275
10	0x3dbc6b69	0.09200174
11	0x3e6f8f72	0.23394564
12	0xbea016bb	-0.31267342
13	0xbee28a08	-0.44245934
14	0xbeee5959	-0.46552542
15	0x3d95cc96	0.07314412
16	0xbddd4d0f	-0.108057134
17	0x3d3bb49d	0.045826543
18	0xbe214af5	-0.1575125
19	0x3d062c55	0.032757122
20	0xbc4977be	-0.012296615
21	0x3c71a8c5	0.01474971
22	0x3dd7a02c	0.10528597
23	0x3d3aad3c	0.045575365
24	0xbdf4cbee	-0.11952959
25	0xbe7112c7	-0.23542319
26	0xbdb543e8	-0.08850843
27	0x3ce076ab	0.027400335
28	0xbd27d5f9	-0.040975545
29	0x3dde36f3	0.108503245
30	0x3d8df79b	0.069319926
31	0x3de60e60	0.112332106
32	0x3d8fcc1d	0.070213534
33	0xbc0ab61a	-0.008466268
34	0xbe9366ea	-0.28789455
35	0x3e1ab27b	0.15107147
36	0x3c087b5d	0.008330193
37	0x3e1655c7	0.14681159
38	0xbe0151ff	-0.12628935
39	0x3d88d691	0.0668155
40	0x3dfd8ab1	0.12379969
41	0xbecc1831	-0.39862207
42	0xbe7f6c11	-0.24943568
43	0x3e3853b7	0.18000685
44	0x3ddeb339	0.10874028
45	0x3e679d55	0.22618611
46	0xbeaa4a4a	-0.33259803
47	0x3d1addc1	0.037809137
48	0x3e20be1e	0.15697524
49	0x3dd2629e	0.10272716
50	0x3d982bc7	0.07430225
51	0xbe41f807	-0.18942271
52	0x3e92655a	0.2859295
53	0x3e483bda	0.19554082
54	0x3e57ae86	0.21062669
55	0x3e3d0bab	0.18461482
56	0xbc88907a	-0.016670454
57	0xbe056649	-0.130273
58	0xbda666a4	-0.08125046
59	0xbd0eaf41	-0.034835104
60	0xbccce3db	-0.025010994
61	0x3dce1087	0.10061746
62	0xbe1b3a6c	-0.15159005
63	0x3e0ec435	0.13942035
64	0x3db76ea5	0.08956651
65	0x3e42dbf5	0.1902922
66	0x3e69f52e	0.22847435
67	0xbee3d115	-0.44495454
68	0x3de39a2f	0.111133926
69	0x3b50eb88	0.0031878669
70	0x3e2bf490	0.16792512
71	0x3e640bd0	0.22270131
72	0x3b9cc377	0.0047840434
73	0x3e1bc17e	0.1521053
74	0x3c58b393	0.013226408
75	0x3d4f908d	0.050674964
76	0xbe92cdb6	-0.2867257
77	0xbd60b383	-0.054858696
78	0xbd144484	-0.036198154
79	0x3eaf814a	0.34278327
80	0xbda23de4	-0.07921961
81	0x3eb5d1b8	0.35511565
82	0x3df0a1bd	0.11749599
83	0x3e8f5768	0.27996373
84	0xbe3c26de	-0.18374202
85	0x3e0bd740	0.1365633
86	0xbc5ab1cd	-0.013348055
87	0x3dadaff0	0.08480823
88	0x3e23e5c9	0.16005625
89	0x3e6f3495	0.23359902
90	0x3ea70fe4	0.3262931
91	0x3e0410eb	0.12897079
92	0x3c89b6e4	0.016810842
93	0xbe16aa8b	-0.14713494
94	0x3dfa73e9	0.12229139
95	0xbe6177e4	-0.22018391
96	0x3e107882	0.1410847
97	0xbdf7ec2d	-0.12105594
98	0x3b6e56ff	0.0036367772
99	0xbe2fab22	-0.17155126
100	0x3ec0aa78	0.37630057
101	0x3eade4a8	0.33963513
102	0x3e655f58	0.22399652
103	0x3e0de40e	0.13856527
104	0xbcf944fd	-0.030428404
105	0xbcde36cf	-0.027125744
106	0x3e7fa2d2	0.24964455
107	0x3ea33e04	0.31883252
108	0x3e3306b8	0.17483032
109	0xbe38ca34	-0.18045884
110	0xb9609aba	-0.00021419945
111	0x3e54d288	0.20783436
112	0xbdafd83d	-0.08586166
113	0xbd459eee	-0.04824727
114	0x3e8ccfb0	0.27502203
115	0xbe256d09	-0.16154875
116	0xbd26d0ec	-0.040726587
117	0xbe432b7e	-0.1905956
118	0xbf2e0cb5	-0.6798814
119	0xbdbc65cb	-0.09199103
120	0xbdaf7867	-0.08567887
121	0xbf50473d	-0.813587
122	0x3e9d6780	0.30743027
123	0x3de120af	0.10992562
124	0x3ad2d7fe	0.0016086099
125	0x3d85441b	0.06507131
126	0x3e126c1f	0.14299057
127	0x3c3b7abf	0.011442839
128	0x3d1f0417	0.03882226
129	0xbe9bb16c	-0.304088
130	0xbf07242e	-0.5278958
131	0xbef0cacc	-0.47029722
132	0xbcc78fd9	-0.024360584
133	0xbde63ee3	-0.112424634
134	0x3d8be146	0.06830077
135	0xbdbc96a3	-0.09208419
136	0xbc7e67c7	-0.015527672
137	0xbe3de80c	-0.1854555
138	0xbdc8f6a2	-0.098126665
139	0x3dbdff4e	0.09277211
140	0xbe3d95e7	-0.18514214
141	0xbe822b8f	-0.25423858
142	0xbe97e733	-0.29668579
143	0x3b90ffe5	0.0044250363
144	0x3dd8d94a	0.105883196
145	0x3dbd8e80	0.09255695
146	0x39066dd0	0.00012820144
147	0x3db6f585	0.08933548
148	0x3e5d3d9d	0.21605535
149	0x3e2f433b	0.1711549
150	0xbdcc947e	-0.0998926
151	0xbeea6ec4	-0.45787632
152	0x3e62a582	0.22133449
153	0xbda8dc26	-0.08245115
154	0x3e396e4d	0.18108483
155	0xbe832708	-0.25615716
156	0x3e530aa1	0.20609523
157	0x3e9ffdf0	0.31248426
158	0xbea9cc74	-0.33163798
159	0xbecdd010	-0.40197802
160	0x3eb82dea	0.3597253
161	0x3eb23a40	0.34810066
162	0x3ecae434	0.3962723
163	0xbe8bc529	-0.2729886
164	0xbda66297	-0.08124273
165	0x3e35bd2e	0.17747948
166	0x3e8016ea	0.25017482
167	0x3e049c76	0.1295031
168	0xbe924be5	-0.28573528
169	0x3ea7aceb	0.32749113
170	0x3e9348ca	0.2876647
171	0x3ea723c7	0.32644483
172	0x3e66a944	0.22525507
173	0xbc162edf	-0.009166448
174	0xbe6cf3e8	-0.23139918
175	0xbe3271a8	-0.17426169
176	0xbe211aaa	-0.15732828
177	0x3dc9fc6a	0.09862597
178	0x3e3d8527	0.18507825
179	0xbe8fcc94	-0.28085768
180	0x3e58982b	0.21151797
181	0x3eb1c6e2	0.34722048
182	0x3e620c6b	0.2207505
183	0x3ef3d8ca	0.47626334
184	0xbf2449a3	-0.6417486
185	0x3ea7d012	0.32775933
186	0x3d9b78c0	0.075913906
187	0x3e7d1d70	0.24718261
188	0x3e6620ab	0.224734
189	0xbd3e7b2c	-0.046504185
190	0x3e8c0548	0.2734778
191	0xbe417c9a	-0.18895188
192	0x3dbf8031	0.093506224
193	0xbe4a5a08	-0.19760907
194	0xbb6fcd62	-0.0036590924
195	0x3dc13f8e	0.0943595
196	0x3e8e43dd	0.2778615
197	0x3c1c1d81	0.009528519
198	0x3ee34c37	0.44394085
199	0xbd8b053a	-0.06788106
200	0x3eca7949	0.39545658
201	0xbdc7ff6a	-0.09765513
202	0x3e1dcef8	0.15410984
203	0x3e052a2e	0.13004372
204	0xbe641014	-0.22271758
205	0x3e5901db	0.21192114
206	0x3ec3cb8f	0.3824124
207	0x3e6fcbfc	0.23417658
208	0x3e6f1f16	0.23351702
209	0xbe60ccda	-0.21953145
210	0xbc9a8007	-0.018859876
211	0x3e892c8f	0.26791808
212	0xbd96102e	-0.07327305
213	0x3e97039b	0.29494938
214	0xbd03b3af	-0.03215378
215	0x3e783dae	0.24242279
216	0xbdc78094	-0.09741321
217	0x3eef95fd	0.4679412
218	0x3edabc19	0.42721632
219	0x3e93de07	0.2888033
220	0x3d54370b	0.051810306
221	0xbbbcdd9a	-0.0057637217
222	0x3df95f8a	0.12176426
223	0x3e9c14d3	0.30484638
224	0x3e40ac63	0.1881576
225	0x3e530739	0.20608224
226	0xbd0cd88d	-0.034386206
227	0x3d46528c	0.048418567
228	0x3ed84d21	0.42246345
229	0xba983dd5	-0.0011615107
230	0xbabac1fe	-0.0014248488
231	0x3d3737e2	0.04473103
232	0xbd3c2b70	-0.045939863
233	0xbd3a741a	-0.04552088
234	0xbe8cb3a9	-0.2748082
235	0xbf42e6a1	-0.7613316
236	0xbda6aa3d	-0.08137939
237	0xbe2bd08a	-0.1677877
238	0xbf4e4d08	-0.8058629
239	0x3e8ab32b	0.2708982
240	0xbd96f628	-0.07371169
241	0xbe4f9294	-0.20270759
242	0xbe026ace	-0.12736055
243	0x3ea687a7	0.3252537
244	0x3e51933a	0.20466319
245	0x3e45f7cd	0.1933281
246	0x3de7cfa4	0.11318901
247	0xbf392a48	-0.7233014
248	0xbed900b9	-0.42383364
249	0x3e025ec7	0.12731467
250	0xbdb090ab	-0.08621343
251	0x3e3f68ef	0.18692373
252	0xbd3eca22	-0.046579488
253	0x3b99d58c	0.004694646
254	0x3d07de65	0.033171076
255	0x3e6e3083	0.23260693

bias f4 [10]
0	0x3d7826b5	0.06058379
1	0x3dd5f444	0.104469806
2	0x3d490013	0.049072336
3	0x3e43013b	0.19043438
4	0x3dfe8c26	0.12429075
5	0xbbbc3def	-0.0057446877
6	0x3ced84e9	0.02899404
7	0xbe7e5bf0	-0.24839759
8	0xbe9df211	-0.30848745
9	0x3da1fc54	0.07909456

weight f4 [1, 10]
0	0xbf220775	-0.6329263
1	0xbec09a4e	-0.37617725
2	0xbecbebfb	-0.39828476
3	0xbed7ec61	-0.4217253
4	0xbef6c7c4	-0.48199284
5	0xbf1b6cf2	-0.6071311
6	0xbf1718d3	-0.59022254
7	0x3f1dea50	0.6168566
8	0x3ebd7218	0.3700111
9	0xbede027d	-0.43361273
