logs/adult/age-parity-alpha-model/learning_rate_0.001-num_iters_3000-n_h_10-n_h_adv_10-dropout_rate_0.5-alpha_100-model.pth (torch_old, 13680 bytes, 3 tensors)

weight f4 [10, 117]
0.15825208 0.6284241 0.056408398 0.05544222 -0.3269048 -9.131965e-05 0.13343443 0.21379186
0.31716922 -0.05508349 -0.19673471 -0.089309834 -0.13007528 0.23908797 0.08326187 -0.019571511
0.1531884 -0.30370864 -0.22060803 -0.017137796 0.038549095 -0.010690335 -0.06727009 -0.19150314
-0.11816576 -0.0967817 -0.27845654 0.08027663 0.27004552 -0.036057245 -0.1846709 0.0030914473
-0.14802787 0.025992798 0.13916603 -0.028918395 -0.03176793 -0.119363606 0.107059605 -0.18983558
-0.18147749 0.06500886 0.15152279 -0.4040799 -0.197725 0.018303841 -0.048089404 -0.0144054135
0.053428188 -0.102264546 -0.1555034 0.16536205 -0.49255612 -0.39483625 0.0029642542 -0.17055905
-0.2570342 0.16212216 -0.080364905 0.056362994 0.06662364 -0.050936993 0.05247122 0.06607627
-0.12586139 -0.28961158 -0.32821652 0.4236013 0.07912194 -0.2414678 -0.16004969 -0.33360225
-0.03192454 -0.16741352 -0.040203165 -0.39462394 0.19188459 -0.65743613 -0.5316599 -0.6037849
0.19498207 0.16162412 -0.027907446 -0.15304136 -0.06263429 0.18493563 -0.28556895 -0.10326361
-0.033155352 -0.7998108 -0.14330053 0.24779268 -0.03126354 0.1961618 -0.623397 0.27012593
-0.50238085 -0.3948945 0.13682 -0.075121775 -0.060835242 -0.32314205 -0.34067568 0.20900756
0.22483718 -0.41023836 0.18707243 0.07848581 -0.0019615663 -0.39759174 0.16351794 0.49461266
-0.30416694 0.061503083 -0.65702826 0.2887727 0.06580182 0.22246651 0.597664 0.06635132
0.03487262 -0.55652606 -0.16732545 0.09788958 0.13734299 0.3015085 -0.023423683 -0.14567119
-0.2295057 -0.073835425 0.11203588 0.13289459 -0.255126 0.0010295191 0.06113858 -0.045750756
0.104962505 -0.01535555 -0.3630852 0.03706516 0.05033656 -0.09418534 -0.077139616 -0.32349628
0.00087981264 0.1384412 -0.1252074 -0.22714119 -0.39094988 0.0099281855 0.043575343 0.16102679
-0.24072719 0.05774384 -0.11783651 0.19667913 0.012314303 -0.21114573 0.8959957 0.122428544
-0.103932336 -0.34268373 -0.14155088 0.008268387 -0.26725188 -0.47294492 0.1914533 -0.006861746
0.31959164 -0.19064231 -0.25576794 -0.13481638 -0.25931194 -0.19301748 0.1253536 0.38479102
0.12671381 0.37556967 -0.38484484 0.13869989 -0.04555495 -0.4797689 -0.50061184 -0.41642064
0.27989846 0.01653739 -0.2595313 0.08971296 -0.5305154 -0.055406388 -0.15359643 -0.09237001
-0.058124077 0.5891811 0.21759526 -0.635337 -0.5830498 -0.07047909 -0.7219097 -0.060832795
0.011580534 0.034385793 0.024725296 0.21519567 -0.2786605 -0.0041881376 -0.28922018 -0.12639068
0.09974319 -0.16455987 0.14663447 -0.08576649 0.45152718 -0.121666126 -0.9205227 0.0015353045
-0.04708185 0.15946104 -0.3663412 -0.19290724 0.068655714 -0.15294158 0.39095688 0.3888574
-0.1600105 -0.035698388 -0.69639766 0.22265151 0.7207576 -0.27200192 0.048364636 -0.5872081
0.3849715 -0.039317973 0.14282992 0.2546829 0.064851776 0.084411874 -0.17019218 0.099673375
-0.17116585 -0.025296489 -0.03946793 -0.14150162 -0.19596352 -0.04733912 0.10151485 0.30589896
0.18475172 -0.076549746 0.13574998 -0.30869424 -0.1495352 0.02050829 0.07077465 -0.42483723
00000000: d50c 223e 67e0 203f 7e0c 673d 6217 633d
00000010: 1160 a7be dd82 bfb8 09a3 083e 41ec 5a3e
00000020: 0164 a23e 3a9f 61bd d374 49be 13e8 b6bd
00000030: 7432 05be 7ad3 743e 3385 aa3d 6f54 a0bc
00000040: 6cdd 1c3e b37f 9bbe 12e7 61be 9064 8cbc
00000050: a8e5 1d3d 8426 2fbc e7c4 89bd 6619 44be
00000060: e400 f2bd 7c35 c6bd db91 8ebe 1368 a43d
00000070: 6843 8a3e c3b0 13bd 5e1a 3dbe e199 4a3b
00000080: 9e94 17be d9ee d43c 8a81 0e3e 45e6 ecbc
00000090: 171f 02bd e874 f4bd 1142 db3d 4264 42be
000000a0: 3cd5 39be 5d23 853d ca28 1b3e 90e3 cebe
000000b0: 6c78 4abe f0f1 953c 65f9 44bd af04 6cbc
000000c0: 84d7 5a3d 1370 d1bd 493c 1fbe ab54 293e
000000d0: 5130 fcbe fa27 cabe ef43 423b 08a7 2ebe
000000e0: fd99 83be 5a03 263e 5b96 a4bd e2dc 663d
000000f0: fa71 883d 4fa3 50bd 10ec 563d ff52 873d
00000100: cfe1 00be f847 94be ff0b a8be 45e2 d83e
00000110: af0a a23d 5643 77be 11e4 23be eacd aabe
00000120: 4ec3 02bd 736e 2bbe 13ac 24bd 260c cabe
00000130: 657d 443e bc4d 28bf dd1a 08bf a691 1abf
00000140: 61a9 473e cb80 253e 289e e4bc e0b6 1cbe
00000150: 6846 80bd c45f 3d3e 1836 92be df7b d3bd
00000160: e8cd 07bd 67c0 4cbf 60bd 12be 5dbd 7d3e
00000170: 330e 00bd a4de 483e f296 1fbf f24d 8a3e
00000180: 089c 00bf 9d2f cabe 8b1a 0c3e 72d9 99bd
00000190: 602e 79bd e072 a5be 0b6d aebe 1406 563e
000001a0: b83b 663e c30a d2be ea8f 3f3e 2bbd a03d
000001b0: 9f8d 00bb 2591 cbbe 3f71 273e df3d fd3e
000001c0: c5bb 9bbe a8ea 7b3d 0133 28bf 04da 933e
000001d0: 1bc3 863d 43ce 633e 8200 193f 33e3 873d
000001e0: 98d6 0e3d 7e78 0ebf 5d57 2bbe 557a c83d
000001f0: a4a3 0c3e 525f 9a3e 06e3 bfbc d42a 15be
00000200: 8b03 6bbe 0737 97bd 1173 e53d 8515 083e
00000210: e09f 82be eef0 863a 736c 7a3d 2565 3bbd
00000220: 95f6 d63d d895 7bbc 4ee6 b9be a3d1 173d
00000230: b52d 4e3d 3ee4 c0bd 60fb 9dbd 4ea1 a5be
00000240: 3aa3 663a 88c3 0d3e 5e36 00be b397 68be
00000250: 952a c8be d4a9 223c 0f7c 323d 35e4 243e
00000260: 3081 76be ce84 6c3d 4554 f1bd 4166 493e
00000270: eec1 493c 9636 58be f95f 653f d1bb fa3d
00000280: 7ada d4bd 3e74 afbe b7f2 10be 2178 073c
00000290: 3dd5 88be d625 f2be 550c 443e 7fd8 e0bb
000002a0: 84a1 a33e bd37 43be 04f4 82be 4e0d 0abe
000002b0: 89c4 84be 60a6 45be b25c 003e 5403 c53e
000002c0: 44c1 013e ab4a c03e 620a c5be 5807 0e3e
000002d0: d497 3abd 45a4 f5be 1928 00bf 1635 d5be
000002e0: da4e 8f3e 6c79 873c 49e1 84be 6ebb b73d
000002f0: dbcf 07bf cff1 62bd 6248 1dbe 7d2c bdbd
00000300: 8313 6ebd 93d4 163f 4bd1 5e3e 72a5 22bf
00000310: c042 15bf 5757 90bd 13cf 38bf cf2b 79bd
00000320: 48bc 3d3c 1ed8 0c3d b48c ca3c 415c 5c3e
00000330: 97ac 8ebe a53c 89bb ab14 94be 8f6c 01be
00000340: 2846 cc3d 6282 28be 5927 163e 57a6 afbd
00000350: 922e e73e 172c f9bd 60a7 6bbf 453c c93a
00000360: e6d8 40bd c149 233e 1391 bbbe 7a89 45be
00000370: 5e9b 8c3d b89c 1cbe 802b c83e 5118 c73e
00000380: cbd9 23be 7938 12bd 1e47 32bf c2fe 633e
00000390: 9283 383f d643 8bbe ff19 463d 4553 16bf
000003a0: fc1a c53e e20b 21bd 0242 123e cc65 823e
000003b0: 02d1 843d 22e0 ac3d dc46 2ebe 8e21 cc3d
000003c0: 1a46 2fbe 953a cfbc 20a9 21bd cde5 10be
000003d0: a9aa 48be aae6 41bd 05e7 cf3d ca9e 9c3e
000003e0: 8e2f 3d3e 1dc6 9cbd 0b02 0b3e 2c0d 9ebe
000003f0: c11f 19be 0001 a83c 4df2 903d 4484 d9be

bias f4 [10]
-0.14150153 -0.09091797 -0.10917925 0.039909363 -0.103698105 0.021607462 0.12369968 -0.10316528
-0.08733776 -0.11083661
00000000: c7e5 10be 3333 babd 5f99 dfbd 0078 233d
00000010: ac5f d4bd 2202 b13c 4256 fd3d 5148 d3bd
00000020: 24de b2bd 4efe e2bd

weight f4 [1, 10]
0.6184848 0.46603286 0.5008895 -0.6486984 0.7117291 0.60602826 -0.6236769 0.5459168
0.6321705 -0.12297765
00000000: 0555 1e3f dc9b ee3e 4b3a 003f 1911 26bf
00000010: e133 363f ab24 1b3f 4aa9 1fbf 34c1 0b3f
00000020: edd5 213f b5db fbbd
