logs/adult/race-parity-alpha-model/learning_rate_0.001-num_iters_2500-n_h_10-n_h_adv_10-dropout_rate_0.5-alpha_2.5-model.pth (torch_old, 13680 bytes, 3 tensors)

weight f4 [10, 117]
00000000: 172f 5cbe b134 41bf faf5 e9bd 676c c3bd
00000010: d60e 263f 155b f53e 796b a83d bd0f 03be
00000020: eb6e 70be b190 97be 5cc4 cfbe 2fc7 c7be
00000030: 56cf e0be f750 90be bb89 9d3d 86f9 843d
00000040: 84b2 c53c c872 1d3e a9d3 743f adc6 013e
00000050: e71f 863b b625 3c3e 9ac1 9f3e b42c a23f
00000060: 2e44 813e 8960 693e 0ae8 553e 7e7f e23d
00000070: 0921 203c 7b8e 653e 77ab ff3d f496 873e
00000080: a021 973d 1396 84bd a426 1ebe 1b44 ff3d
00000090: 1922 6ebb c91a 703f 070b d2bd 30c7 043e
000000a0: 490e 8f3e f36c 5cbf 0c1d febe 754d 7a3e
000000b0: 955c a43e f631 8a3e 5bae d23d e036 4b3e
000000c0: d85f 4cbd 787a 6c3f abeb 4a3d 813c dcbe
000000d0: e929 023f c3ab 9e3e 8d72 353e d957 a73e
000000e0: 37c8 923f 95f0 e8bd db84 52be 8bce d03c
000000f0: 7926 0abe 7134 693d efc8 7f3d 45eb 59bd
00000100: 8210 6e3e e942 aa3e 4783 7f3d 0f94 f1be
00000110: 00b7 463e a7b0 e5bd dea8 9b3e 837e a43e
00000120: 32e1 d33d d661 b33e 03ea 7bbd bf99 553e
00000130: 0862 7bbe b2cc 7fbe 0eed f33e bf40 953f
00000140: 83bf 30bd b920 403f c086 3e3e 77e3 3c3f
00000150: 971e 243d 905f 933e 0f0d 1cbd 2dc2 773f
00000160: 0e50 c13e 0c39 093e b476 2d3f 142e 893f
00000170: 631a 2e3f f228 ff3e 09d9 43bf 7a3e 0f3f
00000180: 7ec4 533e 22b2 c6be c842 93bd a67e 4abe
00000190: ed3b 9e3e f129 893e 3deb 333f e0fd 903f
000001a0: 00e2 3b3f 0b58 f93d d79d bbbd 3fbc ce3e
000001b0: 1df7 e13e 7e49 223f c7c8 ecbe 147a 2ebe
000001c0: efbf 703f fd79 313f 2ed7 543e 22c8 a0be
000001d0: eff0 92be 8944 2d3e 2618 343f 0b78 a23d
000001e0: 0e69 313c 6528 dabf dd6d 05bf 3287 75be
000001f0: ec06 8e3c f6b9 453e 95f2 493e 6b3c 6f3e
00000200: 54a3 973e 6e48 163d db09 5a3e 7ea7 01be
00000210: 3498 8bbc 887e 9abd 3472 a4bd 10a6 49be
00000220: 4680 d0bc 7e07 1a3d f922 71be 2844 39be
00000230: eaaa e4be 3ac9 a4be e99f 83bc 162e ff3d
00000240: 18fa a73e 76e7 933e 69af 8bbe cc10 e7b8
00000250: 686c 03be 6b1f 3dbd 5f46 3e3d 574d 0b3e
00000260: 77d2 2cbe b0e1 ce3d d391 06c0 004c 763e
00000270: 74e7 053d 3a34 a2be 11aa 093f 9942 3e3e
00000280: 9047 27be 3afe 47be 410f c9bd 3604 84be
00000290: d9f9 043a 4b6f d7bd bdee 30bd a504 01be
000002a0: 3cab 6b3e ae1d 81be babd 9dbe d0b7 e3bd
000002b0: c47e 01bf 04d2 81be 7de9 ee3d eddc 083e
000002c0: 4b11 153c 2661 0e3e fa56 18be 2a6b 063e
000002d0: 1ac4 433d 945c 043d bfb8 80be 57ee 71be
000002e0: ba43 3b3e a237 2fbe a593 893d 61a0 64bd
000002f0: 0d3c 853e bfad 8ebd fd53 08bd b131 ccbd
00000300: 430e 24be 4ab8 893e d16b 7a3e bfaf 3cbe
00000310: 6a98 19bf cc2c 4ebd d949 afbe 15b6 dbbe
00000320: fb7f 3bbd 6605 63be 5324 cebd 65be df3c
00000330: 9aab 1fbf d545 35bd c609 61bf 0079 40be
00000340: f535 b13e 31fd 903a 25d9 f53e 3165 68be
00000350: 3e79 0dbe fbf2 263f 2e8a 8a3e 3bee f2be
00000360: a236 393d 7895 003e 60c2 003c 0e39 95be
00000370: 01ec 76bd 489a 95bd a8bd 1c3e 4696 ffbe
00000380: 7705 e53e f418 45be df05 dc3e 942a 77bf
00000390: 651d 8f3d 188d 9b3e ec8d 9abe 4bb5 4f3d
000003a0: bb1e 1bbf 1892 703e 6fcf b83d cd38 223f
000003b0: 08d8 943d ddb1 333c af10 c8bf c1c4 0fbf
000003c0: 1c4f 2bbc a7d9 523d a6fb 003e f309 153e
000003d0: 97ca 843e ee3c fe3d 3b04 a53d 6994 f2bb
000003e0: dc2c 89bd 5b55 76bd 3013 4d3e 482d a83c
000003f0: 4e15 11be c184 57bd 93ba 2b3e 620c 94bd
-0.21502338 -0.75471026 -0.114238694 -0.095421605 0.6486639 0.47921053 0.08223624 -0.12798972
-0.23479812 -0.29602578 -0.40579498 -0.39019153 -0.43908185 -0.2818677 0.076922856 0.06492905
0.024132974 0.15375817 0.9563547 0.12673445 0.0040931585 0.1837376 0.31202394 1.2669892
0.2524733 0.22790731 0.20889297 0.110594735 0.009773501 0.22417633 0.12483876 0.26482356
0.0737946 -0.06473937 -0.15444428 0.12464162 -0.0036336242 0.9379087 -0.102560095 0.12966609
0.27940586 -0.86103743 -0.49631536 0.2444361 0.32101884 0.26991242 0.10287162 0.19845152
-0.04989609 0.9237437 0.049541157 -0.4301491 0.508452 0.3099042 0.17719479 0.3268421
1.1467351 -0.113740124 -0.20558493 0.025489112 -0.13491239 0.056934778 0.062447485 -0.053202886
0.23248485 0.33254173 0.062381055 -0.47183272 0.19405746 -0.112153344 0.30402273 0.3212777
0.10345687 0.3503558 -0.061502468 0.2085943 -0.24549115 -0.24980429 0.47641796 1.1660384
-0.04315139 0.7504993 0.1860609 0.73784584 0.040068235 0.28783846 -0.03809839 0.96780664
0.3775639 0.13400668 0.6775925 1.0717187 0.6800901 0.49835926 -0.76503044 0.55954707
0.20680425 -0.3880778 -0.07190472 -0.19774875 0.30905095 0.2678981 0.7028082 1.1327477
0.73391724 0.12174996 -0.09160965 0.40377995 0.44133845 0.6339339 -0.4624693 -0.17038757
0.9404287 0.69326764 0.2078521 -0.3140269 -0.28699443 0.16920675 0.7034935 0.07933053
0.01082827 -1.7043577 -0.52120763 -0.23977354 0.017337285 0.1930922 0.19721444 0.23362891
0.29616797 0.036690168 0.21292822 -0.1266155 -0.01704035 -0.07543665 -0.08029595 -0.19692254
-0.02545179 0.0376048 -0.23548497 -0.18092406 -0.44661647 -0.32184774 -0.016067462 0.12459962
0.32807994 0.28887528 -0.27282265 -0.00011018067 -0.12834322 -0.04617254 0.04645383 0.13603722
-0.16877161 0.1010164 -2.1026504 0.24052429 0.032691434 -0.3168047 0.53775126 0.18580092
-0.16335893 -0.19530573 -0.098173626 -0.25784463 0.00050726306 -0.10519274 -0.04319643 -0.12599428
0.2301454 -0.25217956 -0.30808812 -0.11119044 -0.50584054 -0.25355542 0.11665628 0.13365526
0.009098361 0.13904247 -0.14876929 0.13126817 0.04779444 0.032314852 -0.2514095 -0.23626076
0.18287554 -0.17111066 0.06717614 -0.05581701 0.26022378 -0.06966733 -0.033283222 -0.099704154
-0.16021065 0.26898414 0.24455191 -0.18426417 -0.5999819 -0.05033569 -0.3423603 -0.42912355
-0.04577635 -0.22170028 -0.10065522 0.027312467 -0.6237122 -0.04425605 -0.8790554 -0.18796158
0.34611478 0.0011061785 0.4801723 -0.22694851 -0.13815781 0.6521451 0.27058548 -0.4744738
0.045218118 0.12557018 0.007858843 -0.29145092 -0.060283665 -0.073048174 0.15306723 -0.49919337
0.44730732 -0.192478 0.4297323 -0.96549344 0.069880284 0.30381083 -0.30186403 0.050710004
-0.60593766 0.2349323 0.0902394 0.6336792 0.07267767 0.010967699 -1.5630091 -0.561596
-0.010455873 0.0514771 0.12595996 0.14554577 0.25935814 0.12413965 0.080574475 -0.007402946
-0.06698009 -0.060139995 0.2002685 0.020529404 -0.14168283 -0.05261684 0.16770391 -0.07228924

bias f4 [10]
00000000: b5ee c13d fdf9 35be 8f21 f6bd f247 303e
00000010: 4acd 0c3e c471 1a3e c64a 533e 8b24 383e
00000020: 4880 0abe cc13 94bd
0.09469358 -0.17771144 -0.120181195 0.17214945 0.13750187 0.1508246 0.20633993 0.1798269
-0.13525498 -0.072303385

weight f4 [1, 10]
00000000: 388d 04bf c748 3d3f c19b 5b3f fb43 0cbf
00000010: c378 f1be 9e3b 27bf 1fdf ffbe 410c fdbe
00000020: ea47 663f cef4 693f
-0.5177798 0.73939174 0.85784537 -0.5479123 -0.47162446 -0.65325344 -0.49974915 -0.4942341
0.8995348 0.9138917
