logs/adult/small-test-model/learning_rate_0.001-num_iters_2000-n_h_10-n_h_adv_10-dropout_rate_0.5-alpha_10-model.pth (torch_old, 13640 bytes, 3 tensors)

weight f4 [10, 117]
0	0x3df2046d	0.118172504
1	0x3f42200f	0.7583017
2	0x3d9f8d60	0.07790637
3	0x3d5a8342	0.053347833
4	0xbf20542a	-0.62628424
5	0xbe897eeb	-0.26854643
6	0xbd2b080d	-0.041755725
7	0x3d6470d0	0.05577165
8	0x3ddf3692	0.1089908
9	0x3e164f3c	0.14678663
10	0x3e701187	0.23444186
11	0x3e617d60	0.22020483
12	0x3e6bbdee	0.23021671
13	0x3d96281b	0.07331868
14	0xbdc6bc96	-0.09703939
15	0xbe12133f	-0.14265154
16	0x3e1719f3	0.14755993
17	0xbdb42299	-0.087956615
18	0xbd47e55a	-0.04880271
19	0xbcaf17e9	-0.021373706
20	0x3d10500b	0.035232585
21	0xbe293ece	-0.16527864
22	0xbd27bb53	-0.04095013
23	0xbe84a31a	-0.25905687
24	0xbd3b27be	-0.045692198
25	0xbe80f2c9	-0.2518523
26	0x3d8d0d16	0.068872616
27	0xbd441865	-0.047874827
28	0xbcfc9c70	-0.030836314
29	0xbdacd317	-0.084387
30	0xbd61f147	-0.05516174
31	0xbe39c39f	-0.1814103
32	0xbdcd6904	-0.10029796
33	0x3ca06ee4	0.019584127
34	0x3e38ea33	0.1805809
35	0xbdb2ffef	-0.08740222
36	0x3d834d1d	0.064111926
37	0xbed2530d	-0.41078988
38	0x3e643d43	0.22288994
39	0xbdb18a94	-0.0866901
40	0xbe263fad	-0.16235228
41	0x3f0f9efe	0.5610198
42	0x3e818b6e	0.2530169
43	0xbee38715	-0.44438997
44	0xbe183407	-0.14863597
45	0xbdc2a6c2	-0.09504463
46	0xbb99519a	-0.004678917
47	0xbd7ecec9	-0.062208924
48	0xbd281421	-0.04103482
49	0xbda47920	-0.08030915
50	0xbd9ce067	-0.07659989
51	0x3e0e865d	0.13918443
52	0xbe945bf1	-0.28976396
53	0xbdda0798	-0.1064598
54	0xbd416492	-0.047215052
55	0xbe83ccf8	-0.25742316
56	0xbeb57a87	-0.35445043
57	0x3c162dfa	0.009166235
58	0x3c7a273d	0.015268144
59	0xbc4af9a1	-0.012388618
60	0x3e41c7d7	0.18923889
61	0xbd929686	-0.07157616
62	0x3d508726	0.050910138
63	0xbde3e2be	-0.11127232
64	0xbe03314b	-0.12811773
65	0xbe40a3cf	-0.18812488
66	0x3d1cc36d	0.03827231
67	0x3e1e0e38	0.15435112
68	0xbe32dbcb	-0.17466657
69	0xbd011010	-0.03150946
70	0xbda05368	-0.078284085
71	0xbe893a77	-0.26802418
72	0xbd6431b4	-0.055711463
73	0xbe4914d6	-0.19636855
74	0x3e43e142	0.19128898
75	0xbe748c19	-0.23881568
76	0x3ee381a4	0.44434845
77	0x3e236a50	0.15958524
78	0xbeb92e9c	-0.36168373
79	0xbf629fed	-0.8852528
80	0x3e63246c	0.22181863
81	0xbf083722	-0.53209126
82	0xbdfea3ad	-0.124335624
83	0xbd44383c	-0.04790519
84	0x3dd4621b	0.10370275
85	0x3e6b2d84	0.22966582
86	0x3dd65a53	0.10466447
87	0xbe621b57	-0.22080742
88	0xbf1247f9	-0.5714107
89	0xbf833ca6	-1.0252883
90	0x3e8333a4	0.25625336
91	0xbc3c4603	-0.0114913015
92	0x3d622e62	0.055220015
93	0xbe8474ff	-0.2587051
94	0x3daf11ff	0.08548354
95	0x3f087a1f	0.5331134
96	0x3e259061	0.16168357
97	0x3de349c1	0.11098052
98	0xbe0f9ba2	-0.14024213
99	0xbe8f2e69	-0.27965096
100	0xbe323111	-0.1740153
101	0xbda9c1a4	-0.08288887
102	0xbe635bc6	-0.22202978
103	0x3ccb3e6d	0.02481004
104	0x3d3cf69b	0.04613362
105	0xbe756f47	-0.2396823
106	0x3d7b26b7	0.06131622
107	0xbe049ab6	-0.12949643
108	0x3e86d5e6	0.26335067
109	0xbed287d9	-0.4111927
110	0xbd64b95f	-0.055840846
111	0x3e04f2e4	0.1298328
112	0xbe2fb685	-0.1715947
113	0x3c503b1d	0.012709406
114	0xbf48aebd	-0.7839163
115	0xbd8ddfc9	-0.06927449
116	0xbd3af1fc	-0.04564093
117	0xbeac9400	-0.33706665
118	0xbf6b0b0b	-0.91813725
119	0xbe735bf1	-0.23765542
120	0xbeb52414	-0.35379088
121	0x3f72005c	0.945318
122	0x3f560ac8	0.836102
123	0x3e130b55	0.14359792
124	0xbe72df11	-0.23717906
125	0xbed2dfcd	-0.4118637
126	0xbee5e059	-0.44897726
127	0xbf01bf7e	-0.5068282
128	0xbf075e2f	-0.5287809
129	0xbf01d167	-0.5071015
130	0xbedaeb68	-0.42757726
131	0xbdd3faeb	-0.10350593
132	0x3db7bdbb	0.08971735
133	0xbcf6796d	-0.030087197
134	0x3ee2cb9b	0.44295964
135	0x3f5b025f	0.85550493
136	0x3e5b6ce0	0.21428251
137	0xbea479aa	-0.32124072
138	0x3e2f6253	0.17127351
139	0x3e7ab5a3	0.24483351
140	0x3fa3b7f9	1.2790519
141	0x3ed82865	0.4221832
142	0x3ec1de58	0.37864947
143	0x3ebea410	0.37234545
144	0x3e9df5eb	0.30851683
145	0x3b399e5c	0.002832315
146	0x3ee5382b	0.44769415
147	0x3ea3d6aa	0.31999713
148	0x3e30ee0b	0.17278306
149	0x3d9c3bcc	0.07628593
150	0x3dae7778	0.085188806
151	0xbd825fa0	-0.06365895
152	0x3e88423d	0.26613036
153	0x3d16cadb	0.03681455
154	0x3f8c739d	1.0972782
155	0xbcc5c149	-0.024140017
156	0xbc112f3c	-0.008861359
157	0x3e098af5	0.13431914
158	0xbf9761a4	-1.1826673
159	0xbf1e4b04	-0.61833215
160	0x3e426e3e	0.18987367
161	0x3efc5f54	0.4929148
162	0x3ecf3728	0.40471768
163	0xbd1e7c91	-0.038693015
164	0x3dc2e280	0.09515858
165	0x3d8b638d	0.06806097
166	0x3f846ba1	1.0345346
167	0x3b731ebd	0.003709718
168	0xbed69642	-0.41911513
169	0x3f49d4ed	0.78840524
170	0x3e899c6b	0.2687715
171	0x3ea3d8a3	0.32001218
172	0x3ee1ef39	0.44127825
173	0x3f9228bd	1.1418682
174	0xbe9a1ea0	-0.3010149
175	0xbe752504	-0.23939902
176	0xbe391f79	-0.18078412
177	0xbe3a936c	-0.182203
178	0x3e0774c6	0.1322814
179	0xbe05cbdb	-0.13066046
180	0x3d8d32e6	0.06894474
181	0x3e489eb3	0.19591789
182	0x3f17aa28	0.5924401
183	0x3e8d29a3	0.2757083
184	0xbf3779cb	-0.71670216
185	0x3e37c536	0.17946324
186	0xbe411f9e	-0.18859717
187	0x3f0228f9	0.5084377
188	0x3ef338c7	0.47504255
189	0x3e3d2ea6	0.18474826
190	0x3ec0c103	0.37647256
191	0xbefd7fe1	-0.49511626
192	0x3d2ab37a	0.04167507
193	0x3d18d105	0.03730871
194	0x3dd7897c	0.1052427
195	0x3e13492d	0.14383383
196	0x3fbda8c2	1.4817126
197	0x3ebc92c2	0.36830717
198	0x3f2c70df	0.6735973
199	0xbe428887	-0.18997394
200	0x3f74860d	0.95517045
201	0xbf0cdba0	-0.5502262
202	0x3ea50b4e	0.32235187
203	0xbe6f0cc7	-0.23344718
204	0x3f1aac77	0.6041941
205	0xbe6a0414	-0.22853118
206	0x3f379d87	0.7172474
207	0x3f6b8333	0.9199707
208	0x3f8b984e	1.0905855
209	0x3f9d1fbb	1.2275308
210	0x3e27d574	0.1639002
211	0x3f91f3a4	1.1402478
212	0x3ef2fae6	0.47457045
213	0x3ec528e3	0.38507757
214	0xbdefa71a	-0.11701794
215	0x3e9a2df4	0.30113184
216	0xbece2bfe	-0.40267938
217	0x3f19964d	0.59994966
218	0x3f5e47b1	0.8682814
219	0x3fa56286	1.2920692
220	0x3f7c95b0	0.98665905
221	0xbd7679d0	-0.060174763
222	0x3de90258	0.113774
223	0x3f5c157b	0.85970277
224	0x3f4025bd	0.75057584
225	0x3f776b11	0.96647745
226	0x3e6b1a0d	0.22959156
227	0xbe062cb5	-0.13102992
228	0x3f97bd67	1.1854676
229	0xbf242e58	-0.64133215
230	0x3e5f26e7	0.21792184
231	0x3e06492f	0.13113855
232	0xbd95edf6	-0.07320778
233	0xbd1ab097	-0.037766065
234	0x3e01ef7f	0.12689017
235	0x3f53f126	0.8278984
236	0x3db51dc6	0.088435695
237	0x3d85f824	0.0654147
238	0xbf93c2d3	-1.1543831
239	0xbf290e2a	-0.6603724
240	0xbe47d2a7	-0.19513951
241	0x3aa8531c	0.0012842151
242	0x3e22362d	0.15840979
243	0x3e31262a	0.17299715
244	0x3e8cb41b	0.2748116
245	0x3ea22cd0	0.31674814
246	0x3e61090d	0.21976109
247	0x3e11832b	0.14210193
248	0xbe6d7f2a	-0.2319304
249	0xbcbfda23	-0.023419445
250	0x3e08e8b5	0.1337002
251	0xbd7c343e	-0.06157326
252	0xbb8efbe4	-0.004363524
253	0x3d1a8167	0.037721064
254	0x3de47fa5	0.11157159
255	0xbe502c45	-0.20329387

bias f4 [10]
0	0xbdb99488	-0.09061533
1	0x3e8b86ad	0.27251187
2	0xbdcf2384	-0.10114196
3	0x3d03191a	0.03200636
4	0x3e5cba5c	0.21555465
5	0x3e193605	0.14962013
6	0xbd2c2ac7	-0.042032983
7	0x3e2da73e	0.16958329
8	0x3de9ffbe	0.11425732
9	0xbd664a85	-0.05622341

weight f4 [1, 10]
0	0x3f0919e7	0.5355515
1	0xbf003bec	-0.50091434
2	0x3eef2108	0.46704888
3	0x3f237dc1	0.6386376
4	0xbf18a901	-0.5963288
5	0xbf29d8b7	-0.66346306
6	0x3f027f47	0.5097546
7	0xbf488505	-0.7832797
8	0xbf38da03	-0.7220766
9	0x3f3fe28c	0.7495506
