logs/adult/sex-opportunity-alpha-model/learning_rate_0.001-num_iters_3000-n_h_10-n_h_adv_10-dropout_rate_0.5-alpha_900-model.pth (torch_old, 13680 bytes, 3 tensors)

weight f4 [10, 117]
00000000: cc40 a4be fab0 75be 5852 bbbd a001 30be
00000010: 8728 753f 596c 853f 7dcc 713e ec57 843b
00000020: 1ba7 d0bd 0b01 d1bd c7be 62be 6c66 32be
00000030: 719b 24be 9ee6 dfbd 9f5f 11bc 0d95 b33d
00000040: 0812 a9bd fa52 7e3a ac40 853f ddac 78bc
00000050: 75b5 2fbe 08d5 e7bd 6a88 17bd 3ccc ce3f
00000060: fa51 1b3f 3889 963e c96a 483e f6d2 293f
00000070: 2df7 b83e 1fc1 c83e 54b6 ea3e 71cf 15bd
00000080: 0683 6bbd 16c4 41be e99d 89be 666d 3e3c
00000090: e189 f5bd 5d4d a13f 4809 6abe cb77 6bbb
000000a0: 651b ba3e c8a9 ba3b 44a8 43be c499 c53e
000000b0: 5a6b 203f abf9 0a3f 3cc9 ae3e 14c2 2f3e
000000c0: 4fa1 7c3e 696f 0c3e 950e 73bd 3cc0 42be
000000d0: 73c6 4a3e d6f8 e53e b4a6 2c3e b8e9 f63e
000000e0: 952c 123f 25bd ccbd 75aa 4ebe fa41 a6bd
000000f0: de8f 91bd eb8d 89bd 4e29 1dbe 5a6e d33e
00000100: 6e0c b53e cc0f 753f 0803 c33e 88bd b03a
00000110: 6d03 9f3d 0f46 4abd 2f51 8c3e 3437 123e
00000120: fb52 59bd e5c7 dabd c036 11be 70d3 99bd
00000130: 7b7a 863d dde9 c6bc 2b52 11bc b970 dc3f
00000140: c509 8bbd 7dc2 1d3e 13f3 f7bc 10a5 e53d
00000150: a384 0cbd 2ca0 72bd 5174 163d 10d7 97be
00000160: 34e8 b33e 0fbb 7c3e 0486 44bc 5128 b4bd
00000170: 35c2 34bd 86da 8dbe 63a8 c2bd 7cbd e3bd
00000180: 260f fd3d 0640 423d 9d3e 1cbd 95ae a1bc
00000190: eb27 953e 043f b93e f5de c13f 22f3 7c3d
000001a0: c4b5 6b3d ea05 da3d 9e6f 4e3e 91b6 2b3e
000001b0: ca86 a93d 8658 2f3e 97ac 2dbd 4b2f ce3d
000001c0: da67 b1bd 67af 27be a8a3 033e 7436 8bbd
000001d0: 2824 333c 5212 cdbe dfc2 8dbe 4536 fbbd
000001e0: 8644 92be 211c 713f 1aeb 813f b8ba bf3e
000001f0: acb5 313e 7514 65bd 3988 b0bd 863a 28be
00000200: 1dc7 42be 6eb4 edbd 8dab 863d 3fc8 1a3d
00000210: 875e b33d c69e d3bd b7af cb3c 747c 813f
00000220: e4d4 86bd 0b0d 15be 1bda d8bd cfcd 793c
00000230: 5240 c63f 422d fa3e d309 083f 1a2b bf3d
00000240: d111 443f 8880 013f fc90 1a3f f859 f63e
00000250: 6d05 e9bc b4ec 1abc d7c2 04be 3ef3 34be
00000260: 036a ba3d 476b 28be 0ddd a43f 9c89 4dbe
00000270: edd9 a3bc f61e e53e cbb1 0d3e b9c9 47be
00000280: 4405 9b3e 998b 423f 68c2 e53e 1d8b 863e
00000290: d743 133e edb6 823e 0df7 5a3e b6d6 80bd
000002a0: c3cf 26be 5359 833e f358 de3e c0b0 ba3e
000002b0: f899 033f 64de 083f 1156 c5bd d794 13be
000002c0: e18a c7bd 2d4c 06be 0391 de3d 3552 86be
000002d0: e779 c53e 4050 ac3e 84fd 6d3f e06f c43e
000002e0: e955 33be 0f5c 463e dc18 44bd 6b05 893e
000002f0: 64e2 d03d f19d 24bd ccce 06be ac2c a73c
00000300: db1b b33c f10c d6bd ee30 b43d aa57 343d
00000310: b45a ef3f 1cab 39be 7040 883e 1ca9 aa3c
00000320: 648a 253e 1b5e 6abb 5f9a 2c3e 2b58 133d
00000330: 4b17 9fbd 4428 163e 175f 953e fda7 e33d
00000340: a629 aa3d 07ad 5abd 412f 69bd ad7a 9cbd
00000350: d82f bdbd 4953 823c 5aeb 6f3d b378 0f3e
00000360: 3464 183e 5f27 ad3e fae0 b53e b126 d03f
00000370: 3494 bf3c 6803 533d 1249 d93d 9b5f 4a3e
00000380: 0299 583e cf5c 023d fea0 a53d 95b3 1d3d
00000390: 4d93 493e 27fd 323e 4d4a f8bc 4ca3 4e3e
000003a0: e86d c5bd 72af 6c3d 0b0b 4fbd 82fa 483c
000003b0: 6dfe 3a3c af99 5c3d f09f 87be 314f 09bf
000003c0: eec0 18be 3ac3 94bd 5125 77bd a099 9fbd
000003d0: f75b aabd 0144 85bd 6486 77bd 7bab 12be
000003e0: 220b 68be 2246 85bd 7f7a 96bd 9b40 7abd
000003f0: abc4 04bf 251a 29be 72ef 6cbd 254a 0dbe
-0.32080686 -0.23993292 -0.09146565 -0.1718812 0.95764965 1.042369 0.23613162 0.0040388014
-0.10188123 -0.10205277 -0.22143088 -0.17421883 -0.16074921 -0.109326586 -0.0088728955 0.087686636
-0.08255392 0.00097016955 1.0410361 -0.015177933 -0.17159064 -0.11319929 -0.03699533 1.6156077
0.6067196 0.29401565 0.19571985 0.66337526 0.3612608 0.3920984 0.4584223 -0.036574785
-0.057498 -0.18922457 -0.26878288 0.011622762 -0.11989189 1.2601734 -0.22855103 -0.0035929556
0.36349025 0.005696509 -0.19107157 0.38593876 0.62663805 0.54287213 0.34137905 0.17163879
0.2467091 0.13714375 -0.05934008 -0.19018644 0.19802265 0.4491641 0.16860467 0.48225188
0.57099277 -0.09997014 -0.20182212 -0.08118053 -0.071075186 -0.06716522 -0.15347788 0.4129513
0.35361046 0.9572723 0.3808825 0.0013484219 0.07764325 -0.04938322 0.27405688 0.14278871
-0.053057652 -0.10682658 -0.14181042 -0.07511032 0.0656633 -0.024281437 -0.008869688 1.72219
-0.06788973 0.15406223 -0.030267274 0.11213124 -0.03430618 -0.059234783 0.03673202 -0.29656267
0.35138094 0.24680732 -0.011994842 -0.08796752 -0.044130523 -0.27705783 -0.095047735 -0.11120126
0.12356405 0.04742434 -0.03814565 -0.019736568 0.29132017 0.3618089 1.5146166 0.061755307
0.057546392 0.10645659 0.20159766 0.16768862 0.08277662 0.17123613 -0.042400923 0.10067614
-0.08662386 -0.16375504 0.12855399 -0.067974955 0.010933913 -0.4005304 -0.27687737 -0.122662105
-0.28567904 0.94183546 1.0149872 0.37447143 0.17354459 -0.055927712 -0.086197324 -0.16428575
-0.19021268 -0.1160668 0.065756895 0.037788626 0.08758264 -0.10333018 0.02486406 1.0116105
-0.065835744 -0.14555757 -0.10588475 0.0152468225 1.5488379 0.48862654 0.5313999 0.09334393
0.76589686 0.5058675 0.6037748 0.48115516 -0.02844497 -0.0094558485 -0.1296495 -0.17670915
0.091022514 -0.16447173 1.2879959 -0.20072025 -0.020001376 0.44750184 0.13837354 -0.19510545
0.30277455 0.7599426 0.44874883 0.2627801 0.14381348 0.25530186 0.21383305 -0.06290953
-0.16290192 0.25654086 0.43427238 0.36462975 0.5140681 0.5346434 -0.096355565 -0.14412247
-0.09743286 -0.13114996 0.108675025 -0.26234594 0.38569567 0.33654976 0.9296496 0.38366604
-0.17513241 0.19371055 -0.04787527 0.26761946 0.101994306 -0.040189687 -0.13164824 0.020407043
0.021863868 -0.10451687 0.08798395 0.044028915 1.8699555 -0.1813168 0.26611662 0.02083259
0.16166073 -0.0035761658 0.16855763 0.035972755 -0.07768115 0.14663798 0.2917411 0.111160256
0.08308725 -0.053387668 -0.05692983 -0.07640586 -0.09237641 0.015908854 0.058574058 0.14010887
0.14881974 0.338191 0.35523206 1.6261808 0.023386098 0.05151692 0.1060964 0.19763033
0.21152118 0.03182679 0.080873474 0.03850134 0.19685097 0.17479382 -0.030308867 0.2017948
-0.096401036 0.057784505 -0.05054764 0.012266757 0.011413199 0.0538575 -0.2648921 -0.5363646
-0.14917347 -0.07263799 -0.060338322 -0.077929735 -0.08318322 -0.06507111 -0.0604309 -0.14323227
-0.22660497 -0.065075174 -0.07347583 -0.06109677 -0.5186259 -0.1651388 -0.05784554 -0.13797815

bias f4 [10]
00000000: c9f4 dfbc 7ca7 28bd b242 52bd 0925 8fbd
00000010: 29c8 21bd 873e d4bd aea4 b4bd 129d 043e
00000020: 6a87 bb3c e7b0 50bd
-0.027338402 -0.04117535 -0.051333137 -0.06989486 -0.03949753 -0.10363489 -0.08820473 0.12950543
0.022891719 -0.050949957

weight f4 [1, 10]
00000000: aec5 afbe 7a90 aebe 32ce 523e 1302 80be
00000010: fdda c6bd 46b2 c63e bf89 a73e a554 b63e
00000020: 33d1 9cbe 77ac 7ebe
-0.34330505 -0.34094602 0.2058647 -0.25001583 -0.097097374 0.38807887 0.3272228 0.35611454
-0.30628356 -0.24870478
