logs/adult/sex-odds-alpha-adv/learning_rate_0.001-num_iters_2500-n_h_10-n_h_adv_10-dropout_rate_0.5-alpha_7.5-adv.pth (torch_old, 9079 bytes, 3 tensors)

weight f4 [10, 2]
00000000: 56f8 c73e b06d 2cbf 188d 90bd 9bdf 293f
00000010: 6029 a33c 9c4f 5d3e 6045 ac3d 88f8 e2be
00000020: ae13 d93e f482 4d3e b49a f2be ee46 d83e
00000030: 80e6 413c 2047 203e c84c 533e ee39 a83e
00000040: 3af2 fd3e 425e 61be 73b4 303f de2e b03e
0.39056653 -0.6735487 -0.070581615 0.6635682 0.01991719 0.216124 0.0841167 -0.4433024
0.42397827 0.20069486 -0.47383654 0.42241615 0.011834741 0.15652132 0.20634758 0.32856697
0.49598867 -0.22008613 0.69025344 0.34410757

bias f4 [10]
00000000: 20b7 1abe 1933 0b3f 9966 1c3f 7489 89be
00000010: 5ce5 33be a3cb 343f fcde 4abe f6da 983e
00000020: d482 50be 2346 003f
-0.15108919 0.54374844 0.6109405 -0.2686268 -0.17567962 0.70623225 -0.19811624 0.29854554
-0.20362407 0.5010702

weight f4 [1, 10]
00000000: 7e86 723e c4a3 b33d 0c7b 383e 80c3 1bbd
00000010: 5420 70be 00a0 3bba 06e5 1d3e 80b4 7a3c
00000020: 7344 81be 19d3 803e
0.23684117 0.0877147 0.18015689 -0.03802824 -0.23449832 -0.0007157326 0.15419397 0.015301824
-0.25247535 0.25161055
