logs/adult/sex-parity-alpha-model/learning_rate_0.001-num_iters_2500-n_h_10-n_h_adv_10-dropout_rate_0.5-alpha_0.5-model.pth (torch_old, 13680 bytes, 3 tensors)

weight f4 [10, 117]
00000000: f4a0 e9bd 00bd ebbe 16d2 f5bc c0e3 92be
00000010: 6889 263f 89ef e43e 98df 953d 3423 bcbd
00000020: fd97 93be 21f9 6abe a10e 8ebe 7020 bfbe
00000030: bd2d c1be 17a3 81be ff70 63be 7936 2c3e
00000040: 6cf5 d3bc 3706 223d ebd5 673f 5c1b 463e
00000050: 78d8 a0be 72a0 0f3d 581c 9d3e 4ab4 8d3f
00000060: 5a58 d53d 0c17 503e 3aae 843d ad24 703e
00000070: 00a6 8c3e 72cd 993e 18f5 8e3e 92ea 303d
00000080: 72f6 4d3e cc53 46bd 8d16 7cbe 2edb 153e
00000090: f063 bbbc 48a4 cc3f c3dd bdbb 981b e23d
000000a0: 76a2 1d3e e6bc 84bf f9be b0be 4726 253e
000000b0: 7fe6 8c3e 719d 7b3e d935 583d 15ef 023d
000000c0: cae9 a93d d70c 1c3f 26d7 df3c d976 8dbe
000000d0: a679 a23e d485 123e 0f00 cb3d 0635 893e
000000e0: 5293 553f 9d04 93be a7f6 533d bf02 eabd
000000f0: 9541 4fbe 22db 553d 2fe4 413d 756c 1c3c
00000100: 544d 333e 6e09 6d3e 9019 133e 93e6 ebbe
00000110: e7c0 e6bc d37e b13c c459 643e 81c7 533c
00000120: a3ac 2a3e eab6 213e 5cc9 67bd e098 c4bd
00000130: b829 40be abb6 5ebd b1c2 3a3f ea4a 573f
00000140: 5537 24bd ea04 383f d8e1 b53d 99b7 f13e
00000150: 80c8 453e ab33 203e fb92 07be 84b9 083f
00000160: 3b4b 643e 9792 143e 317f 1a3f e5af 593f
00000170: 783e af3e d48d 683e c392 1a3e fd37 e23e
00000180: b188 a73d 092d d83d 13a7 c8bd 82da 3d3e
00000190: 0bf6 1a3c 4e26 6b3e 8e1c 953e db7a 793f
000001a0: d4a4 f23e 1634 d83d e86d 03be 8d5f 8dbd
000001b0: 0bb6 033d 632f ed3e 8033 f63e dea3 e93e
000001c0: df65 3a3f 0983 f13e e6cc 4a3c de79 f53e
000001d0: 500b c9be 84ae 43be 3ca0 e0be b789 ffbd
000001e0: bd44 d0bd 610a 123f 5c6d b63e e885 bb3d
000001f0: 5f68 ba3c 5ffc 8fbd e562 2abe 1299 30be
00000200: 1a66 61be c814 8dbe b5a2 80be aaa9 0cbe
00000210: 0386 f6bc 3fb5 1abd 6fc1 4ebd f32f 303f
00000220: a66b c23c c59a 1ebd 3bd6 713e 9082 40bd
00000230: 0869 7a3f 56b7 603e 4fbe 213e 18cd 843e
00000240: 4037 0bbe a03c 6abe 22a4 efbd 6eb7 9f3d
00000250: b0ee 733e 6855 393e 65ce 493d 4f47 e6bd
00000260: 7e67 d93d 0c24 88be b824 a83f bfe6 6abb
00000270: 92fa fd3d b7b2 ed3d c97d 74bf 82e2 aabe
00000280: 94c7 873e 40f8 8d3e 594e ae3e 0c86 233d
00000290: bb17 fd3d c921 ffbc 10b4 503f 32aa 1d3c
000002a0: b64a b3bc cdaf af3e 3335 3c3e 3103 d73c
000002b0: 99b7 5e3e 16fc 443f e195 d0be fed2 ebbd
000002c0: 5295 9cbc a329 0bbe 9167 593c 227c 043e
000002d0: 607d edbb 652e 373d cab9 773e 33cd b8bc
000002e0: f287 a1be 3c87 ca3e b70e cbbb 96cc f03d
000002f0: ef58 b93e ef10 a13d 6f41 4e3e c3a0 98bd
00000300: dddb 7a3e 83a7 363d 00d6 f9bd 7051 e23d
00000310: c68a 183f 25e8 05be 79d4 103f 9a7c 273e
00000320: 5af0 323f 920e 14bd 7723 6a3d f58b 763d
00000330: ca18 423e 8034 1bbe b770 cd3d 3243 1a3f
00000340: b85d 383f 0e02 833e ea1f 6e3e 9793 cdbe
00000350: 95ec 1e3e 7fa3 923d e28e 7b3e 1cf8 d1bd
00000360: d477 1abf f534 f03e 3678 353e 72f4 8f3e
00000370: a5af 663f d89f ce3e 86d9 363d a54c 5b3e
00000380: 7be9 023e a19a 043e 1971 e53e 5fab 893e
00000390: 76d4 b03e 368c 173e d032 0abf 7c8f 943d
000003a0: 04a0 b63e b577 acbe e6db 223e e396 523f
000003b0: 88dd a83d d0a1 233d 8beb d7bf d1b8 80be
000003c0: 204b 05be 424f 72bc 4020 003e 4c9f 443e
000003d0: 1823 603e e0c0 923e 9fa5 ec3d 2b0a 293e
000003e0: bd88 fabd 28bc 02bd fc6e 89bc 83b1 d4bd
000003f0: 5359 24be ce78 6abc 5111 8f3d b9de 73be
-0.114076525 -0.46042633 -0.030007403 -0.28689384 0.65053415 0.44714 0.07318038 -0.09186402
-0.28826895 -0.22946598 -0.27745536 -0.37329435 -0.37730208 -0.2531974 -0.22211073 0.16817655
-0.025873862 0.03955671 0.9056079 0.19346374 -0.31415153 0.035065122 0.30685687 1.1070645
0.10417242 0.20321292 0.064785436 0.2345149 0.27470398 0.30039555 0.27921367 0.043192454
0.20113543 -0.04841976 -0.24617977 0.14634392 -0.022874802 1.5987635 -0.0057942583 0.11040419
0.15394005 -1.0370147 -0.345207 0.16127883 0.27519605 0.24571778 0.052785728 0.031966288
0.08296545 0.6095709 0.02732427 -0.27629736 0.31733435 0.14308864 0.099121206 0.26798266
0.8342792 -0.28714457 0.051748898 -0.11426305 -0.20239861 0.052210934 0.047336753 0.009547343
0.17509967 0.23148128 0.1436522 -0.46074352 -0.028168155 0.02166692 0.22299868 0.012925983
0.16667418 0.15792432 -0.056588516 -0.09599471 -0.18765914 -0.054373425 0.72953326 0.84098685
-0.04009183 0.718825 0.08880967 0.47210386 0.19314766 0.1564471 -0.13239662 0.53408074
0.22294323 0.14509045 0.6035033 0.8503402 0.34227347 0.22710353 0.15095048 0.4418334
0.08180369 0.10555465 -0.09797492 0.18540385 0.009458075 0.22963831 0.29123348 0.9745309
0.4739138 0.105568096 -0.12834895 -0.069029905 0.03215603 0.46325216 0.48086166 0.45632833
0.7281169 0.47170284 0.012377953 0.4794454 -0.39266443 -0.19109541 -0.4387225 -0.12477439
-0.10169361 0.57047087 0.3563031 0.091564 0.022754846 -0.07030558 -0.16639288 -0.17245892
-0.22011605 -0.27554917 -0.25124136 -0.13736597 -0.030093199 -0.037770506 -0.05047744 0.68823165
0.023732971 -0.03872182 0.23616879 -0.046999514 0.97816515 0.21944937 0.15795253 0.25937724
-0.13595295 -0.22874689 -0.11701228 0.07798658 0.23821521 0.18098986 0.0492691 -0.1124407
0.10615443 -0.26590002 1.3136206 -0.0035843102 0.12401308 0.11606353 -0.9550443 -0.33375937
0.26519454 0.27728462 0.3404415 0.03992276 0.12358042 -0.03114404 0.81524754 0.009623097
-0.02188621 0.34313813 0.18379669 0.026246639 0.21749724 0.7694715 -0.4073935 -0.11514853
-0.01911417 -0.13590102 0.013269321 0.12937978 -0.007247612 0.04472198 0.24191967 -0.022558784
-0.3154903 0.395563 -0.0061968225 0.11757772 0.36200663 0.07864558 0.20142148 -0.07452538
0.24497934 0.044593345 -0.121990204 0.11050689 0.5958675 -0.13076837 0.5657421 0.16356125
0.69898 -0.036146708 0.05716273 0.060192067 0.18954769 -0.15156746 0.10031264 0.6025878
0.72018003 0.25587505 0.23254362 -0.40151665 0.15519936 0.07160091 0.24566224 -0.10252401
-0.60339093 0.46915403 0.17721638 0.28116184 0.9011176 0.40356326 0.04464104 0.21415956
0.12784378 0.12949611 0.4481285 0.26888558 0.34537095 0.1479958 -0.53983784 0.0725393
0.35668957 -0.3368508 0.15904197 0.82261485 0.08245379 0.03994924 -1.6868757 -0.25141004
-0.13016939 -0.014789404 0.12512302 0.19201392 0.21888387 0.28662777 0.11555027 0.16507785
-0.12233112 -0.03191772 -0.016776554 -0.1038542 -0.160497 -0.014311029 0.06985725 -0.2381543

bias f4 [10]
00000000: 0525 033e 4f60 b53d 0298 eebd bf04 0abe
00000010: 8c57 a93d af6e 1c3e f1ba 013e 4d7e ac3d
00000020: 939c 843e e66f 263c
0.1280709 0.0885626 -0.11650087 -0.13478373 0.08268651 0.15276597 0.12668969 0.084225275
0.25900707 0.010158515

weight f4 [1, 10]
00000000: d0a2 23bf bd38 3bbf 491c 5b3f 0eb8 3f3f
00000010: 7d84 4cbf 46ba 29bf 52f1 39bf 298a 30bf
00000020: a293 e9be c256 293f
-0.6392031 -0.7313345 0.85590035 0.7489022 -0.7988966 -0.66299856 -0.7263385 -0.68960816
-0.45620447 0.66148007
