logs/adult/sex-parity-alpha-model/learning_rate_0.001-num_iters_3000-n_h_10-n_h_adv_10-dropout_rate_0.5-alpha_100-model.pth (torch_old, 13680 bytes, 3 tensors)

weight f4 [10, 117]
-0.19524023 -0.68281054 -0.05617812 -0.36012936 0.45554695 0.6114189 0.22527853 -0.009645591
-0.15551482 -0.16755024 -0.32011992 -0.30382666 -0.3169754 -0.35741386 -0.117197074 0.12332405
-0.0067960457 0.20943895 0.05695477 0.08531101 -0.21684787 -0.01122535 0.13168497 0.4530101
0.025674324 0.21054348 0.08645108 0.2593807 -0.030809294 0.20162903 0.14518832 0.17275767
-0.11186709 0.041245095 -0.16066855 0.019530801 0.086931445 0.45036107 0.081617035 -0.106909364
0.42349863 -0.7343654 -0.111377515 0.1266541 0.36752927 0.3965658 -0.23650405 0.12213227
-0.02843855 0.53401685 0.04220446 -0.33318093 0.35856038 0.32835612 0.21060006 0.29980487
-0.024832068 -0.3560388 -0.27042785 -0.20246565 -0.30073166 0.1694892 -0.044137705 0.2664441
0.30614853 0.5478497 0.04377261 -0.62459344 0.313156 -0.05451764 0.07549842 0.108237505
-0.088357635 -0.3514689 0.4714987 0.07634312 -0.5445719 -0.014728029 0.45445815 0.88335806
-0.08358776 0.6680511 0.13533078 0.39897463 -0.06072647 -0.05130766 0.04809658 0.48885047
0.14006065 0.4663995 0.17214537 0.1426821 0.38737148 -0.08345448 0.2280186 0.044873074
-0.09272373 -0.14043051 -0.011312012 0.1675078 0.32154402 0.32533544 0.33671957 0.2689898
0.050835706 0.0094302185 0.42327654 0.19341679 0.35186878 0.37020954 0.2282282 0.064736605
-0.17960754 -0.06501634 0.404338 -0.06463317 -0.060965605 -0.43413675 -0.9264068 -0.023709128
-0.24221003 0.53260785 0.72193676 0.29570195 0.15952455 0.029356528 -0.051981993 -0.1379412
-0.21912207 -0.16918927 -0.18252428 -0.073421136 0.09618786 -0.30850172 0.06000372 0.24337658
0.012164381 -0.029519763 0.011134287 0.057186827 0.43628624 -0.038534824 0.23834696 0.14724438
-0.01199424 -0.30741525 -0.037083752 -0.0104030045 0.24985012 0.2039933 -0.17157133 -0.38842395
0.17673355 -0.3185837 0.27961037 -0.3603703 0.14903875 0.30217957 -0.33292308 -0.33254355
0.19736026 0.37147424 0.38150018 0.21258745 0.07047945 0.16860019 0.594184 0.021624887
-0.1179392 0.5538831 0.22279686 0.20817348 0.35570025 0.30033225 -0.19892463 -0.18323997
0.08010408 -0.13112125 0.086015396 -0.010906164 0.31350476 0.2939974 0.6108533 0.26497835
-0.41605902 0.2920734 -0.09165681 0.1547058 0.03409885 0.038010284 -0.10395359 0.16225705
-0.12525512 -0.46328506 -0.25602016 -0.03777692 0.51792526 -0.27992332 0.40433183 -0.35217184
0.3275774 -0.11375781 0.015255131 0.0024467767 0.077369764 -0.010174922 0.32381573 0.16500597
0.4250964 0.23901601 -0.02626531 0.2249142 -0.3450174 -0.18420081 -0.33498418 -0.03777876
0.0062302165 0.28318638 0.19018945 0.3295743 0.10619963 0.03455349 0.048848853 0.23458461
0.24838021 0.17874688 -0.09500658 0.058696516 0.25523138 -0.15262063 -0.026191693 0.37871507
0.044105854 0.06328403 -0.1543576 -0.5818259 -0.08765266 -0.10757227 0.43736765 0.56995666
0.20385428 0.01341199 -0.09149178 -0.13725784 -0.26205882 -0.28912574 -0.22345848 -0.16573474
0.07562106 0.1163 -0.12482089 0.026020901 0.117756814 0.14205751 0.08008802 0.3220181
00000000: 0eed 47be accc 2ebf 071b 66bd e062 b8be
00000010: 733d e93e f385 1c3f 6aaf 663e 8a08 1ebc
00000020: 473f 1fbe 4a92 2bbe c2e6 a3be 2b8f 9bbe
00000030: 9a4a a2be f3fe b6be 0505 f0bd 5291 fc3d
00000040: 5db1 debb 2a77 563e 6849 693d 8ab7 ae3d
00000050: 5e0d 5ebe 88ea 37bc 6dd8 063e f1f0 e73e
00000060: f652 d23c b698 573e 440d b13d 8ccd 843e
00000070: c663 fcbc d777 4e3e 3fac 143e 63e7 303e
00000080: 931a e5bd 9ef0 283d 4c86 24be 0fff 9f3c
00000090: 1d09 b23d ba95 e63e d526 a73d 4cf3 dabd
000000a0: d0d4 d83e 5fff 3bbf e519 e4bd 9db1 013e
000000b0: cc2c bc3e ac0a cb3e 1e2e 72be 7c20 fa3d
000000c0: f6f7 e8bc 54b5 083f 95de 2c3d b196 aabe
000000d0: 3a95 b73e 4b1e a83e 8ba7 573e 0680 993e
000000e0: 9f6c cbbc b84a b6be 8575 8abe 2853 4fbe
000000f0: 80f9 99be 948e 2d3e bdc9 34bd 5c6b 883e
00000100: 80bf 9c3e e13f 0c3f e94a 333d 5be5 1fbf
00000110: fc55 a03e e44d 5fbd ea9e 9a3d a0ab dd3d
00000120: d9f4 b4bd bbf3 b3be 4768 f13e c859 9c3d
00000130: 1069 0bbf d54d 71bc bdae e83e c123 623f
00000140: 0f30 abbd 6605 2b3f 2794 0a3e 6746 cc3e
00000150: 52bc 78bd fb27 52bd eb00 453d 9c4a fa3e
00000160: 0f6c 0f3e eacb ee3e e046 303e 421b 123e
00000170: 8e55 c63e 2fea aabd b57d 693e d4cc 373d
00000180: f0e5 bdbd 04cd 0fbe 0456 39bc 2a87 2b3e
00000190: 6ba1 a43e 5e92 a63e 8266 ac3e 08b9 893e
000001a0: 1a39 503d 3481 1a3c b4b7 d83e 0d0f 463e
000001b0: 2528 b43e 1b8c bd3e a7b4 693e a094 843d
000001c0: 0aeb 37be 4927 85bd 6405 cf3e 655e 84bd
000001d0: 12b7 79bd 2c47 debe ff28 6dbf a539 c2bc
000001e0: e805 78be fd58 083f d9d0 383f 3f66 973e
000001f0: 675a 233e 1a7d f03c 12eb 54bd 7540 0dbe
00000200: 8961 60be f43f 2dbe a5e7 3abe d25d 96bd
00000210: 24fe c43d f0f3 9dbe 76c6 753d b637 793e
00000220: 1d4d 473c 6ed3 f1bc 966c 363c bc3c 6a3d
00000230: e960 df3e b1d6 1dbd 3a11 743e 3bc7 163e
00000240: 7d83 44bc 8865 9dbe 22e5 17bd 5d71 2abc
00000250: b6d8 7f3e 9fe3 503e 65b0 2fbe 81df c6be
00000260: a4f9 343e 671d a3be 1729 8f3e 7582 b8be
00000270: 9d9d 183e 48b7 9a3e e574 aabe 2643 aabe
00000280: cf18 4a3e df31 be3e fe53 c33e 86b0 593e
00000290: 8857 903d 87a5 2c3e 711c 183f ad26 b13c
000002a0: 1b8a f1bd 48cb 0d3f dc24 643e 6e2b 553e
000002b0: 581e b63e 26c5 993e e6b2 4bbe 42a3 3bbe
000002c0: 9c0d a43d a644 06be d728 b03d c4af 32bc
000002d0: b283 a03e d486 963e e260 1c3f 3eab 873e
000002e0: b005 d5be a58a 953e 91b6 bbbd 326b 1e3e
000002f0: 3cab 0b3d acb0 1b3d 9fe5 d4bd b626 263e
00000300: e142 00be b333 edbe 1315 83be f9bb 1abd
00000310: c096 043f 1c52 8fbe 9504 cf3e de4f b4be
00000320: 3ab8 a73e dbf9 e8bd a8f0 793c 1a5a 203b
00000330: 0a74 9e3d b7b4 26bc 2dcb a53e 53f7 283e
00000340: 3ca6 d93e 9dc0 743e 592a d7bc e84f 663e
00000350: 1fa6 b0be 239f 3cbe 0c83 abbe e7bd 1abd
00000360: d826 cc3b cefd 903e 06c1 423e f6bd a83e
00000370: 317f d93d f687 0d3d bc15 483d f336 703e
00000380: 6257 7e3e 6c09 373e cf92 c2bd c26b 703d
00000390: b0ad 823e 9548 1cbe f68f d6bc f1e6 c13e
000003a0: 57a8 343d 0f9b 813d eb0f 1ebe 8bf2 14bf
000003b0: 3d83 b3bd da4e dcbd a7ee df3e aee8 113f
000003c0: 2dbf 503e f7bd 5b3c 0b60 bbbd 528d 0cbe
000003d0: 932c 86be 4a08 94be 4dd2 64be 5eb6 29be
000003e0: 37df 9a3d b22e ee3d 18a2 ffbd c929 d53c
000003f0: 7c2a f13d 8677 113e 3005 a43d 8edf a43e

bias f4 [10]
0.039336454 0.07988223 0.19359645 0.052045427 0.13258393 0.04488713 -0.007233163 -0.017264705
0.20546238 -0.0029264637
00000000: 431f 213d 4b99 a33d 263e 463e 962d 553d
00000010: 15c4 073e 91db 373d 2b04 edbb b66e 8dbc
00000020: bb64 523e eac9 3fbb

weight f4 [1, 10]
-0.5085099 -0.43860325 -0.45903152 -0.44263235 -0.4311733 -0.572608 0.4061755 0.4067043
-0.3092826 0.51046467
00000000: b42d 02bf 9b90 e0be 2e06 ebbe b5a0 e2be
00000010: bfc2 dcbe 7096 12bf 3cf6 cf3e 8c3b d03e
00000020: 4a5a 9ebe d0ad 023f
