logs/adult/small-test-adv/learning_rate_0.001-num_iters_2000-n_h_10-n_h_adv_10-dropout_rate_0.5-alpha_10-adv.pth (torch_old, 9039 bytes, 3 tensors)

weight f4 [10, 2]
0	0xbf2ec115	-0.6826337
1	0xbf18c54a	-0.5967604
2	0x3ecf958e	0.4054379
3	0xbe7a819c	-0.24463505
4	0x3d2569a0	0.040383935
5	0x3f070b11	0.5275126
6	0x3ec2d946	0.3805639
7	0x3e954602	0.29154974
8	0x3e11e4d8	0.14247453
9	0x3e5b2fb4	0.21404916
10	0x3ec1db2a	0.3786252
11	0x3f003421	0.5007954
12	0x3ebcabce	0.36849827
13	0x3ef6fc22	0.48239237
14	0x3eb078c2	0.3446713
15	0x3de49170	0.111605525
16	0x3e3a5828	0.18197691
17	0x3f1c2a9f	0.61002535
18	0xbe62b85c	-0.2214064
19	0xbe27083c	-0.16311735

bias f4 [10]
0	0xbeee1734	-0.46502078
1	0xbede4cfe	-0.43418115
2	0xbd13b940	-0.03606534
3	0xbeda4424	-0.42630112
4	0x3e082288	0.13294423
5	0x3f1136c7	0.5672421
6	0x3f2c740f	0.6736459
7	0xbf244282	-0.6416398
8	0x3f11f49d	0.57013875
9	0x3e781aa8	0.24228919

weight f4 [1, 10]
0	0x3d014148	0.031556398
1	0x3e70a752	0.23501328
2	0xbdb7b504	-0.08970073
3	0xbdd38d5e	-0.10329698
4	0x3de78530	0.113047004
5	0x3db672a0	0.08908582
6	0xbe655bdc	-0.22398323
7	0xbe206734	-0.15664369
8	0xbe8af15c	-0.27137268
9	0x3d057440	0.032581568
