logs/adult/small-test-adv/learning_rate_0.001-num_iters_3000-n_h_10-n_h_adv_10-dropout_rate_0.5-alpha_1-adv.pth (torch_old, 9215 bytes, 4 tensors)

weight f4 [10, 2]
0.9901071 0.6574014 1.1245352 0.97580665 0.8987684 1.1808891 0.3350632 0.79614
0.20275259 0.5448676 0.89061165 0.6853927 -0.5572952 0.40624565 -0.38978332 0.59683937
0.28252664 0.9201665 0.7810869 0.5848966
00000000: a977 7d3f 754b 283f c5f0 8f3f 77ce 793f
00000010: b015 663f 6027 973f 678d ab3e d5cf 4b3f
00000020: 609e 4f3e 717c 0b3f 20ff 633f e575 2f3f
00000030: e6aa 0ebf 6eff cf3e ae91 c7be 77ca 183f
00000040: 55a7 903e 0890 6b3f 50f5 473f c9bb 153f

bias f4 [10]
1.0306017 1.3751143 1.6369324 1.2558973 1.3263441 1.2299242 -0.6958681 -0.693923
1.1607673 1.4354085
00000000: c2ea 833f bf03 b03f 0087 d13f 3ec1 a03f
00000010: a5c5 a93f 286e 9d3f 6924 32bf f0a4 31bf
00000020: 0694 943f 77bb b73f

weight f4 [5, 10]
0.8536266 0.6207352 0.5809667 0.96885157 0.61154187 0.7525848 -0.02545634 0.054943115
1.1728283 0.7621552 -0.51072 -0.68673843 -0.36280367 -1.0167799 -0.52802974 -0.609622
0.20728317 -0.20424594 -1.0443649 -0.54831654 -0.8594198 -0.6161218 -0.48899361 -0.947191
-0.6570642 -0.6878516 -0.011367917 0.0853242 -1.2961875 -0.4170783 -0.5928994 -0.5220783
-0.7676914 -0.83333623 -0.7357789 -0.71963894 0.08987528 0.118086874 -1.1084542 -0.45994478
-0.6193054 -0.8172291 -0.64076275 -1.0196549 -0.58174694 -0.81495017 0.25016478 0.10927883
-1.3800712 -0.6925017
00000000: 4687 5a3f 81e8 1e3f 3cba 143f a806 783f
00000010: 028e 1c3f 66a9 403f d089 d0bc 080c 613d
00000020: 3d1f 963f 9a1c 433f 8cbe 02bf 17ce 2fbf
00000030: 67c1 b9be d825 82bf f52c 07bf 3010 1cbf
00000040: 0a42 543e d925 51be c0ad 85bf 795e 0cbf
00000050: f002 5cbf 29ba 1dbf 5f5d fabe 1c7b 72bf
00000060: 5c35 28bf 0b17 30bf 8040 3abc 74be ae3d
00000070: 79e9 a5bf 498b d5be 41c8 17bf eca6 05bf
00000080: 6c87 44bf 8655 55bf 025c 3cbf 423a 38bf
00000090: 8810 b83d 88d7 f13d d4e1 8dbf e27d ebbe
000000a0: cc8a 1ebf ed35 51bf 0709 24bf 0d84 82bf
000000b0: 5eed 14bf 93a0 50bf 9915 803e 94cd df3d
000000c0: 2ca6 b0bf cb47 31bf

bias f4 [5]
0.4945511 -0.7600477 -0.70712954 -0.95397913 -0.6620006
00000000: cd35 fd3e 7c92 42bf 7106 35bf fa37 74bf
00000010: df78 29bf
