logs/adult/sex-parity-model/learning_rate_0.1-num_iters_2000-n_h_100-n_h_adv_10-dropout_rate_0.2-alpha_1-model.pth (torch_old, 56520 bytes, 3 tensors)

weight f4 [100, 117]
0	0xbf1fadec	-0.6237476
1	0xbf3b5072	-0.73169625
2	0xbf3301a1	-0.6992436
3	0xbebefa46	-0.37300318
4	0xbe137e9d	-0.14403768
5	0x3d9ac208	0.0755654
6	0xbe43a2e4	-0.19105107
7	0xbef37991	-0.47553685
8	0xbeeefc88	-0.4667704
9	0xbee8ba96	-0.45454854
10	0xbf272d9b	-0.65303963
11	0xbedf91c6	-0.43665904
12	0xbec26f00	-0.3797531
13	0xbecaf84d	-0.39642563
14	0xbeaa7e5d	-0.33299533
15	0xbebcf540	-0.3690586
16	0xbec7480d	-0.38922158
17	0xbea4a03b	-0.32153496
18	0xbda70456	-0.08155124
19	0xbec13cda	-0.3774174
20	0xbf3c5b75	-0.7357705
21	0xbee84272	-0.45363194
22	0xbf040d86	-0.51583135
23	0x3eb064a3	0.3445178
24	0xbf079f89	-0.52977806
25	0xbec985ad	-0.393598
26	0xbe9ef6e5	-0.3104774
27	0xbef92068	-0.48657537
28	0xbedf0d72	-0.43564945
29	0xbf174fda	-0.5910622
30	0xbecedc21	-0.4040232
31	0xbece6ad9	-0.40315893
32	0xbe9d2f0c	-0.30699956
33	0xbeda758d	-0.4266781
34	0xbf3d0681	-0.7383805
35	0xbef82a42	-0.4846974
36	0xbf31e584	-0.6949084
37	0xbe9958d9	-0.29950598
38	0xbf2eb0e6	-0.68238676
39	0xbeedb2e3	-0.46425542
40	0xbebb56da	-0.365897
41	0xbf11b6ff	-0.56919855
42	0xbf28f4d4	-0.6599858
43	0xbdda9026	-0.106720254
44	0xbddc46ad	-0.10755668
45	0xbe3505bd	-0.1767797
46	0xbe8f490c	-0.27985418
47	0xbef09d3c	-0.4699496
48	0xbe6dffa4	-0.2324205
49	0x3ef7c98d	0.4839596
50	0xbed91b74	-0.42403758
51	0xbf1b6bbc	-0.60711265
52	0xbec3fc17	-0.38278267
53	0xbeaa502f	-0.332643
54	0xbee748f5	-0.4517285
55	0xbd3d3b73	-0.046199273
56	0x3e036120	0.12830019
57	0xbf04d9c0	-0.5189476
58	0xbed50513	-0.41605434
59	0xbeb77683	-0.35832605
60	0xbecf72a8	-0.40517163
61	0xbef215b5	-0.47282186
62	0xbf2e43ba	-0.6807209
63	0xbe46c299	-0.1941017
64	0xbcde2d9e	-0.027121361
65	0x3dd8d8fd	0.10588262
66	0xbd5e6210	-0.05429274
67	0xbf2a4c78	-0.6652293
68	0xbede80af	-0.43457553
69	0xbeff56ea	-0.49870998
70	0xbe7c1c76	-0.24620232
71	0xbea4e66e	-0.32207054
72	0xbefa49a1	-0.488843
73	0xbeb32c44	-0.3499471
74	0xbecf0c35	-0.40439
75	0xbed137f2	-0.40862995
76	0xbeeaf1a4	-0.45887482
77	0xbf0cf4b3	-0.5506088
78	0xbf157b8c	-0.5839164
79	0x3e09fec9	0.13476099
80	0xbeee25bb	-0.4651316
81	0x3e0d2453	0.13783388
82	0xbef0300f	-0.46911666
83	0xbed3edcd	-0.41392365
84	0xbed718ef	-0.4201121
85	0xbf204bea	-0.62615836
86	0xbf0294c6	-0.5100826
87	0xbeaea6bb	-0.3411158
88	0xbe9df79b	-0.3085297
89	0xbec6f0eb	-0.3885568
90	0x3e3682e3	0.17823367
91	0xbbf663b0	-0.007519208
92	0xbee68b5f	-0.45028207
93	0xbf0930cf	-0.535901
94	0xbed56973	-0.41682014
95	0xbea46bc1	-0.3211346
96	0xbe912f1b	-0.2835625
97	0xbef202ab	-0.4726766
98	0xbe82a31f	-0.25515077
99	0xbf14480f	-0.5792245
100	0xbefda258	-0.4953792
101	0xbe96348c	-0.29336965
102	0xbd8f9d41	-0.07012416
103	0x3ef2291a	0.47296983
104	0xbe5567dd	-0.20840402
105	0xbefb0b38	-0.49031997
106	0xbf01ca9b	-0.50699776
107	0xbe11677e	-0.14199635
108	0xbe881994	-0.26582015
109	0xbea5c6f2	-0.32378346
110	0xbee1f18c	-0.44129598
111	0xbf03f9c6	-0.51553
112	0xbf08b095	-0.5339444
113	0xbeb580ad	-0.35449734
114	0xbed7b783	-0.42132196
115	0xbed3f43d	-0.41397277
116	0xbefe179d	-0.4962739
117	0x3e1ad28a	0.15119377
118	0xc089427b	-4.2893653
119	0xbf49e162	-0.7885953
120	0xbf3554f9	-0.70832783
121	0x3b3af71a	0.0028528632
122	0x40a70c81	5.2202764
123	0xc087fcc5	-4.2496057
124	0xbeb23e88	-0.34813333
125	0xc0899e2d	-4.3005586
126	0xbf505601	-0.8138123
127	0x3fc018a1	1.5007516
128	0xc02ed76e	-2.7318988
129	0xc063dc81	-3.5603335
130	0x401fcb55	2.4967854
131	0xc007f086	-2.1240554
132	0xc0596d30	-3.3972893
133	0x3fbd5470	1.4791393
134	0xbf4e8876	-0.8067697
135	0x3eea98b1	0.4581962
136	0xbf1cbd3c	-0.6122625
137	0xc0088ede	-2.13372
138	0xc09e636f	-4.949638
139	0xc0729f13	-3.7909591
140	0x3f02faf1	0.51164156
141	0xc0d0fc11	-6.53077
142	0xc11793c9	-9.47358
143	0xc089a4bf	-4.3013606
144	0xc0a4db7c	-5.1517925
145	0xc0dcdab2	-6.901696
146	0x3fd1c818	1.6389189
147	0xc0a9079c	-5.282179
148	0xc0296355	-2.6466877
149	0xc0568a6f	-3.3521993
150	0xc00c04eb	-2.1878002
151	0x40cab33c	6.334379
152	0xbee9bfb6	-0.45654076
153	0xbf6780c1	-0.9043084
154	0xbeebe2b7	-0.46071407
155	0xbfb1b98f	-1.3884753
156	0xbf64cbdc	-0.89373565
157	0xbfd4f41e	-1.6636999
158	0xbeffe96f	-0.49982783
159	0xbf84c9ea	-1.0374119
160	0xc0d23ebf	-6.5701594
161	0xbf8c83e4	-1.097775
162	0xc0a38dc3	-5.111055
163	0x400643ea	2.0978951
164	0xc05ad9d4	-3.4195452
165	0xc01152a9	-2.2706702
166	0xbd4afa65	-0.0495552
167	0xbf9cab24	-1.2239728
168	0xbf7b8e21	-0.98263747
169	0x40843815	4.131846
170	0xc0ce0072	-6.4375544
171	0x3fbbcd8e	1.4672105
172	0x402889cf	2.6334112
173	0xbd6d5aac	-0.0579478
174	0xbe7daa95	-0.24772103
175	0xc04087d3	-3.00829
176	0xc0821a4a	-4.065709
177	0xbfca296a	-1.5793889
178	0xbf3ddfd6	-0.7416967
179	0xbf93ef86	-1.1557472
180	0x3e0b6b91	0.13615252
181	0xc0b9f2e7	-5.810901
182	0xbebd1197	-0.36927482
183	0xc09cb262	-4.8967752
184	0xbf7e23e9	-0.99273545
185	0xc07be5c7	-3.9358995
186	0xbffd417a	-1.9785607
187	0xc08abc01	-4.3354497
188	0xc105f72f	-8.372848
189	0xbf6a65cd	-0.91561586
190	0xc084b0b0	-4.1465683
191	0xbf1169c4	-0.5680201
192	0xc030f34e	-2.7648501
193	0xbfb0e66f	-1.3820323
194	0xbf7cb7e9	-0.98718125
195	0xbc8748fe	-0.016514298
196	0x40842ca3	4.130449
197	0xbffae3d2	-1.9600775
198	0x3e77c23c	0.24195188
199	0xc00626e2	-2.0961232
200	0xbe89a90f	-0.26886794
201	0xbf2f52bf	-0.68485636
202	0xc04d917a	-3.2120042
203	0xbed9fae2	-0.4257422
204	0xbe6388e6	-0.22220191
205	0xc0750521	-3.828438
206	0xbf304723	-0.68858546
207	0x3f2b9611	0.6702586
208	0xbd136dad	-0.035993267
209	0xbf038db1	-0.5138808
210	0xbf6b9af9	-0.92033345
211	0x4012e089	2.2949545
212	0xbe43846f	-0.19093488
213	0xbf99a5d9	-1.2003738
214	0xbfa1744d	-1.2613617
215	0xbf0e70d0	-0.5564089
216	0xbf8007ca	-1.0002377
217	0xbfef8947	-1.8713769
218	0x408ce2c8	4.4026833
219	0x3d441d0e	0.04787927
220	0x3f2d86cb	0.677838
221	0xbcb69f55	-0.022292772
222	0xbf1eac9d	-0.61982137
223	0xbd91692b	-0.07100137
224	0xc00777ba	-2.1166825
225	0xc01394c1	-2.3059542
226	0xbebc7804	-0.36810315
227	0xbfddba34	-1.732245
228	0x40c93c82	6.288636
229	0xbf4dcbe0	-0.80389214
230	0xbe1b7973	-0.15183048
231	0xbfa81c28	-1.3133593
232	0xbe9afccf	-0.30271003
233	0xc0018095	-2.023473
234	0x3ed17e7e	0.40916818
235	0xbec6c774	-0.38824046
236	0x3f1013dd	0.5628031
237	0x3eaf4553	0.34232578
238	0xbf2c225e	-0.6723994
239	0xbf1f6a45	-0.6227153
240	0xbf09608d	-0.5366295
241	0xbf0bc7c6	-0.54601705
242	0xbf3f80c4	-0.74805856
243	0xbf457536	-0.77131975
244	0xbf65a703	-0.89707965
245	0xbf7048a9	-0.9386087
246	0xbf327e2c	-0.69723773
247	0xbf190b60	-0.5978298
248	0xbf3db09a	-0.740976
249	0xbf363893	-0.71180075
250	0xbf31f532	-0.69514763
251	0xbf287c8a	-0.6581503
252	0xbee18920	-0.4404993
253	0xbf0f7623	-0.5603964
254	0xbf76b228	-0.96365595
255	0xbf4b7ed9	-0.7949043

bias f4 [100]
0	0xbed00dd4	-0.4063555
1	0xbf9a5592	-1.2057364
2	0xbf3294bb	-0.69758195
3	0xbf34350a	-0.7039343
4	0xbf0bf4cc	-0.54670405
5	0xbe61568d	-0.22005673
6	0xbf589f4f	-0.84618086
7	0xbf088fb0	-0.5334425
8	0xbf4af762	-0.79283726
9	0xbf2b72b5	-0.66971904
10	0xbf346ec1	-0.704815
11	0xbf333b94	-0.70012784
12	0xbf0be2ef	-0.5464315
13	0xbef1cbac	-0.47225702
14	0xbf2f7333	-0.68535155
15	0xbf1fd237	-0.6243014
16	0xbf2ae3d3	-0.6675388
17	0xbefff5e5	-0.4999229
18	0xbfaf91a4	-1.3716321
19	0xbf0643c1	-0.52447134
20	0xbf11fb7f	-0.5702438
21	0xbed0fcf6	-0.40817994
22	0xbefa0940	-0.48835182
23	0xbf9c9fed	-1.2236305
24	0xbf8abb08	-1.0838327
25	0xbf016764	-0.50548387
26	0xbf0c8fe1	-0.5490704
27	0xbf6055f0	-0.8763113
28	0xbfd998ef	-1.6999797
29	0xbf316583	-0.6929552
30	0xbf0140c4	-0.5048945
31	0xbf700963	-0.93764323
32	0xbfd0b4de	-1.6305196
33	0xbfa3b0a7	-1.2788285
34	0xbf084cb4	-0.5324204
35	0xbf110c45	-0.56659347
36	0xbf062046	-0.52392995
37	0xbeecb380	-0.46230698
38	0xc00520b1	-2.0801203
39	0xbf0a37be	-0.53991306
40	0xbea1a1f0	-0.3156886
41	0xbf763f80	-0.96190643
42	0xbec4c1e7	-0.38429186
43	0xbe021c70	-0.1270616
44	0xbf5cbc84	-0.8622515
45	0xbfa40810	-1.281496
46	0xbf33f6a3	-0.7029821
47	0xbf2e6145	-0.6811717
48	0xbf24ada5	-0.6432746
49	0xbf6eab09	-0.9322973
50	0xbe4cf10f	-0.20013832
51	0xbf62a0c4	-0.8852656
52	0xbf44a4c2	-0.768139
53	0xbefb69f4	-0.49104273
54	0xbf632d5a	-0.88741076
55	0xbf397ba1	-0.7245427
56	0xbf3a870f	-0.72862333
57	0xbf8b809d	-1.0898625
58	0xbf06deef	-0.5268392
59	0xbeb40d8e	-0.3516659
60	0xbf26e214	-0.6518872
61	0xbf48a050	-0.7836962
62	0xbf2fdcf3	-0.68696517
63	0xbf2cc25f	-0.67484087
64	0x3db11151	0.08645881
65	0xbe3bc43b	-0.18336575
66	0xbf035740	-0.5130501
67	0xbf123f41	-0.5712777
68	0xbf1da897	-0.6158537
69	0xbf10a95b	-0.56508416
70	0x3d4ff8af	0.050774273
71	0xbec5ed4a	-0.386576
72	0xc012e5c8	-2.2952747
73	0xbf33bab5	-0.7020677
74	0xbfd8e376	-1.6944416
75	0xbf71f033	-0.9450714
76	0xbf118f73	-0.5685951
77	0xbf1fb57d	-0.62386304
78	0xbf67e951	-0.9059039
79	0xbf20c940	-0.62807083
80	0xc002a0de	-2.0410686
81	0xbea6e24e	-0.32594532
82	0xbf1b3923	-0.6063406
83	0xbfb19036	-1.3872135
84	0xbf076e24	-0.52902436
85	0xbf4e8f2c	-0.8068721
86	0xbf2eeb62	-0.68327916
87	0xbf202a20	-0.6256428
88	0xbfe3cd62	-1.7797053
89	0xbf4794a5	-0.7796119
90	0xbf142c78	-0.57880354
91	0xbf04a2d2	-0.51810944
92	0xbf76ed32	-0.9645568
93	0xbf085de5	-0.5326827
94	0xbf311f32	-0.69188225
95	0xbed32983	-0.41242608
96	0xbf26c2d5	-0.6514104
97	0xbf1a442f	-0.6026029
98	0xbf30f4df	-0.69123644
99	0xbfa3a944	-1.2786031

weight f4 [1, 100]
0	0x3ea2f743	0.3182927
1	0x3fbbe48c	1.4679122
2	0xbee9a30d	-0.4563221
3	0xbe7c152f	-0.24617456
4	0x3ed5eb90	0.41781282
5	0xbe9557ab	-0.29168448
6	0xbf07a4f7	-0.5298609
7	0xbefd152c	-0.49430215
8	0x3e4e53bf	0.20149134
9	0x3eeef9a5	0.4667484
10	0xbe6608ea	-0.22464338
11	0x3d2a1fff	0.04153442
12	0xbf06a4c5	-0.5259517
13	0x3ec4a7e7	0.3840935
14	0x3ebd0f46	0.36925715
15	0xbeb1160a	-0.34587127
16	0x3ea7fc6f	0.3280978
17	0x3e83200a	0.2561038
18	0x4019a885	2.4009106
19	0x3ebc348a	0.36758834
20	0xbe9485cd	-0.29008332
21	0xbea3ebc8	-0.32015824
22	0xbf173a9c	-0.59073806
23	0xc0092b89	-2.1432822
24	0x3f71e782	0.9449388
25	0x3ea5226a	0.32252818
26	0xbef3938c	-0.47573507
27	0xbeb5763f	-0.35441777
28	0x3efd626f	0.4948916
29	0x3e6e84d9	0.23292865
30	0x3e852db7	0.2601144
31	0xc00570d6	-2.085012
32	0xc04c6535	-3.1936772
33	0x4048a793	3.135228
34	0xbf03034a	-0.51176894
35	0xbf0bdc6e	-0.54633224
36	0xbf0527b1	-0.5201369
37	0x3ea88b1f	0.3291864
38	0x40d6aaca	6.7083483
39	0xbec75ba2	-0.38937098
40	0xbe94bc39	-0.29049852
41	0x3f4af2bd	0.7927664
42	0xbee648e3	-0.44977483
43	0xbe3cf2dd	-0.1845202
44	0xbfdf078c	-1.7424178
45	0xc0529508	-3.2903461
46	0xbf0cacf9	-0.54951435
47	0xbf80ffed	-1.0078102
48	0xbda43271	-0.080174334
49	0xbf012a77	-0.5045542
50	0xbe9f33f1	-0.31094316
51	0x3e560def	0.20903753
52	0xbedfb2e1	-0.4369116
53	0x3ebbb76d	0.3666338
54	0x3e944cb4	0.2896477
55	0xbeed2b8f	-0.46322295
56	0xbefb3341	-0.4906254
57	0xc08867b0	-4.262657
58	0x3e9daf51	0.30797818
59	0xbea8c447	-0.32962248
60	0xbee8bf1d	-0.45458308
61	0x3e8bf740	0.27337074
62	0xbf0f54ce	-0.55988777
63	0xbebec6d7	-0.37261078
64	0xbe443d88	-0.19164097
65	0xbe4d1ff1	-0.20031716
66	0x3f594879	0.8487621
67	0xbe426ac8	-0.18986046
68	0xbe39b118	-0.18133962
69	0xbf22962a	-0.6351038
70	0xbe24510a	-0.16046539
71	0x3e96fd03	0.29489908
72	0x40acee99	5.4041257
73	0xbf166d9d	-0.58761007
74	0xc0f8be17	-7.7732043
75	0x3f8586be	1.0431745
76	0xbe6361ee	-0.22205326
77	0xbe8df26f	-0.27724025
78	0x3d033d09	0.03204063
79	0x3faa467b	1.3302759
80	0xc141dc9b	-12.116359
81	0x3e854dfb	0.26036057
82	0xbf1d3b59	-0.6141868
83	0xc01651b7	-2.3487375
84	0xbf112274	-0.56693196
85	0x3f382f2d	0.71946985
86	0x3dded804	0.108810455
87	0xbeb0d997	-0.34541008
88	0xc1678742	-14.470522
89	0x3ecb4ff8	0.3970945
90	0x3edf72f4	0.4364239
91	0x3e69d551	0.2283528
92	0x3f4b2946	0.79359853
93	0xbeb1ffa0	-0.3476534
94	0xbf878a00	-1.0588989
95	0xbebcc414	-0.36868346
96	0xbf06a791	-0.52599436
97	0xbe31f6ca	-0.17379299
98	0xbf008c5d	-0.5021418
99	0x3f91782a	1.1364796
