logs/adult/sex-parity-model/learning_rate_0.0001-num_iters_200-n_h_10-n_h_adv_4-dropout_rate_0.5-alpha_1-model.pth (torch_old, 13700 bytes, 3 tensors)

weight f4 [10, 117]
0	0x3caa7b3b	0.020810714
1	0xbd901903	-0.070360206
2	0xbdc20482	-0.09473516
3	0xbdaccbae	-0.08437286
4	0x3da3ea18	0.08003634
5	0x3d46afb1	0.048507396
6	0x3cbaca07	0.022801412
7	0x3daba500	0.083810806
8	0x3d87d9f7	0.0663337
9	0xbb56482f	-0.0032696833
10	0x3d373959	0.044732425
11	0x3d55bed9	0.05218396
12	0xbd4378cb	-0.04772262
13	0x3d4fea9c	0.05076085
14	0x3d608ed0	0.054823697
15	0xbd65a979	-0.056069825
16	0x3bfb6fb8	0.00767323
17	0x3c32d8b5	0.010915925
18	0xbce9e3cf	-0.02855101
19	0xbc9c47d1	-0.019077213
20	0xbce7c281	-0.028290989
21	0x3dd80dc6	0.10549502
22	0xbd54d24a	-0.05195836
23	0x39e219f5	0.0004312542
24	0xbc3736ff	-0.011182546
25	0x3cce15cc	0.025156878
26	0xbd5f4532	-0.05450935
27	0x3d1403e5	0.036136527
28	0x3d644518	0.055729955
29	0xbcca3859	-0.024685072
30	0x3dbf77e0	0.09349036
31	0x3d2fee8f	0.042952117
32	0xbd3f4112	-0.046692915
33	0xbd891560	-0.0669353
34	0xbc604d39	-0.013690286
35	0x3de0aac7	0.10970073
36	0xbd0491a6	-0.032365464
37	0xbcc4e8b8	-0.02403675
38	0xbda732ae	-0.08163963
39	0xba8e3c8e	-0.0010851787
40	0x3d779c40	0.060451746
41	0xbcfdbec8	-0.03097476
42	0xbd112aa9	-0.035441075
43	0x3d9fedcf	0.0780903
44	0xbc7eb198	-0.015545271
45	0x3dac4165	0.084109105
46	0x3d81db57	0.06340664
47	0x3d4082d5	0.04699977
48	0x3da0a6c9	0.07844312
49	0xbc3dd0bf	-0.0115854135
50	0xbd0a2be4	-0.033733264
51	0x3d7543ce	0.059879117
52	0x3de46521	0.11152101
53	0x3cc8fd86	0.024534952
54	0xbd09d491	-0.033649985
55	0x3db781bb	0.08960291
56	0x3d305420	0.043048978
57	0xbd2e15cd	-0.04250126
58	0xbcbecec4	-0.023291953
59	0xbbe33341	-0.0069336
60	0xbcd986ba	-0.0265535
61	0x3caffcf5	0.021482924
62	0xbd45ee7e	-0.048323147
63	0xbd377cca	-0.044796742
64	0x3d9918b1	0.07475413
65	0xbd1ed1d2	-0.03877432
66	0x3da912de	0.08255552
67	0x3c6ea5cb	0.014565895
68	0xbd6f0b97	-0.058360662
69	0xbd77c90c	-0.060494468
70	0x3d4f03af	0.050540622
71	0x3d0657ae	0.03279846
72	0xbd7299e2	-0.059228785
73	0x3dabda3b	0.083912335
74	0x3dc295d8	0.09501237
75	0xbd1eaad6	-0.03873714
76	0x3dab95ae	0.083781585
77	0x3d03175d	0.032004703
78	0x3d6352af	0.055498775
79	0x3a6243b0	0.0008631302
80	0x3dc3105e	0.09524606
81	0x3d409efe	0.047026627
82	0x3dcd9ef3	0.10040083
83	0x3daa79f3	0.08324041
84	0x3b079d41	0.0020693096
85	0xbce69266	-0.02814598
86	0x3c5da5b9	0.013528281
87	0x3dbd8de6	0.092555806
88	0x3c8dae33	0.017294979
89	0xbd653adb	-0.055964332
90	0x3d00492a	0.031319775
91	0xbd17e8ce	-0.037087254
92	0x3dcb29c8	0.099200785
93	0xbd37f3e6	-0.044910334
94	0x3d4e00a0	0.050293565
95	0xbd771091	-0.060318533
96	0xbd7c5966	-0.061608694
97	0xbd20ffb0	-0.039306343
98	0x3d28ad5e	0.04118096
99	0x3c018ee1	0.0079076
100	0x3cf8c770	0.030368537
101	0xbd5242a8	-0.0513331
102	0x3d388127	0.045045044
103	0xbd06bf5f	-0.03289735
104	0x3c834a2b	0.016026577
105	0xbbd5d4ef	-0.006525628
106	0xbca7de89	-0.020491855
107	0x3d3fd8e5	0.046837706
108	0xbd8a49bf	-0.06752347
109	0xbb58921e	-0.0033046077
110	0x3da84f85	0.08218292
111	0x3d8ca82f	0.06868016
112	0xbc4591c1	-0.012058676
113	0x3d8417ec	0.06449875
114	0x3dc4c723	0.09608295
115	0x3c91d25e	0.017800506
116	0x3d4b512b	0.049637955
117	0xbdd68ba6	-0.104758546
118	0x3cf132ee	0.02944323
119	0x3d3e8206	0.04651072
120	0x3ce44f46	0.027869832
121	0x3d8540ee	0.06506525
122	0xbd08354f	-0.033253964
123	0x3d49d3bc	0.04927419
124	0x3dc54e65	0.09634093
125	0xbbfae0a4	-0.007656174
126	0x3d6adcae	0.057339363
127	0x3c62e89c	0.013849404
128	0x3db1bb08	0.086782515
129	0x3d4449b8	0.047921866
130	0xbd8c44e0	-0.06849074
131	0x3d6ae98e	0.05735164
132	0xbd84abe6	-0.064780995
133	0xbcb08e29	-0.021552162
134	0xbd579c78	-0.052639455
135	0x3dd24595	0.10267178
136	0xbbe1b483	-0.0068879738
137	0xbd0eed0d	-0.034894038
138	0x3d1e8cfd	0.038708676
139	0x3d2cb80d	0.042167712
140	0x3dde940d	0.10868082
141	0x3d9cd765	0.07658271
142	0x3d02ed39	0.031964514
143	0x3d830c7b	0.06398865
144	0x3b6d8128	0.0036240313
145	0xbcb1f524	-0.021723337
146	0xbd1ebf52	-0.038756676
147	0xbcc2fbfc	-0.023801796
148	0x3dbf2fcb	0.09335288
149	0x3c43dbda	0.011954272
150	0xbd83ea50	-0.06441176
151	0xbc43a7bb	-0.0119418455
152	0x3d60edfb	0.054914456
153	0xbc3f0cb6	-0.011660745
154	0x3b9ad57f	0.0047251577
155	0x3c968fcf	0.01837912
156	0xbc913bf1	-0.017728778
157	0x3cea9fcc	0.02864065
158	0xbd6743df	-0.05646121
159	0x3d89b115	0.06723229
160	0xbd154114	-0.036439016
161	0x3db3f43a	0.08786817
162	0x3d15aca4	0.036541596
163	0x3d08b0b6	0.03337165
164	0x3cc72a5a	0.024312187
165	0x3c9a7bd6	0.018857878
166	0xbcb20f97	-0.02173595
167	0xbcee8825	-0.029117653
168	0x3c4f089e	0.012636332
169	0x3d2c67ec	0.042091295
170	0x3de7dfbb	0.1132197
171	0x3caba878	0.020954356
172	0xbb6e4d51	-0.0036362002
173	0x3b2cf824	0.002639302
174	0x3d82dd99	0.06389923
175	0x3ce39e10	0.027785331
176	0x3b42b12a	0.0029707649
177	0xbc673a19	-0.014112973
178	0xbd87f0cf	-0.066377275
179	0x3dd0620a	0.101749495
180	0x38a43cde	7.831467e-05
181	0x3dadc6a2	0.08485152
182	0xbc90fcdf	-0.017698703
183	0x3d3a6d4c	0.04551439
184	0x3db8b1f6	0.09018318
185	0x3ccef5b4	0.025263645
186	0x3dd7a216	0.10528962
187	0x3dc7c66d	0.097546436
188	0x3de4a36a	0.11163981
189	0x3d13dc70	0.036098897
190	0x3d589fc6	0.052886747
191	0xbc9ddaed	-0.019269431
192	0x3d93abf1	0.072105296
193	0x3c3926f8	0.011300795
194	0x3de01e5a	0.10943289
195	0xbce212fa	-0.02759694
196	0x3daa3487	0.083108
197	0x3dd4bb99	0.10387344
198	0x3d88f266	0.06686859
199	0xbb58c911	-0.003307883
200	0x3d6e4656	0.058172546
201	0x3db76756	0.08955257
202	0xbc765352	-0.015034514
203	0x3db32531	0.08747328
204	0xbd0bf299	-0.034166906
205	0x3d4518d3	0.048119377
206	0x3d094be0	0.033519626
207	0x3d806848	0.0626989
208	0x3db5544a	0.088539675
209	0x3d08b6c6	0.03337743
210	0xbc5d7eba	-0.0135189835
211	0x3d5ef566	0.05443325
212	0x3cf7c5d2	0.030245695
213	0xbd85d117	-0.06534021
214	0x3d28efb8	0.04124424
215	0x3cbada8f	0.022809295
216	0x3d886b96	0.066611454
217	0xbd90550e	-0.07047473
218	0x3be2777e	0.0069112172
219	0xbd150573	-0.03638215
220	0x3de17de6	0.11010341
221	0xbcccb0e2	-0.024986688
222	0xbd343972	-0.044000097
223	0xbc234ce5	-0.009967064
224	0xbd86a3ea	-0.06574233
225	0x3d0d7c80	0.03454256
226	0x3d0fb395	0.035083372
227	0x3de3e78b	0.11128148
228	0xbd2ebaf1	-0.04265875
229	0x3d75d797	0.060020056
230	0xbd51800d	-0.05114751
231	0x3ccde655	0.025134245
232	0x3cd90100	0.026489735
233	0x3cb8531c	0.022500567
234	0xbd71362f	-0.058889564
235	0x3d88a498	0.06672019
236	0x3d8bec0c	0.06832132
237	0xbd872cf9	-0.06600375
238	0xbd13c271	-0.036074106
239	0x3d9e19ff	0.07719802
240	0x3d07d6db	0.033163887
241	0x3d9dc481	0.07703496
242	0x3dbddb72	0.092703715
243	0xbd1df2d1	-0.038561646
244	0x3da6ed67	0.0815075
245	0x3d68079f	0.056647893
246	0x3d691fa4	0.05691494
247	0x3dae1c5c	0.08501503
248	0x3cf91eb7	0.030410154
249	0x3de5f737	0.11228793
250	0x3d906d7b	0.07052132
251	0xbd4d4c74	-0.05012174
252	0x3d22113b	0.039567214
253	0x3dac853f	0.08423852
254	0x3d8d9149	0.069124766
255	0xbcfcea90	-0.030873567

bias f4 [10]
0	0x3d84c9e5	0.06483821
1	0x3cbc0eb3	0.022956228
2	0x3dd5bc29	0.10436279
3	0x3c5a09b6	0.013307979
4	0x3c25851c	0.0101025365
5	0xbd8bde4c	-0.06829509
6	0xbc260898	-0.010133885
7	0xbd7370f5	-0.059433896
8	0x3d19c777	0.03754374
9	0xbd9847eb	-0.07435592

weight f4 [1, 10]
0	0xbd8e6061	-0.069519766
1	0xbdd29146	-0.10281615
2	0xbc9fd59e	-0.01951104
3	0xbd0c3ee6	-0.034239672
4	0xbe00f4a3	-0.12593322
5	0x3e3f841c	0.1870274
6	0xbea19a95	-0.3156325
7	0x3e6693d7	0.22517334
8	0xbe3c848c	-0.18409938
9	0x3cd713e1	0.026254596
