logs/adult/sex-parity-model/learning_rate_0.001-num_iters_2000-n_h_10-n_h_adv_10-dropout_rate_0.5-alpha_1-model.pth (torch_old, 13680 bytes, 3 tensors)

weight f4 [10, 117]
0	0x3e5c9bbe	0.21543786
1	0x3f3332b1	0.69999224
2	0x3da45212	0.08023466
3	0x3d6e5e81	0.058195595
4	0xbf2e0fb6	-0.67992723
5	0xbecba4fa	-0.39774305
6	0xbe239b15	-0.15977128
7	0xbc334f0a	-0.010944137
8	0x3e035eaf	0.12829088
9	0x3e297d0c	0.16551608
10	0x3e826ce0	0.2547369
11	0x3e8c6ec5	0.2742826
12	0x3ddda3ab	0.10822233
13	0x3c1c2c32	0.009532021
14	0xbd7747ef	-0.060371336
15	0xbd6601f2	-0.0561542
16	0x3da47b7f	0.080313675
17	0xbdb8ff13	-0.090330265
18	0xbdba2175	-0.09088413
19	0xbd2cbc58	-0.042171806
20	0x3a8377e3	0.0010030236
21	0xbebbb391	-0.36660436
22	0xbe5cde8a	-0.21569267
23	0xbef37d1f	-0.47556397
24	0xbdba17b2	-0.09086551
25	0xbd053718	-0.032523245
26	0xbe8c20f4	-0.2736889
27	0x3e7546bc	0.23952764
28	0xbe76ce1d	-0.24102063
29	0xbe7a0fe8	-0.2442013
30	0x3d23c29a	0.03998051
31	0xbe8e9c08	-0.27853417
32	0xbd8d907d	-0.069123246
33	0xbc0524f8	-0.00812649
34	0x3dc77292	0.097386494
35	0xbce7dbc7	-0.02830304
36	0x3cba8f67	0.022773458
37	0xbfd3e5ae	-1.6554468
38	0x3e48fc9b	0.19627611
39	0xbd3f7077	-0.046738114
40	0xbe0d90fd	-0.1382484
41	0x3ed0dc54	0.40793097
42	0x3eb151b8	0.3463266
43	0xbddc5926	-0.10759191
44	0xbe07546b	-0.13215797
45	0xbdc3ef0f	-0.09567081
46	0xbe130fd0	-0.143615
47	0xbdd0f9bf	-0.10203885
48	0x3d81b465	0.06333236
49	0x3e598196	0.2124084
50	0x3b7d27b8	0.003862841
51	0x3e5e0e19	0.21685065
52	0xbf05e22c	-0.52298236
53	0xbe7fecef	-0.24992727
54	0xbde82f19	-0.11337108
55	0xbe44029a	-0.19141617
56	0xbeae1509	-0.34000424
57	0x3d6ec638	0.058294505
58	0x3e19f9c6	0.15036687
59	0x3cf5f8ee	0.030025925
60	0x3e192b61	0.14957954
61	0xbe2dea43	-0.16983895
62	0x3dbe5f27	0.092954926
63	0x3c2dfc54	0.010619242
64	0xbe63b7c8	-0.22238076
65	0xbe0e79f3	-0.13913707
66	0xbde1c79c	-0.110244006
67	0x3e856202	0.26051337
68	0xbe9e6eb2	-0.3094383
69	0xbdde3aa8	-0.108510315
70	0xbd84dc9e	-0.06487392
71	0xbf07107f	-0.52759546
72	0xbd1d79c0	-0.038446188
73	0xbe17f34a	-0.14838901
74	0xbd2d37dd	-0.042289604
75	0xbd9e871a	-0.07740612
76	0x3eaecd87	0.3414118
77	0x3d5996f4	0.053122476
78	0xbe5c0b7f	-0.2148876
79	0xbed50696	-0.41606587
80	0x3df59998	0.11992186
81	0xbef4ec01	-0.47836307
82	0x3d3f7b3b	0.04674838
83	0xbe50e312	-0.2039912
84	0x3db2cedd	0.08730862
85	0x3e209bc4	0.1568442
86	0x3e1b7f69	0.15185322
87	0xbedf51fb	-0.43617234
88	0xbef3fc7a	-0.47653562
89	0xbc77e7b3	-0.015130925
90	0x3d84acf9	0.064783044
91	0x3e5e97d6	0.21737608
92	0x3eb1a118	0.34693217
93	0x3ebac8aa	0.3648122
94	0xbe6d3d88	-0.23168004
95	0x3e16f01b	0.1474003
96	0x3ebd42a3	0.36964902
97	0x3ea307ce	0.31841892
98	0x3e962eab	0.2933248
99	0xbe774ce6	-0.24150428
100	0xbe88646c	-0.26639116
101	0xbf04ef1d	-0.5192736
102	0xbdfffd70	-0.12499511
103	0xbe89f71e	-0.26946348
104	0xbeb5b531	-0.354898
105	0x3ca3cd64	0.019995399
106	0xbf353357	-0.70781463
107	0x3d4d00cd	0.05004959
108	0xbe95d2d1	-0.29262403
109	0x3d9de999	0.07710571
110	0xbee5cf57	-0.4488475
111	0xbdc55166	-0.09634666
112	0xbc0b1359	-0.0084885
113	0xbea79b01	-0.32735446
114	0xbce35c7c	-0.02775406
115	0xbf58dec1	-0.84714895
116	0xbe88d26d	-0.26723042
117	0x3e28f0dc	0.1649813
118	0x3f14acbb	0.58076066
119	0x3d928669	0.07154543
120	0x3ce6bd76	0.028166514
121	0xbfb49adb	-1.4109758
122	0xbe8477fc	-0.2587279
123	0xbdd520a5	-0.10406617
124	0x3d62fc0d	0.055416156
125	0x3e392ec0	0.1808424
126	0x3e49719f	0.1967225
127	0x3e3a693b	0.18204205
128	0x3e998548	0.29984498
129	0x3e3f8c28	0.18705809
130	0x3e51a385	0.20472534
131	0xbe0f82a6	-0.14014682
132	0x3c11535e	0.008869974
133	0xbcefa35b	-0.029252699
134	0xbcb8371d	-0.022487218
135	0xbc2b08ac	-0.010439079
136	0x3d8e2501	0.06940652
137	0x3c8a2879	0.016865002
138	0xbde489b1	-0.11159075
139	0xbda6b0d3	-0.08139195
140	0xbe5d935a	-0.21638241
141	0x3d9f2d34	0.07772294
142	0x3e054d41	0.13017751
143	0x3db73e85	0.089474715
144	0x3f021414	0.50811887
145	0x3e7c363e	0.24630067
146	0xbd54c271	-0.051943246
147	0x38ae1a74	8.301894e-05
148	0xbd9afaec	-0.07567391
149	0x3cb24852	0.021763
150	0xbc0bd16f	-0.00853382
151	0x3d933f4c	0.07189807
152	0xbdf3825b	-0.11890098
153	0x3c93835d	0.018006975
154	0xbfc71ad6	-1.5555065
155	0x3dc5efe4	0.09664896
156	0x3bd028f2	0.0063525373
157	0xbdab75f5	-0.08372108
158	0x3ec49132	0.38392025
159	0x3dbf2c95	0.09334675
160	0xbeac6eeb	-0.33678374
161	0xbd8f322d	-0.06991992
162	0x3cbb9755	0.02289931
163	0xbdcce329	-0.10004265
164	0x3d34be3a	0.044126727
165	0xbeb45a2f	-0.35225055
166	0x3e441850	0.191499
167	0xbd889b97	-0.066703014
168	0x3e455066	0.19268951
169	0xbd30310c	-0.043015525
170	0xbe57bce2	-0.21068147
171	0xbdeff68d	-0.11716948
172	0xbecbe8e4	-0.3982612
173	0xbe81c7a5	-0.2534763
174	0x3ddfa72a	0.10920556
175	0x3e346b77	0.1761912
176	0x3d5331d2	0.051561184
177	0x3dad2b24	0.08455494
178	0xbe1e99af	-0.15488313
179	0x3dda113f	0.10647821
180	0xbc01eba7	-0.007929719
181	0xbe7f4802	-0.24929813
182	0xbe983ad8	-0.29732394
183	0xbdc71636	-0.09721033
184	0x3e7a8cd1	0.2446778
185	0xbe300a3a	-0.17191401
186	0xbea9b36c	-0.331447
187	0xbd37291d	-0.044716943
188	0x3d9f38eb	0.07774528
189	0xbda0799b	-0.078356944
190	0xbde61112	-0.11233725
191	0xbab9cc60	-0.0014175288
192	0xbe775427	-0.24153195
193	0x3dfc12cd	0.123082735
194	0xbe276970	-0.16348815
195	0x3c6dca2b	0.014513533
196	0xbe7ee9a2	-0.24893811
197	0xbde2b7ef	-0.11070239
198	0xbec24a6b	-0.379474
199	0xbf048340	-0.5176277
200	0x3c1f6fd5	0.009731253
201	0xbdaa77eb	-0.08323654
202	0x3dafa596	0.08576505
203	0xbe2cb5f7	-0.16866289
204	0xbe941b6a	-0.28927165
205	0xbe7bf29f	-0.24604271
206	0x3ddbf5b3	0.10740223
207	0xbd88079f	-0.066420786
208	0x3c2e925b	0.010655011
209	0x3de19a6d	0.110157825
210	0x3ea4a837	0.32159588
211	0x3d2fe165	0.042939562
212	0xbec209d1	-0.37898114
213	0x3ec23ccc	0.3793701
214	0x3e16f1c6	0.14740667
215	0xbf09e30b	-0.53862065
216	0x3dc8dfa0	0.09808278
217	0x3eacfbbc	0.33785808
218	0xbc203997	-0.0097793555
219	0xbe8e2d85	-0.27769104
220	0xbe1c234e	-0.15247843
221	0x3c7a12c0	0.015263259
222	0x3edf7399	0.43642882
223	0x3e2a80fb	0.16650765
224	0x3dc17e76	0.09447949
225	0xbe3558b8	-0.17709625
226	0x3d8a9f47	0.06768661
227	0xbf3f1e2a	-0.746554
228	0x3e943a6f	0.2895083
229	0x3e96c7bc	0.2944926
230	0xbea0a927	-0.31379053
231	0xbdbb9027	-0.09158354
232	0xbeff74df	-0.49893853
233	0xbc461c3a	-0.012091691
234	0x3dc68010	0.09692395
235	0x3f21d963	0.6322233
236	0x3d985a2c	0.07439074
237	0x3d1d8e9a	0.038466074
238	0xbef34bd9	-0.47518805
239	0xbeb43326	-0.35195273
240	0xbd8a388b	-0.06749066
241	0xbd0da524	-0.03458132
242	0x3daa8118	0.08325404
243	0x3d8d2da9	0.068934746
244	0x3e085de0	0.1331706
245	0x3e2219bb	0.15830128
246	0x3e14f673	0.14547138
247	0x3c91f13c	0.017815225
248	0xbdd64888	-0.10463053
249	0x3c01f94b	0.007932971
250	0x3e08f7c6	0.13375768
251	0xbc1ef307	-0.009701497
252	0xbdcb5ab2	-0.09929408
253	0x3bf13e47	0.0073621604
254	0x3dcc7c82	0.099846855
255	0xbd3da52e	-0.046300106

bias f4 [10]
0	0xbd084c96	-0.033276163
1	0xbda2595f	-0.079272024
2	0xbd6e047a	-0.058109738
3	0xbdb70c5d	-0.08937905
4	0x3e81a9b0	0.25324774
5	0x3e31d04e	0.17364618
6	0x3e7e21c4	0.24817568
7	0xbdfa6e70	-0.122280955
8	0xbe2e9ecd	-0.17052765
9	0xbe11d091	-0.14239718

weight f4 [1, 10]
0	0x3edbe656	0.4294917
1	0x3f325b6d	0.69670755
2	0x3f180f9b	0.5939881
3	0x3f4dd3f4	0.8040154
4	0xbf06fcc8	-0.52729464
5	0xbf336670	-0.7007818
6	0xbf12ba8f	-0.57315916
7	0x3f2cd1ff	0.6750793
8	0x3f0172a6	0.50565565
9	0x3f0c4d8a	0.54805815
