logs/adult/sex-parity-model/learning_rate_0.01-num_iters_2000-n_h_100-n_h_adv_10-dropout_rate_0.5-alpha_1-model.pth (torch_old, 56520 bytes, 3 tensors)

weight f4 [100, 117]
000000 97 c5 e5 bb 42 39 50 bd 7f b4 7f 3b 82 48 d4 3c
       -0.00701208 -0.050835855 0.0039017496 0.02591348
000010 49 07 12 be 41 25 78 bc 4a a9 a1 bd 3a c5 cc bb
       -0.14260592 -0.015145601 -0.078936175 -0.006249097
000020 b5 d9 1c be 28 07 49 be 9e fc c6 bd 8a 7f b8 bd
       -0.15317424 -0.19631636 -0.09716152 -0.09008701
000030 b6 41 93 bd 1a df 9f bc 72 44 6a bd c1 d4 46 3d
       -0.07190268 -0.019515563 -0.05719418 0.04854274
000040 ce 2c b2 bd 18 ba cf bc de 44 43 3d 37 c7 47 bd
       -0.08699952 -0.025357291 0.0476731 -0.04877397
000050 dc 80 99 3c 66 bf e0 bd aa 95 eb bd e4 43 82 3d
       0.018738203 -0.10974006 -0.115031555 0.06360605
000060 d5 3f b2 bc dd 04 82 bc ff ff ce bd 2f 1d 73 3c
       -0.021758953 -0.01587146 -0.10107421 0.014838501
000070 5e 8c 8a bc 0c 1c d5 3a 5d a6 08 be fc 86 08 bd
       -0.016912635 0.0016258969 -0.13344713 -0.033331856
000080 ed 59 f7 bd bd fb 94 bd 28 9a 10 be 39 d4 01 be
       -0.12077699 -0.07274578 -0.14121306 -0.12678613
000090 90 e7 18 be 2a bb d0 bc a6 50 f2 bd e2 78 45 bd
       -0.14932084 -0.025479872 -0.11831789 -0.048210986
0000a0 e7 38 72 bd 98 c3 0b bd 92 f0 96 bd da b9 10 bd
       -0.059136298 -0.03412208 -0.07370104 -0.03533349
0000b0 06 c3 1a bd cc 64 03 be 54 98 57 3c 78 eb 88 3c
       -0.037783645 -0.1283142 0.013158876 0.016713843
0000c0 f5 98 a4 bc c0 17 05 3b 9d 43 eb 39 ea cc 59 bd
       -0.020092467 0.0020308346 0.0004487307 -0.053173937
0000d0 35 ba 2a 3d e6 ca 88 bd f5 6e ae ba e0 69 0a be
       0.041681487 -0.06679325 -0.0013308214 -0.1351695
0000e0 9e f0 f1 bc 98 e7 58 bd d4 ab 19 be 73 6f 05 be
       -0.02953368 -0.05295524 -0.15006953 -0.13030796
0000f0 b8 7d 28 bd 54 1b 5e bd 1f 23 12 be 1e d5 48 bd
       -0.04113552 -0.05422528 -0.1427121 -0.04903137
000100 ed 1d 21 bd 39 41 ff 3c 82 dd c1 bd 9d 20 b9 bd
       -0.03933518 0.03115903 -0.094660774 -0.090394236
000110 c5 d9 97 bc e4 b9 14 be cc ed 9d bd c7 cc d5 bd
       -0.018536458 -0.14524037 -0.07711372 -0.10439449
000120 dd ad 07 be f7 e2 01 bd 36 d9 52 be fb e4 1d bd
       -0.13249917 -0.03171059 -0.20590672 -0.03854845
000130 0a 20 91 bd dc 64 05 bc e5 2d ea bc 4c fa e5 bd
       -0.07086189 -0.0081417225 -0.028586337 -0.11229381
000140 c5 4f 93 3c 70 9c 7d 3c 4d 48 80 bc 09 89 df bd
       0.017982373 0.015479192 -0.015659476 -0.10914809
000150 f4 1e 11 be d9 6f ea 3b 22 0a c4 bd 82 86 d0 3c
       -0.14171964 0.0071544466 -0.09572245 0.025454763
000160 fb 06 79 3d 43 70 07 3c 16 4f 5b 3d 37 38 b3 bd
       0.060797673 0.008266511 0.05354222 -0.087509565
000170 2a c7 45 bd a1 bf ce 3c 9f ca 95 bd 76 d8 c1 bd
       -0.04828564 0.02523786 -0.073140375 -0.09465115
000180 32 cd 40 3d 2b 3a c5 bc e1 0e d2 bb 96 f2 d1 bc
       0.04707069 -0.024075588 -0.006410465 -0.02562837
000190 57 1b 69 bd 0d 6e d3 bd d3 ed 19 3d 2f f8 e2 3d
       -0.05691084 -0.10323725 0.037580322 0.110824935
0001a0 62 2e a4 3d ed f4 51 bd a2 5d b3 bc f4 5c a0 bd
       0.08016659 -0.05125897 -0.021895234 -0.078302294
0001b0 44 de 08 be 36 2a 38 bd 03 98 3f bd f7 3d 91 3b
       -0.13366038 -0.04496213 -0.04677583 0.0044324356
0001c0 ea 1b 93 3b b0 2d c1 3d 91 85 51 bd 19 83 9c 3c
       0.0044894116 0.09432542 -0.05115277 0.019105481
0001d0 56 63 be 37 0a 2b 9c 3d 80 40 b5 bf c7 d2 96 3d
       2.2696022e-05 0.076253965 -1.4160309 0.07364421
0001e0 a0 75 b2 bd 13 96 04 bf c4 f7 88 bf e6 3d cd 3d
       -0.087138414 -0.51791495 -1.0700612 0.10021572
0001f0 71 c4 2a be ab 7a 04 bf 87 2b ce 3e f8 ff bf 3e
       -0.16676499 -0.51749676 0.40267584 0.37499976
000200 fd 8d a2 be a1 a9 08 3f 14 00 b0 bd 51 26 a8 bf
       -0.31748953 0.53383833 -0.08593765 -1.3136693
000210 12 d4 14 bf dd 51 37 3f af 54 70 be b2 17 42 bd
       -0.58136094 0.7160929 -0.23469804 -0.04738588
000220 fe eb e5 3b 92 7d 39 3d 96 e3 85 bf 69 d7 38 3e
       0.007016658 0.04528577 -1.0460079 0.18050922
000230 ec 75 fb bd f1 c8 41 3e cb a2 91 bf 77 4a 76 bf
       -0.12278351 0.1892431 -1.1377805 -0.96207374
000240 83 fd 62 3f ef 59 bc bf 2d b3 69 bd 11 0e 9e 3e
       0.8866808 -1.4714946 -0.05705564 0.30870107
000250 74 57 c3 be 33 dc 1a 3b 5b 2c 36 be 65 b7 39 3f
       -0.3815266 0.0023629784 -0.17790358 0.7254546
000260 6c 75 2d be d6 15 95 ba a6 98 5b bf c7 5c 87 be
       -0.16939324 -0.0011374305 -0.857798 -0.2643797
000270 37 dc 7b 3d f4 0e 4e 3d c8 9e 7f 3f ab 7b 12 bd
       0.06148931 0.05030723 0.99851656 -0.03576247
000280 3f ad ba bf 78 7d 3c bf b8 88 89 be 6f 82 48 3d
       -1.458412 -0.7362895 -0.2686212 0.048952516
000290 6c 5d 31 bf d6 05 77 3e 8c 14 d1 3e cc 2f 3a be
       -0.69283175 0.2412332 0.4083599 -0.18182296
0002a0 3f 2d 56 3e 03 75 ab bf 92 a3 4b be 7e 59 1f bf
       0.20915698 -1.3395084 -0.19886616 -0.6224593
0002b0 cb 96 8b bf 94 d6 4f b9 c9 32 81 3e af c7 ba bd
       -1.0905393 -0.00019820995 0.25234058 -0.09120118
0002c0 aa 7e 08 3e a2 b1 c1 3d 5d f6 8f bc 72 ea 33 3c
       0.13329569 0.09457709 -0.01757353 0.010981189
0002d0 18 5b 5f bf eb 0f f1 be 7e ce 28 bf 65 83 2b 3f
       -0.87248373 -0.47082457 -0.6594008 0.6699737
0002e0 d9 20 49 3f cb 9d b8 bf e6 6a 05 bf 5c 57 fe 3e
       0.78565747 -1.4423155 -0.5211624 0.49676025
0002f0 e3 22 04 bf 45 99 d8 bd 7f ec 89 bf 45 2c 1b 3e
       -0.5161573 -0.10576109 -1.0775298 0.15153606
000300 0d b9 99 be ba ed 63 bf b3 d1 58 bf d5 23 16 bf
       -0.30023995 -0.89034617 -0.84694976 -0.58648425
000310 2b 53 22 bf 30 56 85 3f c0 bb 11 bf 9a 2d 48 bf
       -0.63408154 1.0416927 -0.5692711 -0.7819458
000320 f9 68 7e 3f 40 16 42 3d 98 66 bd bf 9f 93 2f 3f
       0.99378926 0.0473845 -1.4796934 0.68584627
000330 a6 00 1b 3f 1f c8 fd be be eb ce 3e 8a 65 1c be
       0.60547864 -0.49566743 0.40414232 -0.15273109
000340 4c 9b ce 3e 6e f7 39 bf 1a d1 2a bf 53 df 18 bf
       0.40352857 -0.7264317 -0.66725314 -0.59715766
000350 9b f9 83 3f 32 1f 01 3e 8e 75 39 3e 1e b2 3b be
       1.0310549 0.12609556 0.1811125 -0.18329665
000360 85 21 50 bf 30 ea a4 bf 0a bb 8d bf 6b 32 9f bf
       -0.81301147 -1.2883968 -1.1072705 -1.2437261
000370 74 7b 3d be 30 2d 4a 3f 5a 88 29 3f 89 a5 d0 be
       -0.18504125 0.789752 0.6622368 -0.40751293
000380 a2 5b 06 bf 33 72 30 bf 22 01 0a 3c c4 27 a3 3f
       -0.5248357 -0.68924254 0.008423122 1.274651
000390 64 05 98 be 93 2d dd 3f 9a 50 79 3f d8 84 72 be
       -0.29691613 1.7279533 0.97388613 -0.23683488
0003a0 2a ef 7e be ae 6a 3f bf 79 09 81 bd 41 dd a3 3d
       -0.24895921 -0.74772155 -0.06300635 0.08001185
0003b0 53 df 43 3d 1c f5 a4 3e bb a0 25 3f ba fa 10 bf
       0.0478204 0.32218254 0.6469838 -0.5663258
0003c0 db 3d f0 3e e2 df 41 be 7f 84 ab 3d 1f 69 68 bf
       0.46922192 -0.18933061 0.08374881 -0.907854
0003d0 8e ba 72 bf 9b f2 c4 be ab f2 40 3e 39 da dd be
       -0.9481591 -0.38466343 0.1884257 -0.43330553
0003e0 db b7 72 3f 4a 2b ed be c4 52 4c bf 03 91 6a 3d
       0.9481179 -0.4632209 -0.7981379 0.0572672
0003f0 98 30 aa bd e3 28 95 bd 18 d2 88 be 4f c1 76 be
       -0.0831005 -0.07283189 -0.2672279 -0.24097179

bias f4 [100]
000000 d9 92 f0 3b 38 56 7c be 81 58 2b be 96 4e 95 bd
       0.0073417244 -0.24642265 -0.1673298 -0.0729038
000010 08 3d c6 be 03 ee bd be dc e7 59 bc dc e0 4f be
       -0.38718438 -0.3709565 -0.0132999085 -0.20300621
000020 c5 5c e2 be c4 09 58 be 6c 17 bf bd 89 de 8e be
       -0.44211403 -0.21097475 -0.09330639 -0.27904156
000030 71 e7 02 be f8 99 09 bd 2f 36 b5 bd 6c 12 78 be
       -0.127836 -0.0335941 -0.08848225 -0.24225777
000040 27 2d 36 bd f6 b1 84 be 51 9d 44 be c5 b9 eb be
       -0.044476654 -0.25917023 -0.19200636 -0.46040168
000050 ae e1 e8 bd ea 89 4b bc 1f 11 ae be 84 d3 b6 bc
       -0.1137117 -0.012423018 -0.33997437 -0.022317655
000060 ac 7b 91 be d8 5f 75 bd 05 56 c6 bd fe 46 8b bd
       -0.28414667 -0.059905857 -0.09684376 -0.0680065
000070 05 ef 9c be 14 f5 02 bd f9 29 fa bd a0 f7 65 be
       -0.30651107 -0.031972006 -0.12215037 -0.22457743
000080 8d 2a c0 bd e1 45 ce bd ee 27 f9 bc 41 46 47 bd
       -0.09383116 -0.10071922 -0.030414548 -0.048650984
000090 7e 8f c0 3c 7d f1 14 be 0c 3d 4a be a8 b1 33 be
       0.023505922 -0.14545245 -0.1974985 -0.17548239
0000a0 ac 99 6c be 9d b0 14 be 57 fc 1c be 51 9e 1d be
       -0.23105496 -0.14520498 -0.15330635 -0.15392424
0000b0 a8 5c 3d bd c7 2a 5e be f1 60 06 be 24 77 4b be
       -0.046230942 -0.21696006 -0.13122918 -0.19869667
0000c0 53 da 83 bc 34 6d b7 bc cb 35 06 3d 01 e6 6c be
       -0.016095316 -0.02239094 0.032766145 -0.23134615
0000d0 fb 5c 3d be aa 8a 54 bc 7e 3f 1f be 86 fa 69 bd
       -0.184925 -0.012972513 -0.15551564 -0.057123683
0000e0 46 0a f6 bd eb cc 89 3a 87 de 22 bc 8a c2 20 be
       -0.12013678 0.0010513341 -0.00994075 -0.15699211
0000f0 7e 56 78 be 13 c5 47 be 24 94 d9 be 7e 99 89 bd
       -0.24251744 -0.19508772 -0.42495835 -0.067187294
000100 98 34 7b 3d b1 6c ce bd d5 b2 1b be a8 b9 85 be
       0.061329454 -0.10079325 -0.15204938 -0.26118207
000110 2c 0c 49 be cc 89 a2 be 2e a3 9f bc 0f 29 d7 bc
       -0.1963355 -0.31745756 -0.01948699 -0.026264695
000120 e3 ec 3a be fc 67 3e bd 75 ac 6f be 92 b7 9b be
       -0.18254428 -0.046485886 -0.23405631 -0.3041349
000130 f6 5a 63 be ac 06 10 be 78 82 6b bd d0 31 7a be
       -0.22202668 -0.14065045 -0.05749747 -0.24433064
000140 10 f4 62 be b6 5b 2a be e1 5b 28 be 89 c5 68 bd
       -0.22163415 -0.16636547 -0.16441299 -0.05682901
000150 4a 28 39 be ad 11 7b be 02 55 15 3d 07 35 04 be
       -0.18081775 -0.24518462 0.036458023 -0.12910853
000160 95 1b a1 bd d8 52 e2 3b 6e 93 6e be 77 33 b6 bd
       -0.07866589 0.0069068484 -0.23298427 -0.08896535
000170 d5 91 2c 3d a4 07 71 bd 74 c6 4a be 28 c9 7b be
       0.042131264 -0.058845177 -0.19802266 -0.24588454
000180 52 6c 42 be 96 9c e0 bd aa 72 be be 0f f2 ba be
       -0.18986633 -0.109673664 -0.37196857 -0.365128

weight f4 [1, 100]
000000 7b e5 19 bd b3 0f a7 3e f6 1b f0 be d2 dc c1 be
       -0.037572365 0.32629165 -0.46896333 -0.37863785
000010 52 80 b4 3f 27 a3 13 40 b2 56 4a be 7a 10 88 bf
       1.410166 2.306833 -0.19759634 -1.0630028
000020 3b d1 9c 40 c2 5d f3 3e 88 88 9b be 90 98 05 3f
       4.900541 0.4753247 -0.30377603 0.52185917
000030 50 d4 6d bf e8 1a 4e bd 11 49 04 bf d0 04 0c 3f
       -0.9290209 -0.05031863 -0.5167399 0.54694843
000040 38 54 51 be d1 69 06 3f 39 e1 e8 3e bf 31 ec 3f
       -0.20442283 0.52505213 0.4548433 1.8452681
000050 e6 a1 ac be 84 df e6 be 97 ad 89 3f 01 6e ad be
       -0.3371727 -0.45092404 1.07561 -0.3387299
000060 8f 10 06 40 65 7e 3e 3f d0 72 1c bf e6 04 4e bf
       2.0947607 0.7441161 -0.6111269 -0.80476224
000070 b3 a9 8f 3f 6e 1f 32 bd 0e a3 b7 bf ba 10 28 bf
       1.1223663 -0.043487005 -1.4346635 -0.6565052
000080 c9 89 2b bb 05 c5 1c 3f 58 c3 33 be de f0 3d be
       -0.0026174656 0.6123813 -0.17554986 -0.18548915
000090 81 eb d7 be 19 d1 64 bd 93 ff c9 bf 97 72 d7 3f
       -0.42171863 -0.055863474 -1.578112 1.6831845
0000a0 b3 53 ba bf d4 49 a9 3e 72 de 36 3f 1b 48 57 bf
       -1.4556793 0.3306414 0.71433175 -0.840944
0000b0 0a 3d 53 bd 50 ab 6e 3f 54 1e f2 bc 3a 68 ee 3e
       -0.051571883 0.9323015 -0.029555477 0.46563894
0000c0 31 16 98 be e1 72 a9 be 31 e8 3b be 58 2e fc 3e
       -0.2970443 -0.33095458 -0.18350293 0.49254107
0000d0 e2 b0 77 bf 47 3b e6 be 4d c1 8f be 56 a8 70 bd
       -0.96754277 -0.449671 -0.28077164 -0.058754288
0000e0 1b 3b 57 3e bf 02 a5 3e cf c2 b8 be 4d c3 8d bf
       0.2101864 0.32228658 -0.36086127 -1.1075226
0000f0 ac 74 7f bf 8b f7 cf be 84 77 2c 40 f0 4a 01 bd
       -0.997874 -0.40618548 2.6947947 -0.031565607
000100 67 2c 82 be 89 5d 08 bf 95 48 09 3f 79 90 7b 3f
       -0.254245 -0.53267723 0.53626376 0.9826732
000110 87 e3 90 bf ee b7 d7 3f 56 c6 b0 be a3 e5 54 bf
       -1.1319436 1.6853006 -0.34526318 -0.831629
000120 29 b1 10 3f dd f5 5c be ac f9 ba 3e 15 c6 91 bf
       0.56520325 -0.21578164 0.3651861 -1.1388575
000130 14 1c 20 3f 90 21 4c bf a4 1f 0e bf d3 17 c8 bf
       0.62542844 -0.7973871 -0.5551703 -1.563227
000140 f6 8a 01 3f 16 10 89 3e 1c c3 20 c0 0b 34 50 bf
       0.5060266 0.26770085 -2.5119085 -0.8132941
000150 e1 68 43 bf 8f d1 5f 3f f8 9e 0f bf 52 37 60 bf
       -0.7633191 0.87429136 -0.5610194 -0.8758441
000160 6c e4 f5 be d3 8a 89 be 4e bd 6b bf 0b b9 ea 3e
       -0.48025835 -0.26863727 -0.9208573 0.45844302
000170 c3 30 63 be 86 a9 48 bf 77 83 09 bf 93 50 98 3f
       -0.2218657 -0.7838367 -0.53716224 1.1899589
000180 0a 23 84 bf aa 79 cc 3e 67 36 90 3f 79 50 0d 40
       -1.0323193 0.39936572 1.1266602 2.2080367
